…
I1017 16:33:46.140295 32032 upgrade_proto.cpp:80] Successfully upgraded batch norm layers using deprecated params.
I1017 16:33:46.142786 32032 net.cpp:51] Initializing net from parameters: 
name: "i3d_dw"
state {
  phase: TRAIN
  level: 0
  stage: ""
}
layer {
  name: "data"
  type: "VideoLstmData"
  top: "data"
  top: "label"
  top: "lstm_flag"
  transform_param {
    mirror: true
    crop_size: 224
    mean_value: 90
    mean_value: 98
    mean_value: 102
  }
  video_data_param {
    source: "examples/lstm_one_video/train(zhzhong).txt"
    batch_size: 4
    shuffle: true
    new_length: 48
    new_height: 256
    new_width: 256
  }
}
layer {
  name: "indicator"
  type: "ContinuationIndicator"
  bottom: "lstm_flag"
  top: "indicator"
  continuation_indicator_param {
    time_step: 6
    batch_size: 4
  }
}
layer {
  name: "Conv3d_1a"
  type: "NdConvolution"
  bottom: "data"
  top: "Conv3d_1a"
  param {
    lr_mult: 1
    decay_mult: 1
  }
  convolution_param {
    num_output: 64
    bias_term: false
    weight_filler {
      type: "xavier"
    }
    pad_shape {
      dim: 3
      dim: 3
      dim: 3
    }
    kernel_shape {
      dim: 7
      dim: 7
      dim: 7
    }
    stride_shape {
      dim: 2
      dim: 2
      dim: 2
    }
  }
}
layer {
  name: "bn_Conv3d_1a"
  type: "BatchNorm"
  bottom: "Conv3d_1a"
  top: "Conv3d_1a"
  param {
    lr_mult: 0
    decay_mult: 0
  }
  param {
    lr_mult: 0
    decay_mult: 0
  }
  param {
    lr_mult: 0
    decay_mult: 0
  }
  batch_norm_param {
    use_global_stats: false
  }
}
layer {
  name: "sacle_Conv3d_1a"
  type: "Scale"
  bottom: "Conv3d_1a"
  top: "Conv3d_1a"
  param {
    lr_mult: 1
    decay_mult: 0
  }
  param {
    lr_mult: 1
    decay_mult: 0
  }
  scale_param {
    bias_term: true
  }
}
layer {
  name: "relu1a"
  type: "ReLU"
  bottom: "Conv3d_1a"
  top: "Conv3d_1a"
}
layer {
  name: "MaxPool3d_2a_3x3"
  type: "NdPooling"
  bottom: "Conv3d_1a"
  top: "MaxPool3d_2a_3x3"
  pooling_param {
    pool: MAX
    kernel_shape {
      dim: 1
      dim: 3
      dim: 3
    }
    stride_shape {
      dim: 1
      dim: 2
      dim: 2
    }
  }
}
layer {
  name: "Conv3d_2b"
  type: "NdConvolution"
  bottom: "MaxPool3d_2a_3x3"
  top: "Conv3d_2b"
  param {
    lr_mult: 1
    decay_mult: 1
  }
  convolution_param {
    num_output: 64
    bias_term: false
    weight_filler {
      type: "xavier"
    }
    kernel_shape {
      dim: 1
      dim: 1
      dim: 1
    }
    stride_shape {
      dim: 1
      dim: 1
      dim: 1
    }
  }
}
layer {
  name: "bn_Conv3d_2b"
  type: "BatchNorm"
  bottom: "Conv3d_2b"
  top: "Conv3d_2b"
  param {
    lr_mult: 0
    decay_mult: 0
  }
  param {
    lr_mult: 0
    decay_mult: 0
  }
  param {
    lr_mult: 0
    decay_mult: 0
  }
  batch_norm_param {
    use_global_stats: false
  }
}
layer {
  name: "sacle_Conv3d_2b"
  type: "Scale"
  bottom: "Conv3d_2b"
  top: "Conv3d_2b"
  param {
    lr_mult: 1
    decay_mult: 0
  }
  param {
    lr_mult: 1
    decay_mult: 0
  }
  scale_param {
    bias_term: true
  }
}
layer {
  name: "relu2b"
  type: "ReLU"
  bottom: "Conv3d_2b"
  top: "Conv3d_2b"
}
layer {
  name: "Conv3d_2c_dw"
  type: "DepthwiseNdConvolution"
  bottom: "Conv3d_2b"
  top: "Conv3d_2c_dw"
  param {
    lr_mult: 1
    decay_mult: 1
  }
  convolution_param {
    num_output: 64
    bias_term: false
    weight_filler {
      type: "xavier"
    }
    pad_shape {
      dim: 1
      dim: 1
      dim: 1
    }
    kernel_shape {
      dim: 3
      dim: 3
      dim: 3
    }
    stride_shape {
      dim: 1
      dim: 1
      dim: 1
    }
  }
}
layer {
  name: "relu2c_dw"
  type: "ReLU"
  bottom: "Conv3d_2c_dw"
  top: "Conv3d_2c_dw"
}
layer {
  name: "Conv3d_2c"
  type: "NdConvolution"
  bottom: "Conv3d_2c_dw"
  top: "Conv3d_2c"
  param {
    lr_mult: 1
    decay_mult: 1
  }
  convolution_param {
    num_output: 192
    bias_term: false
    weight_filler {
      type: "xavier"
    }
    kernel_shape {
      dim: 1
      dim: 1
      dim: 1
    }
    stride_shape {
      dim: 1
      dim: 1
      dim: 1
    }
  }
}
layer {
  name: "bn_Conv3d_2c"
  type: "BatchNorm"
  bottom: "Conv3d_2c"
  top: "Conv3d_2c"
  param {
    lr_mult: 0
    decay_mult: 0
  }
  param {
    lr_mult: 0
    decay_mult: 0
  }
  param {
    lr_mult: 0
    decay_mult: 0
  }
  batch_norm_param {
    use_global_stats: false
  }
}
layer {
  name: "sacle_Conv3d_2c"
  type: "Scale"
  bottom: "Conv3d_2c"
  top: "Conv3d_2c"
  param {
    lr_mult: 1
    decay_mult: 0
  }
  param {
    lr_mult: 1
    decay_mult: 0
  }
  scale_param {
    bias_term: true
  }
}
layer {
  name: "relu2c"
  type: "ReLU"
  bottom: "Conv3d_2c"
  top: "Conv3d_2c"
}
layer {
  name: "MaxPool3d_3a_3x3"
  type: "NdPooling"
  bottom: "Conv3d_2c"
  top: "MaxPool3d_3a_3x3"
  pooling_param {
    pool: MAX
    kernel_shape {
      dim: 1
      dim: 3
      dim: 3
    }
    stride_shape {
      dim: 1
      dim: 2
      dim: 2
    }
  }
}
layer {
  name: "Mixed_3b_branch_0_1x1"
  type: "NdConvolution"
  bottom: "MaxPool3d_3a_3x3"
  top: "Mixed_3b_branch_0_1x1"
  param {
    lr_mult: 1
    decay_mult: 1
  }
  convolution_param {
    num_output: 64
    bias_term: false
    weight_filler {
      type: "xavier"
    }
    kernel_shape {
      dim: 1
      dim: 1
      dim: 1
    }
    stride_shape {
      dim: 1
      dim: 1
      dim: 1
    }
  }
}
layer {
  name: "bn_Mixed_3b_branch_0_1x1"
  type: "BatchNorm"
  bottom: "Mixed_3b_branch_0_1x1"
  top: "Mixed_3b_branch_0_1x1"
  param {
    lr_mult: 0
    decay_mult: 0
  }
  param {
    lr_mult: 0
    decay_mult: 0
  }
  param {
    lr_mult: 0
    decay_mult: 0
  }
  batch_norm_param {
    use_global_stats: false
  }
}
layer {
  name: "sacle_Mixed_3b_branch_0_1x1"
  type: "Scale"
  bottom: "Mixed_3b_branch_0_1x1"
  top: "Mixed_3b_branch_0_1x1"
  param {
    lr_mult: 1
    decay_mult: 0
  }
  param {
    lr_mult: 1
    decay_mult: 0
  }
  scale_param {
    bias_term: true
  }
}
layer {
  name: "relu3b_branch_0_1x1"
  type: "ReLU"
  bottom: "Mixed_3b_branch_0_1x1"
  top: "Mixed_3b_branch_0_1x1"
}
layer {
  name: "Mixed_3b_branch_1_1x1"
  type: "NdConvolution"
  bottom: "MaxPool3d_3a_3x3"
  top: "Mixed_3b_branch_1_1x1"
  param {
    lr_mult: 1
    decay_mult: 1
  }
  convolution_param {
    num_output: 96
    bias_term: false
    weight_filler {
      type: "xavier"
    }
    kernel_shape {
      dim: 1
      dim: 1
      dim: 1
    }
    stride_shape {
      dim: 1
      dim: 1
      dim: 1
    }
  }
}
layer {
  name: "bn_Mixed_3b_branch_1_1x1"
  type: "BatchNorm"
  bottom: "Mixed_3b_branch_1_1x1"
  top: "Mixed_3b_branch_1_1x1"
  param {
    lr_mult: 0
    decay_mult: 0
  }
  param {
    lr_mult: 0
    decay_mult: 0
  }
  param {
    lr_mult: 0
    decay_mult: 0
  }
  batch_norm_param {
    use_global_stats: false
  }
}
layer {
  name: "sacle_Mixed_3b_branch_1_1x1"
  type: "Scale"
  bottom: "Mixed_3b_branch_1_1x1"
  top: "Mixed_3b_branch_1_1x1"
  param {
    lr_mult: 1
    decay_mult: 0
  }
  param {
    lr_mult: 1
    decay_mult: 0
  }
  scale_param {
    bias_term: true
  }
}
layer {
  name: "relu3b_branch_1_1x1"
  type: "ReLU"
  bottom: "Mixed_3b_branch_1_1x1"
  top: "Mixed_3b_branch_1_1x1"
}
layer {
  name: "Mixed_3b_branch_1_3x3_dw"
  type: "DepthwiseNdConvolution"
  bottom: "Mixed_3b_branch_1_1x1"
  top: "Mixed_3b_branch_1_3x3_dw"
  param {
    lr_mult: 1
    decay_mult: 1
  }
  convolution_param {
    num_output: 96
    bias_term: false
    weight_filler {
      type: "xavier"
    }
    pad_shape {
      dim: 1
      dim: 1
      dim: 1
    }
    kernel_shape {
      dim: 3
      dim: 3
      dim: 3
    }
    stride_shape {
      dim: 1
      dim: 1
      dim: 1
    }
  }
}
layer {
  name: "relu3b_branch_1_3x3_dw"
  type: "ReLU"
  bottom: "Mixed_3b_branch_1_3x3_dw"
  top: "Mixed_3b_branch_1_3x3_dw"
}
layer {
  name: "Mixed_3b_branch_1_3x3"
  type: "NdConvolution"
  bottom: "Mixed_3b_branch_1_3x3_dw"
  top: "Mixed_3b_branch_1_3x3"
  param {
    lr_mult: 1
    decay_mult: 1
  }
  convolution_param {
    num_output: 128
    bias_term: false
    weight_filler {
      type: "xavier"
    }
    kernel_shape {
      dim: 1
      dim: 1
      dim: 1
    }
    stride_shape {
      dim: 1
      dim: 1
      dim: 1
    }
  }
}
layer {
  name: "bn_Mixed_3b_branch_1_3x3"
  type: "BatchNorm"
  bottom: "Mixed_3b_branch_1_3x3"
  top: "Mixed_3b_branch_1_3x3"
  param {
    lr_mult: 0
    decay_mult: 0
  }
  param {
    lr_mult: 0
    decay_mult: 0
  }
  param {
    lr_mult: 0
    decay_mult: 0
  }
  batch_norm_param {
    use_global_stats: false
  }
}
layer {
  name: "sacle_Mixed_3b_branch_1_3x3"
  type: "Scale"
  bottom: "Mixed_3b_branch_1_3x3"
  top: "Mixed_3b_branch_1_3x3"
  param {
    lr_mult: 1
    decay_mult: 0
  }
  param {
    lr_mult: 1
    decay_mult: 0
  }
  scale_param {
    bias_term: true
  }
}
layer {
  name: "relu3b_branch_1_3x3"
  type: "ReLU"
  bottom: "Mixed_3b_branch_1_3x3"
  top: "Mixed_3b_branch_1_3x3"
}
layer {
  name: "Mixed_3b_branch_2_1x1"
  type: "NdConvolution"
  bottom: "MaxPool3d_3a_3x3"
  top: "Mixed_3b_branch_2_1x1"
  param {
    lr_mult: 1
    decay_mult: 1
  }
  convolution_param {
    num_output: 16
    bias_term: false
    weight_filler {
      type: "xavier"
    }
    kernel_shape {
      dim: 1
      dim: 1
      dim: 1
    }
    stride_shape {
      dim: 1
      dim: 1
      dim: 1
    }
  }
}
layer {
  name: "bn_Mixed_3b_branch_2_1x1"
  type: "BatchNorm"
  bottom: "Mixed_3b_branch_2_1x1"
  top: "Mixed_3b_branch_2_1x1"
  param {
    lr_mult: 0
    decay_mult: 0
  }
  param {
    lr_mult: 0
    decay_mult: 0
  }
  param {
    lr_mult: 0
    decay_mult: 0
  }
  batch_norm_param {
    use_global_stats: false
  }
}
layer {
  name: "sacle_Mixed_3b_branch_2_1x1"
  type: "Scale"
  bottom: "Mixed_3b_branch_2_1x1"
  top: "Mixed_3b_branch_2_1x1"
  param {
    lr_mult: 1
    decay_mult: 0
  }
  param {
    lr_mult: 1
    decay_mult: 0
  }
  scale_param {
    bias_term: true
  }
}
layer {
  name: "relu3b_branch_2_1x1"
  type: "ReLU"
  bottom: "Mixed_3b_branch_2_1x1"
  top: "Mixed_3b_branch_2_1x1"
}
layer {
  name: "Mixed_3b_branch_2_5x5_dw"
  type: "DepthwiseNdConvolution"
  bottom: "Mixed_3b_branch_2_1x1"
  top: "Mixed_3b_branch_2_5x5_dw"
  param {
    lr_mult: 1
    decay_mult: 1
  }
  convolution_param {
    num_output: 16
    bias_term: false
    weight_filler {
      type: "xavier"
    }
    pad_shape {
      dim: 2
      dim: 2
      dim: 2
    }
    kernel_shape {
      dim: 5
      dim: 5
      dim: 5
    }
    stride_shape {
      dim: 1
      dim: 1
      dim: 1
    }
  }
}
layer {
  name: "relu3b_branch_2_5x5_dw"
  type: "ReLU"
  bottom: "Mixed_3b_branch_2_5x5_dw"
  top: "Mixed_3b_branch_2_5x5_dw"
}
layer {
  name: "Mixed_3b_branch_2_5x5"
  type: "NdConvolution"
  bottom: "Mixed_3b_branch_2_5x5_dw"
  top: "Mixed_3b_branch_2_5x5"
  param {
    lr_mult: 1
    decay_mult: 1
  }
  convolution_param {
    num_output: 32
    bias_term: false
    weight_filler {
      type: "xavier"
    }
    kernel_shape {
      dim: 1
      dim: 1
      dim: 1
    }
    stride_shape {
      dim: 1
      dim: 1
      dim: 1
    }
  }
}
layer {
  name: "bn_Mixed_3b_branch_2_5x5"
  type: "BatchNorm"
  bottom: "Mixed_3b_branch_2_5x5"
  top: "Mixed_3b_branch_2_5x5"
  param {
    lr_mult: 0
    decay_mult: 0
  }
  param {
    lr_mult: 0
    decay_mult: 0
  }
  param {
    lr_mult: 0
    decay_mult: 0
  }
  batch_norm_param {
    use_global_stats: false
  }
}
layer {
  name: "sacle_Mixed_3b_branch_2_5x5"
  type: "Scale"
  bottom: "Mixed_3b_branch_2_5x5"
  top: "Mixed_3b_branch_2_5x5"
  param {
    lr_mult: 1
    decay_mult: 0
  }
  param {
    lr_mult: 1
    decay_mult: 0
  }
  scale_param {
    bias_term: true
  }
}
layer {
  name: "relu3b_branch_2_5x5"
  type: "ReLU"
  bottom: "Mixed_3b_branch_2_5x5"
  top: "Mixed_3b_branch_2_5x5"
}
layer {
  name: "Mixed_3b_branch_3_Maxpool"
  type: "NdPooling"
  bottom: "MaxPool3d_3a_3x3"
  top: "Mixed_3b_branch_3_Maxpool"
  pooling_param {
    pool: MAX
    pad_shape {
      dim: 1
      dim: 1
      dim: 1
    }
    kernel_shape {
      dim: 3
      dim: 3
      dim: 3
    }
    stride_shape {
      dim: 1
      dim: 1
      dim: 1
    }
  }
}
layer {
  name: "Mixed_3b_branch_3_1x1"
  type: "NdConvolution"
  bottom: "Mixed_3b_branch_3_Maxpool"
  top: "Mixed_3b_branch_3_1x1"
  param {
    lr_mult: 1
    decay_mult: 1
  }
  convolution_param {
    num_output: 32
    bias_term: false
    weight_filler {
      type: "xavier"
    }
    kernel_shape {
      dim: 1
      dim: 1
      dim: 1
    }
    stride_shape {
      dim: 1
      dim: 1
      dim: 1
    }
  }
}
layer {
  name: "bn_Mixed_3b_branch_3_1x1"
  type: "BatchNorm"
  bottom: "Mixed_3b_branch_3_1x1"
  top: "Mixed_3b_branch_3_1x1"
  param {
    lr_mult: 0
    decay_mult: 0
  }
  param {
    lr_mult: 0
    decay_mult: 0
  }
  param {
    lr_mult: 0
    decay_mult: 0
  }
  batch_norm_param {
    use_global_stats: false
  }
}
layer {
  name: "sacle_Mixed_3b_branch_3_1x1"
  type: "Scale"
  bottom: "Mixed_3b_branch_3_1x1"
  top: "Mixed_3b_branch_3_1x1"
  param {
    lr_mult: 1
    decay_mult: 0
  }
  param {
    lr_mult: 1
    decay_mult: 0
  }
  scale_param {
    bias_term: true
  }
}
layer {
  name: "relu3b_branch_3_1x1"
  type: "ReLU"
  bottom: "Mixed_3b_branch_3_1x1"
  top: "Mixed_3b_branch_3_1x1"
}
layer {
  name: "Mixed_3b"
  type: "Concat"
  bottom: "Mixed_3b_branch_0_1x1"
  bottom: "Mixed_3b_branch_1_3x3"
  bottom: "Mixed_3b_branch_2_5x5"
  bottom: "Mixed_3b_branch_3_1x1"
  top: "Mixed_3b"
  concat_param {
    axis: 1
  }
}
layer {
  name: "Mixed_3c_branch_0_1x1"
  type: "NdConvolution"
  bottom: "Mixed_3b"
  top: "Mixed_3c_branch_0_1x1"
  param {
    lr_mult: 1
    decay_mult: 1
  }
  convolution_param {
    num_output: 128
    bias_term: false
    weight_filler {
      type: "xavier"
    }
    kernel_shape {
      dim: 1
      dim: 1
      dim: 1
    }
    stride_shape {
      dim: 1
      dim: 1
      dim: 1
    }
  }
}
layer {
  name: "bn_Mixed_3c_branch_0_1x1"
  type: "BatchNorm"
  bottom: "Mixed_3c_branch_0_1x1"
  top: "Mixed_3c_branch_0_1x1"
  param {
    lr_mult: 0
    decay_mult: 0
  }
  param {
    lr_mult: 0
    decay_mult: 0
  }
  param {
    lr_mult: 0
    decay_mult: 0
  }
  batch_norm_param {
    use_global_stats: false
  }
}
layer {
  name: "sacle_Mixed_3c_branch_0_1x1"
  type: "Scale"
  bottom: "Mixed_3c_branch_0_1x1"
  top: "Mixed_3c_branch_0_1x1"
  param {
    lr_mult: 1
    decay_mult: 0
  }
  param {
    lr_mult: 1
    decay_mult: 0
  }
  scale_param {
    bias_term: true
  }
}
layer {
  name: "relu3c_branch_0_1x1"
  type: "ReLU"
  bottom: "Mixed_3c_branch_0_1x1"
  top: "Mixed_3c_branch_0_1x1"
}
layer {
  name: "Mixed_3c_branch_1_1x1"
  type: "NdConvolution"
  bottom: "Mixed_3b"
  top: "Mixed_3c_branch_1_1x1"
  param {
    lr_mult: 1
    decay_mult: 1
  }
  convolution_param {
    num_output: 128
    bias_term: false
    weight_filler {
      type: "xavier"
    }
    kernel_shape {
      dim: 1
      dim: 1
      dim: 1
    }
    stride_shape {
      dim: 1
      dim: 1
      dim: 1
    }
  }
}
layer {
  name: "bn_Mixed_3c_branch_1_1x1"
  type: "BatchNorm"
  bottom: "Mixed_3c_branch_1_1x1"
  top: "Mixed_3c_branch_1_1x1"
  param {
    lr_mult: 0
    decay_mult: 0
  }
  param {
    lr_mult: 0
    decay_mult: 0
  }
  param {
    lr_mult: 0
    decay_mult: 0
  }
  batch_norm_param {
    use_global_stats: false
  }
}
layer {
  name: "sacle_Mixed_3c_branch_1_1x1"
  type: "Scale"
  bottom: "Mixed_3c_branch_1_1x1"
  top: "Mixed_3c_branch_1_1x1"
  param {
    lr_mult: 1
    decay_mult: 0
  }
  param {
    lr_mult: 1
    decay_mult: 0
  }
  scale_param {
    bias_term: true
  }
}
layer {
  name: "relu3c_branch_1_1x1"
  type: "ReLU"
  bottom: "Mixed_3c_branch_1_1x1"
  top: "Mixed_3c_branch_1_1x1"
}
layer {
  name: "Mixed_3c_branch_1_3x3_dw"
  type: "DepthwiseNdConvolution"
  bottom: "Mixed_3c_branch_1_1x1"
  top: "Mixed_3c_branch_1_3x3_dw"
  param {
    lr_mult: 1
    decay_mult: 1
  }
  convolution_param {
    num_output: 128
    bias_term: false
    weight_filler {
      type: "xavier"
    }
    pad_shape {
      dim: 1
      dim: 1
      dim: 1
    }
    kernel_shape {
      dim: 3
      dim: 3
      dim: 3
    }
    stride_shape {
      dim: 1
      dim: 1
      dim: 1
    }
  }
}
layer {
  name: "relu3c_branch_1_3x3_dw"
  type: "ReLU"
  bottom: "Mixed_3c_branch_1_3x3_dw"
  top: "Mixed_3c_branch_1_3x3_dw"
}
layer {
  name: "Mixed_3c_branch_1_3x3"
  type: "NdConvolution"
  bottom: "Mixed_3c_branch_1_3x3_dw"
  top: "Mixed_3c_branch_1_3x3"
  param {
    lr_mult: 1
    decay_mult: 1
  }
  convolution_param {
    num_output: 192
    bias_term: false
    weight_filler {
      type: "xavier"
    }
    kernel_shape {
      dim: 1
      dim: 1
      dim: 1
    }
    stride_shape {
      dim: 1
      dim: 1
      dim: 1
    }
  }
}
layer {
  name: "bn_Mixed_3c_branch_1_3x3"
  type: "BatchNorm"
  bottom: "Mixed_3c_branch_1_3x3"
  top: "Mixed_3c_branch_1_3x3"
  param {
    lr_mult: 0
    decay_mult: 0
  }
  param {
    lr_mult: 0
    decay_mult: 0
  }
  param {
    lr_mult: 0
    decay_mult: 0
  }
  batch_norm_param {
    use_global_stats: false
  }
}
layer {
  name: "sacle_Mixed_3c_branch_1_3x3"
  type: "Scale"
  bottom: "Mixed_3c_branch_1_3x3"
  top: "Mixed_3c_branch_1_3x3"
  param {
    lr_mult: 1
    decay_mult: 0
  }
  param {
    lr_mult: 1
    decay_mult: 0
  }
  scale_param {
    bias_term: true
  }
}
layer {
  name: "relu3c_branch_1_3x3"
  type: "ReLU"
  bottom: "Mixed_3c_branch_1_3x3"
  top: "Mixed_3c_branch_1_3x3"
}
layer {
  name: "Mixed_3c_branch_2_1x1"
  type: "NdConvolution"
  bottom: "Mixed_3b"
  top: "Mixed_3c_branch_2_1x1"
  param {
    lr_mult: 1
    decay_mult: 1
  }
  convolution_param {
    num_output: 32
    bias_term: false
    weight_filler {
      type: "xavier"
    }
    kernel_shape {
      dim: 1
      dim: 1
      dim: 1
    }
    stride_shape {
      dim: 1
      dim: 1
      dim: 1
    }
  }
}
layer {
  name: "bn_Mixed_3c_branch_2_1x1"
  type: "BatchNorm"
  bottom: "Mixed_3c_branch_2_1x1"
  top: "Mixed_3c_branch_2_1x1"
  param {
    lr_mult: 0
    decay_mult: 0
  }
  param {
    lr_mult: 0
    decay_mult: 0
  }
  param {
    lr_mult: 0
    decay_mult: 0
  }
  batch_norm_param {
    use_global_stats: false
  }
}
layer {
  name: "sacle_Mixed_3c_branch_2_1x1"
  type: "Scale"
  bottom: "Mixed_3c_branch_2_1x1"
  top: "Mixed_3c_branch_2_1x1"
  param {
    lr_mult: 1
    decay_mult: 0
  }
  param {
    lr_mult: 1
    decay_mult: 0
  }
  scale_param {
    bias_term: true
  }
}
layer {
  name: "relu3c_branch_2_1x1"
  type: "ReLU"
  bottom: "Mixed_3c_branch_2_1x1"
  top: "Mixed_3c_branch_2_1x1"
}
layer {
  name: "Mixed_3c_branch_2_5x5_dw"
  type: "DepthwiseNdConvolution"
  bottom: "Mixed_3c_branch_2_1x1"
  top: "Mixed_3c_branch_2_5x5_dw"
  param {
    lr_mult: 1
    decay_mult: 1
  }
  convolution_param {
    num_output: 32
    bias_term: false
    weight_filler {
      type: "xavier"
    }
    pad_shape {
      dim: 2
      dim: 2
      dim: 2
    }
    kernel_shape {
      dim: 5
      dim: 5
      dim: 5
    }
    stride_shape {
      dim: 1
      dim: 1
      dim: 1
    }
  }
}
layer {
  name: "relu3c_branch_2_5x5_dw"
  type: "ReLU"
  bottom: "Mixed_3c_branch_2_5x5_dw"
  top: "Mixed_3c_branch_2_5x5_dw"
}
layer {
  name: "Mixed_3c_branch_2_5x5"
  type: "NdConvolution"
  bottom: "Mixed_3c_branch_2_5x5_dw"
  top: "Mixed_3c_branch_2_5x5"
  param {
    lr_mult: 1
    decay_mult: 1
  }
  convolution_param {
    num_output: 96
    bias_term: false
    weight_filler {
      type: "xavier"
    }
    kernel_shape {
      dim: 1
      dim: 1
      dim: 1
    }
    stride_shape {
      dim: 1
      dim: 1
      dim: 1
    }
  }
}
layer {
  name: "bn_Mixed_3c_branch_2_5x5"
  type: "BatchNorm"
  bottom: "Mixed_3c_branch_2_5x5"
  top: "Mixed_3c_branch_2_5x5"
  param {
    lr_mult: 0
    decay_mult: 0
  }
  param {
    lr_mult: 0
    decay_mult: 0
  }
  param {
    lr_mult: 0
    decay_mult: 0
  }
  batch_norm_param {
    use_global_stats: false
  }
}
layer {
  name: "sacle_Mixed_3c_branch_2_5x5"
  type: "Scale"
  bottom: "Mixed_3c_branch_2_5x5"
  top: "Mixed_3c_branch_2_5x5"
  param {
    lr_mult: 1
    decay_mult: 0
  }
  param {
    lr_mult: 1
    decay_mult: 0
  }
  scale_param {
    bias_term: true
  }
}
layer {
  name: "relu3c_branch_2_5x5"
  type: "ReLU"
  bottom: "Mixed_3c_branch_2_5x5"
  top: "Mixed_3c_branch_2_5x5"
}
layer {
  name: "Mixed_3c_branch_3_Maxpool"
  type: "NdPooling"
  bottom: "Mixed_3b"
  top: "Mixed_3c_branch_3_Maxpool"
  pooling_param {
    pool: MAX
    pad_shape {
      dim: 1
      dim: 1
      dim: 1
    }
    kernel_shape {
      dim: 3
      dim: 3
      dim: 3
    }
    stride_shape {
      dim: 1
      dim: 1
      dim: 1
    }
  }
}
layer {
  name: "Mixed_3c_branch_3_1x1"
  type: "NdConvolution"
  bottom: "Mixed_3c_branch_3_Maxpool"
  top: "Mixed_3c_branch_3_1x1"
  param {
    lr_mult: 1
    decay_mult: 1
  }
  convolution_param {
    num_output: 64
    bias_term: false
    weight_filler {
      type: "xavier"
    }
    kernel_shape {
      dim: 1
      dim: 1
      dim: 1
    }
    stride_shape {
      dim: 1
      dim: 1
      dim: 1
    }
  }
}
layer {
  name: "bn_Mixed_3c_branch_3_1x1"
  type: "BatchNorm"
  bottom: "Mixed_3c_branch_3_1x1"
  top: "Mixed_3c_branch_3_1x1"
  param {
    lr_mult: 0
    decay_mult: 0
  }
  param {
    lr_mult: 0
    decay_mult: 0
  }
  param {
    lr_mult: 0
    decay_mult: 0
  }
  batch_norm_param {
    use_global_stats: false
  }
}
layer {
  name: "sacle_Mixed_3c_branch_3_1x1"
  type: "Scale"
  bottom: "Mixed_3c_branch_3_1x1"
  top: "Mixed_3c_branch_3_1x1"
  param {
    lr_mult: 1
    decay_mult: 0
  }
  param {
    lr_mult: 1
    decay_mult: 0
  }
  scale_param {
    bias_term: true
  }
}
layer {
  name: "relu3c_branch_3_1x1"
  type: "ReLU"
  bottom: "Mixed_3c_branch_3_1x1"
  top: "Mixed_3c_branch_3_1x1"
}
layer {
  name: "Mixed_3c"
  type: "Concat"
  bottom: "Mixed_3c_branch_0_1x1"
  bottom: "Mixed_3c_branch_1_3x3"
  bottom: "Mixed_3c_branch_2_5x5"
  bottom: "Mixed_3c_branch_3_1x1"
  top: "Mixed_3c"
  concat_param {
    axis: 1
  }
}
layer {
  name: "MaxPool3d_4a_3x3"
  type: "NdPooling"
  bottom: "Mixed_3c"
  top: "MaxPool3d_4a_3x3"
  pooling_param {
    pool: MAX
    kernel_shape {
      dim: 3
      dim: 3
      dim: 3
    }
    stride_shape {
      dim: 2
      dim: 2
      dim: 2
    }
  }
}
layer {
  name: "Mixed_4b_branch_0_1x1"
  type: "NdConvolution"
  bottom: "MaxPool3d_4a_3x3"
  top: "Mixed_4b_branch_0_1x1"
  param {
    lr_mult: 1
    decay_mult: 1
  }
  convolution_param {
    num_output: 192
    bias_term: false
    weight_filler {
      type: "xavier"
    }
    kernel_shape {
      dim: 1
      dim: 1
      dim: 1
    }
    stride_shape {
      dim: 1
      dim: 1
      dim: 1
    }
  }
}
layer {
  name: "bn_Mixed_4b_branch_0_1x1"
  type: "BatchNorm"
  bottom: "Mixed_4b_branch_0_1x1"
  top: "Mixed_4b_branch_0_1x1"
  param {
    lr_mult: 0
    decay_mult: 0
  }
  param {
    lr_mult: 0
    decay_mult: 0
  }
  param {
    lr_mult: 0
    decay_mult: 0
  }
  batch_norm_param {
    use_global_stats: false
  }
}
layer {
  name: "sacle_Mixed_4b_branch_0_1x1"
  type: "Scale"
  bottom: "Mixed_4b_branch_0_1x1"
  top: "Mixed_4b_branch_0_1x1"
  param {
    lr_mult: 1
    decay_mult: 0
  }
  param {
    lr_mult: 1
    decay_mult: 0
  }
  scale_param {
    bias_term: true
  }
}
layer {
  name: "relu4b_branch_0_1x1"
  type: "ReLU"
  bottom: "Mixed_4b_branch_0_1x1"
  top: "Mixed_4b_branch_0_1x1"
}
layer {
  name: "Mixed_4b_branch_1_1x1"
  type: "NdConvolution"
  bottom: "MaxPool3d_4a_3x3"
  top: "Mixed_4b_branch_1_1x1"
  param {
    lr_mult: 1
    decay_mult: 1
  }
  convolution_param {
    num_output: 96
    bias_term: false
    weight_filler {
      type: "xavier"
    }
    kernel_shape {
      dim: 1
      dim: 1
      dim: 1
    }
    stride_shape {
      dim: 1
      dim: 1
      dim: 1
    }
  }
}
layer {
  name: "bn_Mixed_4b_branch_1_1x1"
  type: "BatchNorm"
  bottom: "Mixed_4b_branch_1_1x1"
  top: "Mixed_4b_branch_1_1x1"
  param {
    lr_mult: 0
    decay_mult: 0
  }
  param {
    lr_mult: 0
    decay_mult: 0
  }
  param {
    lr_mult: 0
    decay_mult: 0
  }
  batch_norm_param {
    use_global_stats: false
  }
}
layer {
  name: "sacle_Mixed_4b_branch_1_1x1"
  type: "Scale"
  bottom: "Mixed_4b_branch_1_1x1"
  top: "Mixed_4b_branch_1_1x1"
  param {
    lr_mult: 1
    decay_mult: 0
  }
  param {
    lr_mult: 1
    decay_mult: 0
  }
  scale_param {
    bias_term: true
  }
}
layer {
  name: "relu4b_branch_1_1x1"
  type: "ReLU"
  bottom: "Mixed_4b_branch_1_1x1"
  top: "Mixed_4b_branch_1_1x1"
}
layer {
  name: "Mixed_4b_branch_1_3x3_dw"
  type: "DepthwiseNdConvolution"
  bottom: "Mixed_4b_branch_1_1x1"
  top: "Mixed_4b_branch_1_3x3_dw"
  param {
    lr_mult: 1
    decay_mult: 1
  }
  convolution_param {
    num_output: 96
    bias_term: false
    weight_filler {
      type: "xavier"
    }
    pad_shape {
      dim: 1
      dim: 1
      dim: 1
    }
    kernel_shape {
      dim: 3
      dim: 3
      dim: 3
    }
    stride_shape {
      dim: 1
      dim: 1
      dim: 1
    }
  }
}
layer {
  name: "relu4b_branch_1_3x3_dw"
  type: "ReLU"
  bottom: "Mixed_4b_branch_1_3x3_dw"
  top: "Mixed_4b_branch_1_3x3_dw"
}
layer {
  name: "Mixed_4b_branch_1_3x3"
  type: "NdConvolution"
  bottom: "Mixed_4b_branch_1_3x3_dw"
  top: "Mixed_4b_branch_1_3x3"
  param {
    lr_mult: 1
    decay_mult: 1
  }
  convolution_param {
    num_output: 208
    bias_term: false
    weight_filler {
      type: "xavier"
    }
    kernel_shape {
      dim: 1
      dim: 1
      dim: 1
    }
    stride_shape {
      dim: 1
      dim: 1
      dim: 1
    }
  }
}
layer {
  name: "bn_Mixed_4b_branch_1_3x3"
  type: "BatchNorm"
  bottom: "Mixed_4b_branch_1_3x3"
  top: "Mixed_4b_branch_1_3x3"
  param {
    lr_mult: 0
    decay_mult: 0
  }
  param {
    lr_mult: 0
    decay_mult: 0
  }
  param {
    lr_mult: 0
    decay_mult: 0
  }
  batch_norm_param {
    use_global_stats: false
  }
}
layer {
  name: "sacle_Mixed_4b_branch_1_3x3"
  type: "Scale"
  bottom: "Mixed_4b_branch_1_3x3"
  top: "Mixed_4b_branch_1_3x3"
  param {
    lr_mult: 1
    decay_mult: 0
  }
  param {
    lr_mult: 1
    decay_mult: 0
  }
  scale_param {
    bias_term: true
  }
}
layer {
  name: "relu4b_branch_1_3x3"
  type: "ReLU"
  bottom: "Mixed_4b_branch_1_3x3"
  top: "Mixed_4b_branch_1_3x3"
}
layer {
  name: "Mixed_4b_branch_2_1x1"
  type: "NdConvolution"
  bottom: "MaxPool3d_4a_3x3"
  top: "Mixed_4b_branch_2_1x1"
  param {
    lr_mult: 1
    decay_mult: 1
  }
  convolution_param {
    num_output: 16
    bias_term: false
    weight_filler {
      type: "xavier"
    }
    kernel_shape {
      dim: 1
      dim: 1
      dim: 1
    }
    stride_shape {
      dim: 1
      dim: 1
      dim: 1
    }
  }
}
layer {
  name: "bn_Mixed_4b_branch_2_1x1"
  type: "BatchNorm"
  bottom: "Mixed_4b_branch_2_1x1"
  top: "Mixed_4b_branch_2_1x1"
  param {
    lr_mult: 0
    decay_mult: 0
  }
  param {
    lr_mult: 0
    decay_mult: 0
  }
  param {
    lr_mult: 0
    decay_mult: 0
  }
  batch_norm_param {
    use_global_stats: false
  }
}
layer {
  name: "sacle_Mixed_4b_branch_2_1x1"
  type: "Scale"
  bottom: "Mixed_4b_branch_2_1x1"
  top: "Mixed_4b_branch_2_1x1"
  param {
    lr_mult: 1
    decay_mult: 0
  }
  param {
    lr_mult: 1
    decay_mult: 0
  }
  scale_param {
    bias_term: true
  }
}
layer {
  name: "relu4b_branch_2_1x1"
  type: "ReLU"
  bottom: "Mixed_4b_branch_2_1x1"
  top: "Mixed_4b_branch_2_1x1"
}
layer {
  name: "Mixed_4b_branch_2_5x5_dw"
  type: "DepthwiseNdConvolution"
  bottom: "Mixed_4b_branch_2_1x1"
  top: "Mixed_4b_branch_2_5x5_dw"
  param {
    lr_mult: 1
    decay_mult: 1
  }
  convolution_param {
    num_output: 16
    bias_term: false
    weight_filler {
      type: "xavier"
    }
    pad_shape {
      dim: 2
      dim: 2
      dim: 2
    }
    kernel_shape {
      dim: 5
      dim: 5
      dim: 5
    }
    stride_shape {
      dim: 1
      dim: 1
      dim: 1
    }
  }
}
layer {
  name: "relu4b_branch_2_5x5_dw"
  type: "ReLU"
  bottom: "Mixed_4b_branch_2_5x5_dw"
  top: "Mixed_4b_branch_2_5x5_dw"
}
layer {
  name: "Mixed_4b_branch_2_5x5"
  type: "NdConvolution"
  bottom: "Mixed_4b_branch_2_5x5_dw"
  top: "Mixed_4b_branch_2_5x5"
  param {
    lr_mult: 1
    decay_mult: 1
  }
  convolution_param {
    num_output: 48
    bias_term: false
    weight_filler {
      type: "xavier"
    }
    kernel_shape {
      dim: 1
      dim: 1
      dim: 1
    }
    stride_shape {
      dim: 1
      dim: 1
      dim: 1
    }
  }
}
layer {
  name: "bn_Mixed_4b_branch_2_5x5"
  type: "BatchNorm"
  bottom: "Mixed_4b_branch_2_5x5"
  top: "Mixed_4b_branch_2_5x5"
  param {
    lr_mult: 0
    decay_mult: 0
  }
  param {
    lr_mult: 0
    decay_mult: 0
  }
  param {
    lr_mult: 0
    decay_mult: 0
  }
  batch_norm_param {
    use_global_stats: false
  }
}
layer {
  name: "sacle_Mixed_4b_branch_2_5x5"
  type: "Scale"
  bottom: "Mixed_4b_branch_2_5x5"
  top: "Mixed_4b_branch_2_5x5"
  param {
    lr_mult: 1
    decay_mult: 0
  }
  param {
    lr_mult: 1
    decay_mult: 0
  }
  scale_param {
    bias_term: true
  }
}
layer {
  name: "relu4b_branch_2_5x5"
  type: "ReLU"
  bottom: "Mixed_4b_branch_2_5x5"
  top: "Mixed_4b_branch_2_5x5"
}
layer {
  name: "Mixed_4b_branch_3_Maxpool"
  type: "NdPooling"
  bottom: "MaxPool3d_4a_3x3"
  top: "Mixed_4b_branch_3_Maxpool"
  pooling_param {
    pool: MAX
    pad_shape {
      dim: 1
      dim: 1
      dim: 1
    }
    kernel_shape {
      dim: 3
      dim: 3
      dim: 3
    }
    stride_shape {
      dim: 1
      dim: 1
      dim: 1
    }
  }
}
layer {
  name: "Mixed_4b_branch_3_1x1"
  type: "NdConvolution"
  bottom: "Mixed_4b_branch_3_Maxpool"
  top: "Mixed_4b_branch_3_1x1"
  param {
    lr_mult: 1
    decay_mult: 1
  }
  convolution_param {
    num_output: 64
    bias_term: false
    weight_filler {
      type: "xavier"
    }
    kernel_shape {
      dim: 1
      dim: 1
      dim: 1
    }
    stride_shape {
      dim: 1
      dim: 1
      dim: 1
    }
  }
}
layer {
  name: "bn_Mixed_4b_branch_3_1x1"
  type: "BatchNorm"
  bottom: "Mixed_4b_branch_3_1x1"
  top: "Mixed_4b_branch_3_1x1"
  p
I1017 16:33:46.144165 32032 layer_factory.hpp:77] Creating layer data
I1017 16:33:46.144210 32032 net.cpp:84] Creating Layer data
I1017 16:33:46.144218 32032 net.cpp:380] data -> data
I1017 16:33:46.144248 32032 net.cpp:380] data -> label
I1017 16:33:46.144258 32032 net.cpp:380] data -> lstm_flag
I1017 16:33:46.144655 32032 video_lstm_data_layer.cpp:87] Opening file examples/lstm_one_video/train(zhzhong).txt
I1017 16:33:46.146090 32032 video_lstm_data_layer.cpp:103] Shuffling data
I1017 16:33:46.146158 32032 video_lstm_data_layer.cpp:113] A total of 2323 video chunks.
I1017 16:33:46.453533 32032 video_lstm_data_layer.cpp:168] output data size: 4,3,48,224,224
I1017 16:33:46.751235 32032 net.cpp:122] Setting up data
I1017 16:33:46.751286 32032 net.cpp:129] Top shape: 4 3 48 224 224 (28901376)
I1017 16:33:46.751307 32032 net.cpp:129] Top shape: 4 (4)
I1017 16:33:46.751312 32032 net.cpp:129] Top shape: 4 (4)
I1017 16:33:46.751314 32032 net.cpp:137] Memory required for data: 115605536
I1017 16:33:46.751324 32032 layer_factory.hpp:77] Creating layer label_data_1_split
I1017 16:33:46.751355 32032 net.cpp:84] Creating Layer label_data_1_split
I1017 16:33:46.751363 32032 net.cpp:406] label_data_1_split <- label
I1017 16:33:46.751380 32032 net.cpp:380] label_data_1_split -> label_data_1_split_0
I1017 16:33:46.751410 32032 net.cpp:380] label_data_1_split -> label_data_1_split_1
I1017 16:33:46.751577 32032 net.cpp:122] Setting up label_data_1_split
I1017 16:33:46.751610 32032 net.cpp:129] Top shape: 4 (4)
I1017 16:33:46.751616 32032 net.cpp:129] Top shape: 4 (4)
I1017 16:33:46.751621 32032 net.cpp:137] Memory required for data: 115605568
I1017 16:33:46.751628 32032 layer_factory.hpp:77] Creating layer indicator
I1017 16:33:46.751662 32032 net.cpp:84] Creating Layer indicator
I1017 16:33:46.751667 32032 net.cpp:406] indicator <- lstm_flag
I1017 16:33:46.751679 32032 net.cpp:380] indicator -> indicator
I1017 16:33:46.751780 32032 net.cpp:122] Setting up indicator
I1017 16:33:46.751788 32032 net.cpp:129] Top shape: 6 4 (24)
I1017 16:33:46.751792 32032 net.cpp:137] Memory required for data: 115605664
I1017 16:33:46.751797 32032 layer_factory.hpp:77] Creating layer Conv3d_1a
I1017 16:33:46.751821 32032 net.cpp:84] Creating Layer Conv3d_1a
I1017 16:33:46.751827 32032 net.cpp:406] Conv3d_1a <- data
I1017 16:33:46.751835 32032 net.cpp:380] Conv3d_1a -> Conv3d_1a
I1017 16:33:47.061650 32032 net.cpp:122] Setting up Conv3d_1a
I1017 16:33:47.061688 32032 net.cpp:129] Top shape: 4 64 24 112 112 (77070336)
I1017 16:33:47.061693 32032 net.cpp:137] Memory required for data: 423887008
I1017 16:33:47.061756 32032 layer_factory.hpp:77] Creating layer bn_Conv3d_1a
I1017 16:33:47.061779 32032 net.cpp:84] Creating Layer bn_Conv3d_1a
I1017 16:33:47.061785 32032 net.cpp:406] bn_Conv3d_1a <- Conv3d_1a
I1017 16:33:47.061794 32032 net.cpp:367] bn_Conv3d_1a -> Conv3d_1a (in-place)
I1017 16:33:47.062623 32032 net.cpp:122] Setting up bn_Conv3d_1a
I1017 16:33:47.062634 32032 net.cpp:129] Top shape: 4 64 24 112 112 (77070336)
I1017 16:33:47.062638 32032 net.cpp:137] Memory required for data: 732168352
I1017 16:33:47.062650 32032 layer_factory.hpp:77] Creating layer sacle_Conv3d_1a
I1017 16:33:47.062661 32032 net.cpp:84] Creating Layer sacle_Conv3d_1a
I1017 16:33:47.062666 32032 net.cpp:406] sacle_Conv3d_1a <- Conv3d_1a
I1017 16:33:47.062671 32032 net.cpp:367] sacle_Conv3d_1a -> Conv3d_1a (in-place)
I1017 16:33:47.062721 32032 layer_factory.hpp:77] Creating layer sacle_Conv3d_1a
I1017 16:33:47.065316 32032 net.cpp:122] Setting up sacle_Conv3d_1a
I1017 16:33:47.065356 32032 net.cpp:129] Top shape: 4 64 24 112 112 (77070336)
I1017 16:33:47.065359 32032 net.cpp:137] Memory required for data: 1040449696
I1017 16:33:47.065373 32032 layer_factory.hpp:77] Creating layer relu1a
I1017 16:33:47.065387 32032 net.cpp:84] Creating Layer relu1a
I1017 16:33:47.065392 32032 net.cpp:406] relu1a <- Conv3d_1a
I1017 16:33:47.065402 32032 net.cpp:367] relu1a -> Conv3d_1a (in-place)
I1017 16:33:47.065676 32032 net.cpp:122] Setting up relu1a
I1017 16:33:47.065688 32032 net.cpp:129] Top shape: 4 64 24 112 112 (77070336)
I1017 16:33:47.065693 32032 net.cpp:137] Memory required for data: 1348731040
I1017 16:33:47.065698 32032 layer_factory.hpp:77] Creating layer MaxPool3d_2a_3x3
I1017 16:33:47.065711 32032 net.cpp:84] Creating Layer MaxPool3d_2a_3x3
I1017 16:33:47.065716 32032 net.cpp:406] MaxPool3d_2a_3x3 <- Conv3d_1a
I1017 16:33:47.065724 32032 net.cpp:380] MaxPool3d_2a_3x3 -> MaxPool3d_2a_3x3
I1017 16:33:47.066007 32032 net.cpp:122] Setting up MaxPool3d_2a_3x3
I1017 16:33:47.066032 32032 net.cpp:129] Top shape: 4 64 24 56 56 (19267584)
I1017 16:33:47.066051 32032 net.cpp:137] Memory required for data: 1425801376
I1017 16:33:47.066056 32032 layer_factory.hpp:77] Creating layer Conv3d_2b
I1017 16:33:47.066069 32032 net.cpp:84] Creating Layer Conv3d_2b
I1017 16:33:47.066072 32032 net.cpp:406] Conv3d_2b <- MaxPool3d_2a_3x3
I1017 16:33:47.066097 32032 net.cpp:380] Conv3d_2b -> Conv3d_2b
I1017 16:33:47.067824 32032 net.cpp:122] Setting up Conv3d_2b
I1017 16:33:47.067842 32032 net.cpp:129] Top shape: 4 64 24 56 56 (19267584)
I1017 16:33:47.067860 32032 net.cpp:137] Memory required for data: 1502871712
I1017 16:33:47.067867 32032 layer_factory.hpp:77] Creating layer bn_Conv3d_2b
I1017 16:33:47.067876 32032 net.cpp:84] Creating Layer bn_Conv3d_2b
I1017 16:33:47.067880 32032 net.cpp:406] bn_Conv3d_2b <- Conv3d_2b
I1017 16:33:47.067903 32032 net.cpp:367] bn_Conv3d_2b -> Conv3d_2b (in-place)
I1017 16:33:47.068169 32032 net.cpp:122] Setting up bn_Conv3d_2b
I1017 16:33:47.068193 32032 net.cpp:129] Top shape: 4 64 24 56 56 (19267584)
I1017 16:33:47.068197 32032 net.cpp:137] Memory required for data: 1579942048
I1017 16:33:47.068209 32032 layer_factory.hpp:77] Creating layer sacle_Conv3d_2b
I1017 16:33:47.068234 32032 net.cpp:84] Creating Layer sacle_Conv3d_2b
I1017 16:33:47.068239 32032 net.cpp:406] sacle_Conv3d_2b <- Conv3d_2b
I1017 16:33:47.068245 32032 net.cpp:367] sacle_Conv3d_2b -> Conv3d_2b (in-place)
I1017 16:33:47.068331 32032 layer_factory.hpp:77] Creating layer sacle_Conv3d_2b
I1017 16:33:47.068614 32032 net.cpp:122] Setting up sacle_Conv3d_2b
I1017 16:33:47.068622 32032 net.cpp:129] Top shape: 4 64 24 56 56 (19267584)
I1017 16:33:47.068641 32032 net.cpp:137] Memory required for data: 1657012384
I1017 16:33:47.068647 32032 layer_factory.hpp:77] Creating layer relu2b
I1017 16:33:47.068668 32032 net.cpp:84] Creating Layer relu2b
I1017 16:33:47.068672 32032 net.cpp:406] relu2b <- Conv3d_2b
I1017 16:33:47.068677 32032 net.cpp:367] relu2b -> Conv3d_2b (in-place)
I1017 16:33:47.068863 32032 net.cpp:122] Setting up relu2b
I1017 16:33:47.068873 32032 net.cpp:129] Top shape: 4 64 24 56 56 (19267584)
I1017 16:33:47.068877 32032 net.cpp:137] Memory required for data: 1734082720
I1017 16:33:47.068881 32032 layer_factory.hpp:77] Creating layer Conv3d_2c_dw
I1017 16:33:47.068890 32032 net.cpp:84] Creating Layer Conv3d_2c_dw
I1017 16:33:47.068894 32032 net.cpp:406] Conv3d_2c_dw <- Conv3d_2b
I1017 16:33:47.068905 32032 net.cpp:380] Conv3d_2c_dw -> Conv3d_2c_dw
I1017 16:33:47.069707 32032 net.cpp:122] Setting up Conv3d_2c_dw
I1017 16:33:47.069721 32032 net.cpp:129] Top shape: 4 64 24 56 56 (19267584)
I1017 16:33:47.069725 32032 net.cpp:137] Memory required for data: 1811153056
I1017 16:33:47.069737 32032 layer_factory.hpp:77] Creating layer relu2c_dw
I1017 16:33:47.069747 32032 net.cpp:84] Creating Layer relu2c_dw
I1017 16:33:47.069753 32032 net.cpp:406] relu2c_dw <- Conv3d_2c_dw
I1017 16:33:47.069759 32032 net.cpp:367] relu2c_dw -> Conv3d_2c_dw (in-place)
I1017 16:33:47.070156 32032 net.cpp:122] Setting up relu2c_dw
I1017 16:33:47.070168 32032 net.cpp:129] Top shape: 4 64 24 56 56 (19267584)
I1017 16:33:47.070173 32032 net.cpp:137] Memory required for data: 1888223392
I1017 16:33:47.070176 32032 layer_factory.hpp:77] Creating layer Conv3d_2c
I1017 16:33:47.070185 32032 net.cpp:84] Creating Layer Conv3d_2c
I1017 16:33:47.070190 32032 net.cpp:406] Conv3d_2c <- Conv3d_2c_dw
I1017 16:33:47.070197 32032 net.cpp:380] Conv3d_2c -> Conv3d_2c
I1017 16:33:47.071866 32032 net.cpp:122] Setting up Conv3d_2c
I1017 16:33:47.071882 32032 net.cpp:129] Top shape: 4 192 24 56 56 (57802752)
I1017 16:33:47.071887 32032 net.cpp:137] Memory required for data: 2119434400
I1017 16:33:47.071892 32032 layer_factory.hpp:77] Creating layer bn_Conv3d_2c
I1017 16:33:47.071902 32032 net.cpp:84] Creating Layer bn_Conv3d_2c
I1017 16:33:47.071907 32032 net.cpp:406] bn_Conv3d_2c <- Conv3d_2c
I1017 16:33:47.071914 32032 net.cpp:367] bn_Conv3d_2c -> Conv3d_2c (in-place)
I1017 16:33:47.072268 32032 net.cpp:122] Setting up bn_Conv3d_2c
I1017 16:33:47.072276 32032 net.cpp:129] Top shape: 4 192 24 56 56 (57802752)
I1017 16:33:47.072280 32032 net.cpp:137] Memory required for data: 2350645408
I1017 16:33:47.072309 32032 layer_factory.hpp:77] Creating layer sacle_Conv3d_2c
I1017 16:33:47.072321 32032 net.cpp:84] Creating Layer sacle_Conv3d_2c
I1017 16:33:47.072325 32032 net.cpp:406] sacle_Conv3d_2c <- Conv3d_2c
I1017 16:33:47.072332 32032 net.cpp:367] sacle_Conv3d_2c -> Conv3d_2c (in-place)
I1017 16:33:47.072376 32032 layer_factory.hpp:77] Creating layer sacle_Conv3d_2c
I1017 16:33:47.072751 32032 net.cpp:122] Setting up sacle_Conv3d_2c
I1017 16:33:47.072759 32032 net.cpp:129] Top shape: 4 192 24 56 56 (57802752)
I1017 16:33:47.072780 32032 net.cpp:137] Memory required for data: 2581856416
I1017 16:33:47.072789 32032 layer_factory.hpp:77] Creating layer relu2c
I1017 16:33:47.072795 32032 net.cpp:84] Creating Layer relu2c
I1017 16:33:47.072798 32032 net.cpp:406] relu2c <- Conv3d_2c
I1017 16:33:47.072805 32032 net.cpp:367] relu2c -> Conv3d_2c (in-place)
I1017 16:33:47.073179 32032 net.cpp:122] Setting up relu2c
I1017 16:33:47.073192 32032 net.cpp:129] Top shape: 4 192 24 56 56 (57802752)
I1017 16:33:47.073195 32032 net.cpp:137] Memory required for data: 2813067424
I1017 16:33:47.073199 32032 layer_factory.hpp:77] Creating layer MaxPool3d_3a_3x3
I1017 16:33:47.073210 32032 net.cpp:84] Creating Layer MaxPool3d_3a_3x3
I1017 16:33:47.073256 32032 net.cpp:406] MaxPool3d_3a_3x3 <- Conv3d_2c
I1017 16:33:47.073264 32032 net.cpp:380] MaxPool3d_3a_3x3 -> MaxPool3d_3a_3x3
I1017 16:33:47.073493 32032 net.cpp:122] Setting up MaxPool3d_3a_3x3
I1017 16:33:47.073503 32032 net.cpp:129] Top shape: 4 192 24 28 28 (14450688)
I1017 16:33:47.073506 32032 net.cpp:137] Memory required for data: 2870870176
I1017 16:33:47.073509 32032 layer_factory.hpp:77] Creating layer MaxPool3d_3a_3x3_MaxPool3d_3a_3x3_0_split
I1017 16:33:47.073521 32032 net.cpp:84] Creating Layer MaxPool3d_3a_3x3_MaxPool3d_3a_3x3_0_split
I1017 16:33:47.073524 32032 net.cpp:406] MaxPool3d_3a_3x3_MaxPool3d_3a_3x3_0_split <- MaxPool3d_3a_3x3
I1017 16:33:47.073531 32032 net.cpp:380] MaxPool3d_3a_3x3_MaxPool3d_3a_3x3_0_split -> MaxPool3d_3a_3x3_MaxPool3d_3a_3x3_0_split_0
I1017 16:33:47.073539 32032 net.cpp:380] MaxPool3d_3a_3x3_MaxPool3d_3a_3x3_0_split -> MaxPool3d_3a_3x3_MaxPool3d_3a_3x3_0_split_1
I1017 16:33:47.073596 32032 net.cpp:380] MaxPool3d_3a_3x3_MaxPool3d_3a_3x3_0_split -> MaxPool3d_3a_3x3_MaxPool3d_3a_3x3_0_split_2
I1017 16:33:47.073604 32032 net.cpp:380] MaxPool3d_3a_3x3_MaxPool3d_3a_3x3_0_split -> MaxPool3d_3a_3x3_MaxPool3d_3a_3x3_0_split_3
I1017 16:33:47.073671 32032 net.cpp:122] Setting up MaxPool3d_3a_3x3_MaxPool3d_3a_3x3_0_split
I1017 16:33:47.073679 32032 net.cpp:129] Top shape: 4 192 24 28 28 (14450688)
I1017 16:33:47.073684 32032 net.cpp:129] Top shape: 4 192 24 28 28 (14450688)
I1017 16:33:47.073688 32032 net.cpp:129] Top shape: 4 192 24 28 28 (14450688)
I1017 16:33:47.073693 32032 net.cpp:129] Top shape: 4 192 24 28 28 (14450688)
I1017 16:33:47.073695 32032 net.cpp:137] Memory required for data: 3102081184
I1017 16:33:47.073700 32032 layer_factory.hpp:77] Creating layer Mixed_3b_branch_0_1x1
I1017 16:33:47.073709 32032 net.cpp:84] Creating Layer Mixed_3b_branch_0_1x1
I1017 16:33:47.073714 32032 net.cpp:406] Mixed_3b_branch_0_1x1 <- MaxPool3d_3a_3x3_MaxPool3d_3a_3x3_0_split_0
I1017 16:33:47.073721 32032 net.cpp:380] Mixed_3b_branch_0_1x1 -> Mixed_3b_branch_0_1x1
I1017 16:33:47.074649 32032 net.cpp:122] Setting up Mixed_3b_branch_0_1x1
I1017 16:33:47.074663 32032 net.cpp:129] Top shape: 4 64 24 28 28 (4816896)
I1017 16:33:47.074666 32032 net.cpp:137] Memory required for data: 3121348768
I1017 16:33:47.074671 32032 layer_factory.hpp:77] Creating layer bn_Mixed_3b_branch_0_1x1
I1017 16:33:47.074682 32032 net.cpp:84] Creating Layer bn_Mixed_3b_branch_0_1x1
I1017 16:33:47.074687 32032 net.cpp:406] bn_Mixed_3b_branch_0_1x1 <- Mixed_3b_branch_0_1x1
I1017 16:33:47.074708 32032 net.cpp:367] bn_Mixed_3b_branch_0_1x1 -> Mixed_3b_branch_0_1x1 (in-place)
I1017 16:33:47.076097 32032 net.cpp:122] Setting up bn_Mixed_3b_branch_0_1x1
I1017 16:33:47.076110 32032 net.cpp:129] Top shape: 4 64 24 28 28 (4816896)
I1017 16:33:47.076129 32032 net.cpp:137] Memory required for data: 3140616352
I1017 16:33:47.076138 32032 layer_factory.hpp:77] Creating layer sacle_Mixed_3b_branch_0_1x1
I1017 16:33:47.076164 32032 net.cpp:84] Creating Layer sacle_Mixed_3b_branch_0_1x1
I1017 16:33:47.076169 32032 net.cpp:406] sacle_Mixed_3b_branch_0_1x1 <- Mixed_3b_branch_0_1x1
I1017 16:33:47.076195 32032 net.cpp:367] sacle_Mixed_3b_branch_0_1x1 -> Mixed_3b_branch_0_1x1 (in-place)
I1017 16:33:47.076251 32032 layer_factory.hpp:77] Creating layer sacle_Mixed_3b_branch_0_1x1
I1017 16:33:47.076432 32032 net.cpp:122] Setting up sacle_Mixed_3b_branch_0_1x1
I1017 16:33:47.076442 32032 net.cpp:129] Top shape: 4 64 24 28 28 (4816896)
I1017 16:33:47.076444 32032 net.cpp:137] Memory required for data: 3159883936
I1017 16:33:47.076452 32032 layer_factory.hpp:77] Creating layer relu3b_branch_0_1x1
I1017 16:33:47.076458 32032 net.cpp:84] Creating Layer relu3b_branch_0_1x1
I1017 16:33:47.076464 32032 net.cpp:406] relu3b_branch_0_1x1 <- Mixed_3b_branch_0_1x1
I1017 16:33:47.076488 32032 net.cpp:367] relu3b_branch_0_1x1 -> Mixed_3b_branch_0_1x1 (in-place)
I1017 16:33:47.076736 32032 net.cpp:122] Setting up relu3b_branch_0_1x1
I1017 16:33:47.076747 32032 net.cpp:129] Top shape: 4 64 24 28 28 (4816896)
I1017 16:33:47.076751 32032 net.cpp:137] Memory required for data: 3179151520
I1017 16:33:47.076776 32032 layer_factory.hpp:77] Creating layer Mixed_3b_branch_1_1x1
I1017 16:33:47.076788 32032 net.cpp:84] Creating Layer Mixed_3b_branch_1_1x1
I1017 16:33:47.076795 32032 net.cpp:406] Mixed_3b_branch_1_1x1 <- MaxPool3d_3a_3x3_MaxPool3d_3a_3x3_0_split_1
I1017 16:33:47.076803 32032 net.cpp:380] Mixed_3b_branch_1_1x1 -> Mixed_3b_branch_1_1x1
I1017 16:33:47.077921 32032 net.cpp:122] Setting up Mixed_3b_branch_1_1x1
I1017 16:33:47.077935 32032 net.cpp:129] Top shape: 4 96 24 28 28 (7225344)
I1017 16:33:47.077939 32032 net.cpp:137] Memory required for data: 3208052896
I1017 16:33:47.077945 32032 layer_factory.hpp:77] Creating layer bn_Mixed_3b_branch_1_1x1
I1017 16:33:47.077952 32032 net.cpp:84] Creating Layer bn_Mixed_3b_branch_1_1x1
I1017 16:33:47.077956 32032 net.cpp:406] bn_Mixed_3b_branch_1_1x1 <- Mixed_3b_branch_1_1x1
I1017 16:33:47.077963 32032 net.cpp:367] bn_Mixed_3b_branch_1_1x1 -> Mixed_3b_branch_1_1x1 (in-place)
I1017 16:33:47.078203 32032 net.cpp:122] Setting up bn_Mixed_3b_branch_1_1x1
I1017 16:33:47.078212 32032 net.cpp:129] Top shape: 4 96 24 28 28 (7225344)
I1017 16:33:47.078215 32032 net.cpp:137] Memory required for data: 3236954272
I1017 16:33:47.078223 32032 layer_factory.hpp:77] Creating layer sacle_Mixed_3b_branch_1_1x1
I1017 16:33:47.078231 32032 net.cpp:84] Creating Layer sacle_Mixed_3b_branch_1_1x1
I1017 16:33:47.078236 32032 net.cpp:406] sacle_Mixed_3b_branch_1_1x1 <- Mixed_3b_branch_1_1x1
I1017 16:33:47.078244 32032 net.cpp:367] sacle_Mixed_3b_branch_1_1x1 -> Mixed_3b_branch_1_1x1 (in-place)
I1017 16:33:47.078287 32032 layer_factory.hpp:77] Creating layer sacle_Mixed_3b_branch_1_1x1
I1017 16:33:47.078449 32032 net.cpp:122] Setting up sacle_Mixed_3b_branch_1_1x1
I1017 16:33:47.078456 32032 net.cpp:129] Top shape: 4 96 24 28 28 (7225344)
I1017 16:33:47.078459 32032 net.cpp:137] Memory required for data: 3265855648
I1017 16:33:47.078465 32032 layer_factory.hpp:77] Creating layer relu3b_branch_1_1x1
I1017 16:33:47.078474 32032 net.cpp:84] Creating Layer relu3b_branch_1_1x1
I1017 16:33:47.078476 32032 net.cpp:406] relu3b_branch_1_1x1 <- Mixed_3b_branch_1_1x1
I1017 16:33:47.078483 32032 net.cpp:367] relu3b_branch_1_1x1 -> Mixed_3b_branch_1_1x1 (in-place)
I1017 16:33:47.078668 32032 net.cpp:122] Setting up relu3b_branch_1_1x1
I1017 16:33:47.078678 32032 net.cpp:129] Top shape: 4 96 24 28 28 (7225344)
I1017 16:33:47.078681 32032 net.cpp:137] Memory required for data: 3294757024
I1017 16:33:47.078685 32032 layer_factory.hpp:77] Creating layer Mixed_3b_branch_1_3x3_dw
I1017 16:33:47.078697 32032 net.cpp:84] Creating Layer Mixed_3b_branch_1_3x3_dw
I1017 16:33:47.078703 32032 net.cpp:406] Mixed_3b_branch_1_3x3_dw <- Mixed_3b_branch_1_1x1
I1017 16:33:47.078709 32032 net.cpp:380] Mixed_3b_branch_1_3x3_dw -> Mixed_3b_branch_1_3x3_dw
I1017 16:33:47.079561 32032 net.cpp:122] Setting up Mixed_3b_branch_1_3x3_dw
I1017 16:33:47.079576 32032 net.cpp:129] Top shape: 4 96 24 28 28 (7225344)
I1017 16:33:47.079578 32032 net.cpp:137] Memory required for data: 3323658400
I1017 16:33:47.079584 32032 layer_factory.hpp:77] Creating layer relu3b_branch_1_3x3_dw
I1017 16:33:47.079591 32032 net.cpp:84] Creating Layer relu3b_branch_1_3x3_dw
I1017 16:33:47.079596 32032 net.cpp:406] relu3b_branch_1_3x3_dw <- Mixed_3b_branch_1_3x3_dw
I1017 16:33:47.079603 32032 net.cpp:367] relu3b_branch_1_3x3_dw -> Mixed_3b_branch_1_3x3_dw (in-place)
I1017 16:33:47.079792 32032 net.cpp:122] Setting up relu3b_branch_1_3x3_dw
I1017 16:33:47.079800 32032 net.cpp:129] Top shape: 4 96 24 28 28 (7225344)
I1017 16:33:47.079803 32032 net.cpp:137] Memory required for data: 3352559776
I1017 16:33:47.079807 32032 layer_factory.hpp:77] Creating layer Mixed_3b_branch_1_3x3
I1017 16:33:47.079816 32032 net.cpp:84] Creating Layer Mixed_3b_branch_1_3x3
I1017 16:33:47.079821 32032 net.cpp:406] Mixed_3b_branch_1_3x3 <- Mixed_3b_branch_1_3x3_dw
I1017 16:33:47.079828 32032 net.cpp:380] Mixed_3b_branch_1_3x3 -> Mixed_3b_branch_1_3x3
I1017 16:33:47.080716 32032 net.cpp:122] Setting up Mixed_3b_branch_1_3x3
I1017 16:33:47.080754 32032 net.cpp:129] Top shape: 4 128 24 28 28 (9633792)
I1017 16:33:47.080772 32032 net.cpp:137] Memory required for data: 3391094944
I1017 16:33:47.080783 32032 layer_factory.hpp:77] Creating layer bn_Mixed_3b_branch_1_3x3
I1017 16:33:47.080794 32032 net.cpp:84] Creating Layer bn_Mixed_3b_branch_1_3x3
I1017 16:33:47.080799 32032 net.cpp:406] bn_Mixed_3b_branch_1_3x3 <- Mixed_3b_branch_1_3x3
I1017 16:33:47.080806 32032 net.cpp:367] bn_Mixed_3b_branch_1_3x3 -> Mixed_3b_branch_1_3x3 (in-place)
I1017 16:33:47.081041 32032 net.cpp:122] Setting up bn_Mixed_3b_branch_1_3x3
I1017 16:33:47.081050 32032 net.cpp:129] Top shape: 4 128 24 28 28 (9633792)
I1017 16:33:47.081053 32032 net.cpp:137] Memory required for data: 3429630112
I1017 16:33:47.081060 32032 layer_factory.hpp:77] Creating layer sacle_Mixed_3b_branch_1_3x3
I1017 16:33:47.081073 32032 net.cpp:84] Creating Layer sacle_Mixed_3b_branch_1_3x3
I1017 16:33:47.081079 32032 net.cpp:406] sacle_Mixed_3b_branch_1_3x3 <- Mixed_3b_branch_1_3x3
I1017 16:33:47.081084 32032 net.cpp:367] sacle_Mixed_3b_branch_1_3x3 -> Mixed_3b_branch_1_3x3 (in-place)
I1017 16:33:47.081130 32032 layer_factory.hpp:77] Creating layer sacle_Mixed_3b_branch_1_3x3
I1017 16:33:47.081288 32032 net.cpp:122] Setting up sacle_Mixed_3b_branch_1_3x3
I1017 16:33:47.081297 32032 net.cpp:129] Top shape: 4 128 24 28 28 (9633792)
I1017 16:33:47.081300 32032 net.cpp:137] Memory required for data: 3468165280
I1017 16:33:47.081306 32032 layer_factory.hpp:77] Creating layer relu3b_branch_1_3x3
I1017 16:33:47.081313 32032 net.cpp:84] Creating Layer relu3b_branch_1_3x3
I1017 16:33:47.081317 32032 net.cpp:406] relu3b_branch_1_3x3 <- Mixed_3b_branch_1_3x3
I1017 16:33:47.081324 32032 net.cpp:367] relu3b_branch_1_3x3 -> Mixed_3b_branch_1_3x3 (in-place)
I1017 16:33:47.081756 32032 net.cpp:122] Setting up relu3b_branch_1_3x3
I1017 16:33:47.081770 32032 net.cpp:129] Top shape: 4 128 24 28 28 (9633792)
I1017 16:33:47.081774 32032 net.cpp:137] Memory required for data: 3506700448
I1017 16:33:47.081779 32032 layer_factory.hpp:77] Creating layer Mixed_3b_branch_2_1x1
I1017 16:33:47.081791 32032 net.cpp:84] Creating Layer Mixed_3b_branch_2_1x1
I1017 16:33:47.081796 32032 net.cpp:406] Mixed_3b_branch_2_1x1 <- MaxPool3d_3a_3x3_MaxPool3d_3a_3x3_0_split_2
I1017 16:33:47.081806 32032 net.cpp:380] Mixed_3b_branch_2_1x1 -> Mixed_3b_branch_2_1x1
I1017 16:33:47.082712 32032 net.cpp:122] Setting up Mixed_3b_branch_2_1x1
I1017 16:33:47.082726 32032 net.cpp:129] Top shape: 4 16 24 28 28 (1204224)
I1017 16:33:47.082746 32032 net.cpp:137] Memory required for data: 3511517344
I1017 16:33:47.082751 32032 layer_factory.hpp:77] Creating layer bn_Mixed_3b_branch_2_1x1
I1017 16:33:47.082758 32032 net.cpp:84] Creating Layer bn_Mixed_3b_branch_2_1x1
I1017 16:33:47.082762 32032 net.cpp:406] bn_Mixed_3b_branch_2_1x1 <- Mixed_3b_branch_2_1x1
I1017 16:33:47.082769 32032 net.cpp:367] bn_Mixed_3b_branch_2_1x1 -> Mixed_3b_branch_2_1x1 (in-place)
I1017 16:33:47.083014 32032 net.cpp:122] Setting up bn_Mixed_3b_branch_2_1x1
I1017 16:33:47.083021 32032 net.cpp:129] Top shape: 4 16 24 28 28 (1204224)
I1017 16:33:47.083024 32032 net.cpp:137] Memory required for data: 3516334240
I1017 16:33:47.083032 32032 layer_factory.hpp:77] Creating layer sacle_Mixed_3b_branch_2_1x1
I1017 16:33:47.083040 32032 net.cpp:84] Creating Layer sacle_Mixed_3b_branch_2_1x1
I1017 16:33:47.083055 32032 net.cpp:406] sacle_Mixed_3b_branch_2_1x1 <- Mixed_3b_branch_2_1x1
I1017 16:33:47.083061 32032 net.cpp:367] sacle_Mixed_3b_branch_2_1x1 -> Mixed_3b_branch_2_1x1 (in-place)
I1017 16:33:47.083101 32032 layer_factory.hpp:77] Creating layer sacle_Mixed_3b_branch_2_1x1
I1017 16:33:47.083261 32032 net.cpp:122] Setting up sacle_Mixed_3b_branch_2_1x1
I1017 16:33:47.083269 32032 net.cpp:129] Top shape: 4 16 24 28 28 (1204224)
I1017 16:33:47.083272 32032 net.cpp:137] Memory required for data: 3521151136
I1017 16:33:47.083278 32032 layer_factory.hpp:77] Creating layer relu3b_branch_2_1x1
I1017 16:33:47.083286 32032 net.cpp:84] Creating Layer relu3b_branch_2_1x1
I1017 16:33:47.083289 32032 net.cpp:406] relu3b_branch_2_1x1 <- Mixed_3b_branch_2_1x1
I1017 16:33:47.083312 32032 net.cpp:367] relu3b_branch_2_1x1 -> Mixed_3b_branch_2_1x1 (in-place)
I1017 16:33:47.083508 32032 net.cpp:122] Setting up relu3b_branch_2_1x1
I1017 16:33:47.083518 32032 net.cpp:129] Top shape: 4 16 24 28 28 (1204224)
I1017 16:33:47.083520 32032 net.cpp:137] Memory required for data: 3525968032
I1017 16:33:47.083524 32032 layer_factory.hpp:77] Creating layer Mixed_3b_branch_2_5x5_dw
I1017 16:33:47.083535 32032 net.cpp:84] Creating Layer Mixed_3b_branch_2_5x5_dw
I1017 16:33:47.083539 32032 net.cpp:406] Mixed_3b_branch_2_5x5_dw <- Mixed_3b_branch_2_1x1
I1017 16:33:47.083547 32032 net.cpp:380] Mixed_3b_branch_2_5x5_dw -> Mixed_3b_branch_2_5x5_dw
I1017 16:33:47.084388 32032 net.cpp:122] Setting up Mixed_3b_branch_2_5x5_dw
I1017 16:33:47.084403 32032 net.cpp:129] Top shape: 4 16 24 28 28 (1204224)
I1017 16:33:47.084421 32032 net.cpp:137] Memory required for data: 3530784928
I1017 16:33:47.084429 32032 layer_factory.hpp:77] Creating layer relu3b_branch_2_5x5_dw
I1017 16:33:47.084434 32032 net.cpp:84] Creating Layer relu3b_branch_2_5x5_dw
I1017 16:33:47.084437 32032 net.cpp:406] relu3b_branch_2_5x5_dw <- Mixed_3b_branch_2_5x5_dw
I1017 16:33:47.084444 32032 net.cpp:367] relu3b_branch_2_5x5_dw -> Mixed_3b_branch_2_5x5_dw (in-place)
I1017 16:33:47.084638 32032 net.cpp:122] Setting up relu3b_branch_2_5x5_dw
I1017 16:33:47.084658 32032 net.cpp:129] Top shape: 4 16 24 28 28 (1204224)
I1017 16:33:47.084661 32032 net.cpp:137] Memory required for data: 3535601824
I1017 16:33:47.084666 32032 layer_factory.hpp:77] Creating layer Mixed_3b_branch_2_5x5
I1017 16:33:47.084676 32032 net.cpp:84] Creating Layer Mixed_3b_branch_2_5x5
I1017 16:33:47.084681 32032 net.cpp:406] Mixed_3b_branch_2_5x5 <- Mixed_3b_branch_2_5x5_dw
I1017 16:33:47.084687 32032 net.cpp:380] Mixed_3b_branch_2_5x5 -> Mixed_3b_branch_2_5x5
I1017 16:33:47.088129 32032 net.cpp:122] Setting up Mixed_3b_branch_2_5x5
I1017 16:33:47.088167 32032 net.cpp:129] Top shape: 4 32 24 28 28 (2408448)
I1017 16:33:47.088171 32032 net.cpp:137] Memory required for data: 3545235616
I1017 16:33:47.088179 32032 layer_factory.hpp:77] Creating layer bn_Mixed_3b_branch_2_5x5
I1017 16:33:47.088193 32032 net.cpp:84] Creating Layer bn_Mixed_3b_branch_2_5x5
I1017 16:33:47.088201 32032 net.cpp:406] bn_Mixed_3b_branch_2_5x5 <- Mixed_3b_branch_2_5x5
I1017 16:33:47.088208 32032 net.cpp:367] bn_Mixed_3b_branch_2_5x5 -> Mixed_3b_branch_2_5x5 (in-place)
I1017 16:33:47.088460 32032 net.cpp:122] Setting up bn_Mixed_3b_branch_2_5x5
I1017 16:33:47.088469 32032 net.cpp:129] Top shape: 4 32 24 28 28 (2408448)
I1017 16:33:47.088472 32032 net.cpp:137] Memory required for data: 3554869408
I1017 16:33:47.088479 32032 layer_factory.hpp:77] Creating layer sacle_Mixed_3b_branch_2_5x5
I1017 16:33:47.088490 32032 net.cpp:84] Creating Layer sacle_Mixed_3b_branch_2_5x5
I1017 16:33:47.088495 32032 net.cpp:406] sacle_Mixed_3b_branch_2_5x5 <- Mixed_3b_branch_2_5x5
I1017 16:33:47.088500 32032 net.cpp:367] sacle_Mixed_3b_branch_2_5x5 -> Mixed_3b_branch_2_5x5 (in-place)
I1017 16:33:47.088567 32032 layer_factory.hpp:77] Creating layer sacle_Mixed_3b_branch_2_5x5
I1017 16:33:47.088742 32032 net.cpp:122] Setting up sacle_Mixed_3b_branch_2_5x5
I1017 16:33:47.088750 32032 net.cpp:129] Top shape: 4 32 24 28 28 (2408448)
I1017 16:33:47.088753 32032 net.cpp:137] Memory required for data: 3564503200
I1017 16:33:47.088759 32032 layer_factory.hpp:77] Creating layer relu3b_branch_2_5x5
I1017 16:33:47.088768 32032 net.cpp:84] Creating Layer relu3b_branch_2_5x5
I1017 16:33:47.088773 32032 net.cpp:406] relu3b_branch_2_5x5 <- Mixed_3b_branch_2_5x5
I1017 16:33:47.088778 32032 net.cpp:367] relu3b_branch_2_5x5 -> Mixed_3b_branch_2_5x5 (in-place)
I1017 16:33:47.088984 32032 net.cpp:122] Setting up relu3b_branch_2_5x5
I1017 16:33:47.088992 32032 net.cpp:129] Top shape: 4 32 24 28 28 (2408448)
I1017 16:33:47.088996 32032 net.cpp:137] Memory required for data: 3574136992
I1017 16:33:47.088999 32032 layer_factory.hpp:77] Creating layer Mixed_3b_branch_3_Maxpool
I1017 16:33:47.089010 32032 net.cpp:84] Creating Layer Mixed_3b_branch_3_Maxpool
I1017 16:33:47.089035 32032 net.cpp:406] Mixed_3b_branch_3_Maxpool <- MaxPool3d_3a_3x3_MaxPool3d_3a_3x3_0_split_3
I1017 16:33:47.089045 32032 net.cpp:380] Mixed_3b_branch_3_Maxpool -> Mixed_3b_branch_3_Maxpool
I1017 16:33:47.089279 32032 net.cpp:122] Setting up Mixed_3b_branch_3_Maxpool
I1017 16:33:47.089289 32032 net.cpp:129] Top shape: 4 192 24 28 28 (14450688)
I1017 16:33:47.089293 32032 net.cpp:137] Memory required for data: 3631939744
I1017 16:33:47.089296 32032 layer_factory.hpp:77] Creating layer Mixed_3b_branch_3_1x1
I1017 16:33:47.089308 32032 net.cpp:84] Creating Layer Mixed_3b_branch_3_1x1
I1017 16:33:47.089313 32032 net.cpp:406] Mixed_3b_branch_3_1x1 <- Mixed_3b_branch_3_Maxpool
I1017 16:33:47.089320 32032 net.cpp:380] Mixed_3b_branch_3_1x1 -> Mixed_3b_branch_3_1x1
I1017 16:33:47.090353 32032 net.cpp:122] Setting up Mixed_3b_branch_3_1x1
I1017 16:33:47.090368 32032 net.cpp:129] Top shape: 4 32 24 28 28 (2408448)
I1017 16:33:47.090389 32032 net.cpp:137] Memory required for data: 3641573536
I1017 16:33:47.090395 32032 layer_factory.hpp:77] Creating layer bn_Mixed_3b_branch_3_1x1
I1017 16:33:47.090404 32032 net.cpp:84] Creating Layer bn_Mixed_3b_branch_3_1x1
I1017 16:33:47.090406 32032 net.cpp:406] bn_Mixed_3b_branch_3_1x1 <- Mixed_3b_branch_3_1x1
I1017 16:33:47.090415 32032 net.cpp:367] bn_Mixed_3b_branch_3_1x1 -> Mixed_3b_branch_3_1x1 (in-place)
I1017 16:33:47.090654 32032 net.cpp:122] Setting up bn_Mixed_3b_branch_3_1x1
I1017 16:33:47.090663 32032 net.cpp:129] Top shape: 4 32 24 28 28 (2408448)
I1017 16:33:47.090667 32032 net.cpp:137] Memory required for data: 3651207328
I1017 16:33:47.090673 32032 layer_factory.hpp:77] Creating layer sacle_Mixed_3b_branch_3_1x1
I1017 16:33:47.090682 32032 net.cpp:84] Creating Layer sacle_Mixed_3b_branch_3_1x1
I1017 16:33:47.090687 32032 net.cpp:406] sacle_Mixed_3b_branch_3_1x1 <- Mixed_3b_branch_3_1x1
I1017 16:33:47.090696 32032 net.cpp:367] sacle_Mixed_3b_branch_3_1x1 -> Mixed_3b_branch_3_1x1 (in-place)
I1017 16:33:47.090739 32032 layer_factory.hpp:77] Creating layer sacle_Mixed_3b_branch_3_1x1
I1017 16:33:47.090911 32032 net.cpp:122] Setting up sacle_Mixed_3b_branch_3_1x1
I1017 16:33:47.090920 32032 net.cpp:129] Top shape: 4 32 24 28 28 (2408448)
I1017 16:33:47.090924 32032 net.cpp:137] Memory required for data: 3660841120
I1017 16:33:47.090930 32032 layer_factory.hpp:77] Creating layer relu3b_branch_3_1x1
I1017 16:33:47.090936 32032 net.cpp:84] Creating Layer relu3b_branch_3_1x1
I1017 16:33:47.090940 32032 net.cpp:406] relu3b_branch_3_1x1 <- Mixed_3b_branch_3_1x1
I1017 16:33:47.090946 32032 net.cpp:367] relu3b_branch_3_1x1 -> Mixed_3b_branch_3_1x1 (in-place)
I1017 16:33:47.091351 32032 net.cpp:122] Setting up relu3b_branch_3_1x1
I1017 16:33:47.091364 32032 net.cpp:129] Top shape: 4 32 24 28 28 (2408448)
I1017 16:33:47.091384 32032 net.cpp:137] Memory required for data: 3670474912
I1017 16:33:47.091389 32032 layer_factory.hpp:77] Creating layer Mixed_3b
I1017 16:33:47.091398 32032 net.cpp:84] Creating Layer Mixed_3b
I1017 16:33:47.091408 32032 net.cpp:406] Mixed_3b <- Mixed_3b_branch_0_1x1
I1017 16:33:47.091413 32032 net.cpp:406] Mixed_3b <- Mixed_3b_branch_1_3x3
I1017 16:33:47.091418 32032 net.cpp:406] Mixed_3b <- Mixed_3b_branch_2_5x5
I1017 16:33:47.091421 32032 net.cpp:406] Mixed_3b <- Mixed_3b_branch_3_1x1
I1017 16:33:47.091426 32032 net.cpp:380] Mixed_3b -> Mixed_3b
I1017 16:33:47.091481 32032 net.cpp:122] Setting up Mixed_3b
I1017 16:33:47.091490 32032 net.cpp:129] Top shape: 4 256 24 28 28 (19267584)
I1017 16:33:47.091493 32032 net.cpp:137] Memory required for data: 3747545248
I1017 16:33:47.091496 32032 layer_factory.hpp:77] Creating layer Mixed_3b_Mixed_3b_0_split
I1017 16:33:47.091506 32032 net.cpp:84] Creating Layer Mixed_3b_Mixed_3b_0_split
I1017 16:33:47.091511 32032 net.cpp:406] Mixed_3b_Mixed_3b_0_split <- Mixed_3b
I1017 16:33:47.091516 32032 net.cpp:380] Mixed_3b_Mixed_3b_0_split -> Mixed_3b_Mixed_3b_0_split_0
I1017 16:33:47.091523 32032 net.cpp:380] Mixed_3b_Mixed_3b_0_split -> Mixed_3b_Mixed_3b_0_split_1
I1017 16:33:47.091550 32032 net.cpp:380] Mixed_3b_Mixed_3b_0_split -> Mixed_3b_Mixed_3b_0_split_2
I1017 16:33:47.091557 32032 net.cpp:380] Mixed_3b_Mixed_3b_0_split -> Mixed_3b_Mixed_3b_0_split_3
I1017 16:33:47.091632 32032 net.cpp:122] Setting up Mixed_3b_Mixed_3b_0_split
I1017 16:33:47.091639 32032 net.cpp:129] Top shape: 4 256 24 28 28 (19267584)
I1017 16:33:47.091645 32032 net.cpp:129] Top shape: 4 256 24 28 28 (19267584)
I1017 16:33:47.091648 32032 net.cpp:129] Top shape: 4 256 24 28 28 (19267584)
I1017 16:33:47.091652 32032 net.cpp:129] Top shape: 4 256 24 28 28 (19267584)
I1017 16:33:47.091655 32032 net.cpp:137] Memory required for data: 4055826592
I1017 16:33:47.091660 32032 layer_factory.hpp:77] Creating layer Mixed_3c_branch_0_1x1
I1017 16:33:47.091670 32032 net.cpp:84] Creating Layer Mixed_3c_branch_0_1x1
I1017 16:33:47.091675 32032 net.cpp:406] Mixed_3c_branch_0_1x1 <- Mixed_3b_Mixed_3b_0_split_0
I1017 16:33:47.091692 32032 net.cpp:380] Mixed_3c_branch_0_1x1 -> Mixed_3c_branch_0_1x1
I1017 16:33:47.092653 32032 net.cpp:122] Setting up Mixed_3c_branch_0_1x1
I1017 16:33:47.092664 32032 net.cpp:129] Top shape: 4 128 24 28 28 (9633792)
I1017 16:33:47.092667 32032 net.cpp:137] Memory required for data: 4094361760
I1017 16:33:47.092674 32032 layer_factory.hpp:77] Creating layer bn_Mixed_3c_branch_0_1x1
I1017 16:33:47.092689 32032 net.cpp:84] Creating Layer bn_Mixed_3c_branch_0_1x1
I1017 16:33:47.092694 32032 net.cpp:406] bn_Mixed_3c_branch_0_1x1 <- Mixed_3c_branch_0_1x1
I1017 16:33:47.092702 32032 net.cpp:367] bn_Mixed_3c_branch_0_1x1 -> Mixed_3c_branch_0_1x1 (in-place)
I1017 16:33:47.092950 32032 net.cpp:122] Setting up bn_Mixed_3c_branch_0_1x1
I1017 16:33:47.092959 32032 net.cpp:129] Top shape: 4 128 24 28 28 (9633792)
I1017 16:33:47.092963 32032 net.cpp:137] Memory required for data: 4132896928
I1017 16:33:47.092972 32032 layer_factory.hpp:77] Creating layer sacle_Mixed_3c_branch_0_1x1
I1017 16:33:47.092978 32032 net.cpp:84] Creating Layer sacle_Mixed_3c_branch_0_1x1
I1017 16:33:47.092983 32032 net.cpp:406] sacle_Mixed_3c_branch_0_1x1 <- Mixed_3c_branch_0_1x1
I1017 16:33:47.092989 32032 net.cpp:367] sacle_Mixed_3c_branch_0_1x1 -> Mixed_3c_branch_0_1x1 (in-place)
I1017 16:33:47.093045 32032 layer_factory.hpp:77] Creating layer sacle_Mixed_3c_branch_0_1x1
I1017 16:33:47.093209 32032 net.cpp:122] Setting up sacle_Mixed_3c_branch_0_1x1
I1017 16:33:47.093219 32032 net.cpp:129] Top shape: 4 128 24 28 28 (9633792)
I1017 16:33:47.093222 32032 net.cpp:137] Memory required for data: 4171432096
I1017 16:33:47.093230 32032 layer_factory.hpp:77] Creating layer relu3c_branch_0_1x1
I1017 16:33:47.093236 32032 net.cpp:84] Creating Layer relu3c_branch_0_1x1
I1017 16:33:47.093241 32032 net.cpp:406] relu3c_branch_0_1x1 <- Mixed_3c_branch_0_1x1
I1017 16:33:47.093245 32032 net.cpp:367] relu3c_branch_0_1x1 -> Mixed_3c_branch_0_1x1 (in-place)
I1017 16:33:47.093693 32032 net.cpp:122] Setting up relu3c_branch_0_1x1
I1017 16:33:47.093706 32032 net.cpp:129] Top shape: 4 128 24 28 28 (9633792)
I1017 16:33:47.093710 32032 net.cpp:137] Memory required for data: 4209967264
I1017 16:33:47.093714 32032 layer_factory.hpp:77] Creating layer Mixed_3c_branch_1_1x1
I1017 16:33:47.093727 32032 net.cpp:84] Creating Layer Mixed_3c_branch_1_1x1
I1017 16:33:47.093732 32032 net.cpp:406] Mixed_3c_branch_1_1x1 <- Mixed_3b_Mixed_3b_0_split_1
I1017 16:33:47.093742 32032 net.cpp:380] Mixed_3c_branch_1_1x1 -> Mixed_3c_branch_1_1x1
I1017 16:33:47.094892 32032 net.cpp:122] Setting up Mixed_3c_branch_1_1x1
I1017 16:33:47.094915 32032 net.cpp:129] Top shape: 4 128 24 28 28 (9633792)
I1017 16:33:47.094918 32032 net.cpp:137] Memory required for data: 4248502432
I1017 16:33:47.094939 32032 layer_factory.hpp:77] Creating layer bn_Mixed_3c_branch_1_1x1
I1017 16:33:47.094949 32032 net.cpp:84] Creating Layer bn_Mixed_3c_branch_1_1x1
I1017 16:33:47.094970 32032 net.cpp:406] bn_Mixed_3c_branch_1_1x1 <- Mixed_3c_branch_1_1x1
I1017 16:33:47.094976 32032 net.cpp:367] bn_Mixed_3c_branch_1_1x1 -> Mixed_3c_branch_1_1x1 (in-place)
I1017 16:33:47.095235 32032 net.cpp:122] Setting up bn_Mixed_3c_branch_1_1x1
I1017 16:33:47.095288 32032 net.cpp:129] Top shape: 4 128 24 28 28 (9633792)
I1017 16:33:47.095291 32032 net.cpp:137] Memory required for data: 4287037600
I1017 16:33:47.095319 32032 layer_factory.hpp:77] Creating layer sacle_Mixed_3c_branch_1_1x1
I1017 16:33:47.095329 32032 net.cpp:84] Creating Layer sacle_Mixed_3c_branch_1_1x1
I1017 16:33:47.095332 32032 net.cpp:406] sacle_Mixed_3c_branch_1_1x1 <- Mixed_3c_branch_1_1x1
I1017 16:33:47.095338 32032 net.cpp:367] sacle_Mixed_3c_branch_1_1x1 -> Mixed_3c_branch_1_1x1 (in-place)
I1017 16:33:47.095391 32032 layer_factory.hpp:77] Creating layer sacle_Mixed_3c_branch_1_1x1
I1017 16:33:47.096688 32032 net.cpp:122] Setting up sacle_Mixed_3c_branch_1_1x1
I1017 16:33:47.096704 32032 net.cpp:129] Top shape: 4 128 24 28 28 (9633792)
I1017 16:33:47.096719 32032 net.cpp:137] Memory required for data: 4325572768
I1017 16:33:47.096727 32032 layer_factory.hpp:77] Creating layer relu3c_branch_1_1x1
I1017 16:33:47.096737 32032 net.cpp:84] Creating Layer relu3c_branch_1_1x1
I1017 16:33:47.096741 32032 net.cpp:406] relu3c_branch_1_1x1 <- Mixed_3c_branch_1_1x1
I1017 16:33:47.096747 32032 net.cpp:367] relu3c_branch_1_1x1 -> Mixed_3c_branch_1_1x1 (in-place)
I1017 16:33:47.096972 32032 net.cpp:122] Setting up relu3c_branch_1_1x1
I1017 16:33:47.096984 32032 net.cpp:129] Top shape: 4 128 24 28 28 (9633792)
I1017 16:33:47.096988 32032 net.cpp:137] Memory required for data: 4364107936
I1017 16:33:47.096992 32032 layer_factory.hpp:77] Creating layer Mixed_3c_branch_1_3x3_dw
I1017 16:33:47.097002 32032 net.cpp:84] Creating Layer Mixed_3c_branch_1_3x3_dw
I1017 16:33:47.097007 32032 net.cpp:406] Mixed_3c_branch_1_3x3_dw <- Mixed_3c_branch_1_1x1
I1017 16:33:47.097015 32032 net.cpp:380] Mixed_3c_branch_1_3x3_dw -> Mixed_3c_branch_1_3x3_dw
I1017 16:33:47.098080 32032 net.cpp:122] Setting up Mixed_3c_branch_1_3x3_dw
I1017 16:33:47.098106 32032 net.cpp:129] Top shape: 4 128 24 28 28 (9633792)
I1017 16:33:47.098110 32032 net.cpp:137] Memory required for data: 4402643104
I1017 16:33:47.098115 32032 layer_factory.hpp:77] Creating layer relu3c_branch_1_3x3_dw
I1017 16:33:47.098121 32032 net.cpp:84] Creating Layer relu3c_branch_1_3x3_dw
I1017 16:33:47.098124 32032 net.cpp:406] relu3c_branch_1_3x3_dw <- Mixed_3c_branch_1_3x3_dw
I1017 16:33:47.098131 32032 net.cpp:367] relu3c_branch_1_3x3_dw -> Mixed_3c_branch_1_3x3_dw (in-place)
I1017 16:33:47.098492 32032 net.cpp:122] Setting up relu3c_branch_1_3x3_dw
I1017 16:33:47.098505 32032 net.cpp:129] Top shape: 4 128 24 28 28 (9633792)
I1017 16:33:47.098520 32032 net.cpp:137] Memory required for data: 4441178272
I1017 16:33:47.098525 32032 layer_factory.hpp:77] Creating layer Mixed_3c_branch_1_3x3
I1017 16:33:47.098532 32032 net.cpp:84] Creating Layer Mixed_3c_branch_1_3x3
I1017 16:33:47.098536 32032 net.cpp:406] Mixed_3c_branch_1_3x3 <- Mixed_3c_branch_1_3x3_dw
I1017 16:33:47.098546 32032 net.cpp:380] Mixed_3c_branch_1_3x3 -> Mixed_3c_branch_1_3x3
I1017 16:33:47.099463 32032 net.cpp:122] Setting up Mixed_3c_branch_1_3x3
I1017 16:33:47.099474 32032 net.cpp:129] Top shape: 4 192 24 28 28 (14450688)
I1017 16:33:47.099478 32032 net.cpp:137] Memory required for data: 4498981024
I1017 16:33:47.099498 32032 layer_factory.hpp:77] Creating layer bn_Mixed_3c_branch_1_3x3
I1017 16:33:47.099508 32032 net.cpp:84] Creating Layer bn_Mixed_3c_branch_1_3x3
I1017 16:33:47.099510 32032 net.cpp:406] bn_Mixed_3c_branch_1_3x3 <- Mixed_3c_branch_1_3x3
I1017 16:33:47.099516 32032 net.cpp:367] bn_Mixed_3c_branch_1_3x3 -> Mixed_3c_branch_1_3x3 (in-place)
I1017 16:33:47.099761 32032 net.cpp:122] Setting up bn_Mixed_3c_branch_1_3x3
I1017 16:33:47.099769 32032 net.cpp:129] Top shape: 4 192 24 28 28 (14450688)
I1017 16:33:47.099772 32032 net.cpp:137] Memory required for data: 4556783776
I1017 16:33:47.099779 32032 layer_factory.hpp:77] Creating layer sacle_Mixed_3c_branch_1_3x3
I1017 16:33:47.099787 32032 net.cpp:84] Creating Layer sacle_Mixed_3c_branch_1_3x3
I1017 16:33:47.099792 32032 net.cpp:406] sacle_Mixed_3c_branch_1_3x3 <- Mixed_3c_branch_1_3x3
I1017 16:33:47.099797 32032 net.cpp:367] sacle_Mixed_3c_branch_1_3x3 -> Mixed_3c_branch_1_3x3 (in-place)
I1017 16:33:47.099867 32032 layer_factory.hpp:77] Creating layer sacle_Mixed_3c_branch_1_3x3
I1017 16:33:47.100093 32032 net.cpp:122] Setting up sacle_Mixed_3c_branch_1_3x3
I1017 16:33:47.100103 32032 net.cpp:129] Top shape: 4 192 24 28 28 (14450688)
I1017 16:33:47.100106 32032 net.cpp:137] Memory required for data: 4614586528
I1017 16:33:47.100113 32032 layer_factory.hpp:77] Creating layer relu3c_branch_1_3x3
I1017 16:33:47.100124 32032 net.cpp:84] Creating Layer relu3c_branch_1_3x3
I1017 16:33:47.100131 32032 net.cpp:406] relu3c_branch_1_3x3 <- Mixed_3c_branch_1_3x3
I1017 16:33:47.100136 32032 net.cpp:367] relu3c_branch_1_3x3 -> Mixed_3c_branch_1_3x3 (in-place)
I1017 16:33:47.100353 32032 net.cpp:122] Setting up relu3c_branch_1_3x3
I1017 16:33:47.100380 32032 net.cpp:129] Top shape: 4 192 24 28 28 (14450688)
I1017 16:33:47.100383 32032 net.cpp:137] Memory required for data: 4672389280
I1017 16:33:47.100389 32032 layer_factory.hpp:77] Creating layer Mixed_3c_branch_2_1x1
I1017 16:33:47.100414 32032 net.cpp:84] Creating Layer Mixed_3c_branch_2_1x1
I1017 16:33:47.100420 32032 net.cpp:406] Mixed_3c_branch_2_1x1 <- Mixed_3b_Mixed_3b_0_split_2
I1017 16:33:47.100442 32032 net.cpp:380] Mixed_3c_branch_2_1x1 -> Mixed_3c_branch_2_1x1
I1017 16:33:47.101325 32032 net.cpp:122] Setting up Mixed_3c_branch_2_1x1
I1017 16:33:47.101338 32032 net.cpp:129] Top shape: 4 32 24 28 28 (2408448)
I1017 16:33:47.101357 32032 net.cpp:137] Memory required for data: 4682023072
I1017 16:33:47.101363 32032 layer_factory.hpp:77] Creating layer bn_Mixed_3c_branch_2_1x1
I1017 16:33:47.101370 32032 net.cpp:84] Creating Layer bn_Mixed_3c_branch_2_1x1
I1017 16:33:47.101373 32032 net.cpp:406] bn_Mixed_3c_branch_2_1x1 <- Mixed_3c_branch_2_1x1
I1017 16:33:47.101383 32032 net.cpp:367] bn_Mixed_3c_branch_2_1x1 -> Mixed_3c_branch_2_1x1 (in-place)
I1017 16:33:47.101708 32032 net.cpp:122] Setting up bn_Mixed_3c_branch_2_1x1
I1017 16:33:47.101717 32032 net.cpp:129] Top shape: 4 32 24 28 28 (2408448)
I1017 16:33:47.101722 32032 net.cpp:137] Memory required for data: 4691656864
I1017 16:33:47.101747 32032 layer_factory.hpp:77] Creating layer sacle_Mixed_3c_branch_2_1x1
I1017 16:33:47.101755 32032 net.cpp:84] Creating Layer sacle_Mixed_3c_branch_2_1x1
I1017 16:33:47.101759 32032 net.cpp:406] sacle_Mixed_3c_branch_2_1x1 <- Mixed_3c_branch_2_1x1
I1017 16:33:47.101766 32032 net.cpp:367] sacle_Mixed_3c_branch_2_1x1 -> Mixed_3c_branch_2_1x1 (in-place)
I1017 16:33:47.101812 32032 layer_factory.hpp:77] Creating layer sacle_Mixed_3c_branch_2_1x1
I1017 16:33:47.102025 32032 net.cpp:122] Setting up sacle_Mixed_3c_branch_2_1x1
I1017 16:33:47.102031 32032 net.cpp:129] Top shape: 4 32 24 28 28 (2408448)
I1017 16:33:47.102035 32032 net.cpp:137] Memory required for data: 4701290656
I1017 16:33:47.102039 32032 layer_factory.hpp:77] Creating layer relu3c_branch_2_1x1
I1017 16:33:47.102046 32032 net.cpp:84] Creating Layer relu3c_branch_2_1x1
I1017 16:33:47.102048 32032 net.cpp:406] relu3c_branch_2_1x1 <- Mixed_3c_branch_2_1x1
I1017 16:33:47.102054 32032 net.cpp:367] relu3c_branch_2_1x1 -> Mixed_3c_branch_2_1x1 (in-place)
I1017 16:33:47.102236 32032 net.cpp:122] Setting up relu3c_branch_2_1x1
I1017 16:33:47.102244 32032 net.cpp:129] Top shape: 4 32 24 28 28 (2408448)
I1017 16:33:47.102247 32032 net.cpp:137] Memory required for data: 4710924448
I1017 16:33:47.102250 32032 layer_factory.hpp:77] Creating layer Mixed_3c_branch_2_5x5_dw
I1017 16:33:47.102262 32032 net.cpp:84] Creating Layer Mixed_3c_branch_2_5x5_dw
I1017 16:33:47.102268 32032 net.cpp:406] Mixed_3c_branch_2_5x5_dw <- Mixed_3c_branch_2_1x1
I1017 16:33:47.102273 32032 net.cpp:380] Mixed_3c_branch_2_5x5_dw -> Mixed_3c_branch_2_5x5_dw
I1017 16:33:47.103071 32032 net.cpp:122] Setting up Mixed_3c_branch_2_5x5_dw
I1017 16:33:47.103085 32032 net.cpp:129] Top shape: 4 32 24 28 28 (2408448)
I1017 16:33:47.103104 32032 net.cpp:137] Memory required for data: 4720558240
I1017 16:33:47.103111 32032 layer_factory.hpp:77] Creating layer relu3c_branch_2_5x5_dw
I1017 16:33:47.103129 32032 net.cpp:84] Creating Layer relu3c_branch_2_5x5_dw
I1017 16:33:47.103133 32032 net.cpp:406] relu3c_branch_2_5x5_dw <- Mixed_3c_branch_2_5x5_dw
I1017 16:33:47.103139 32032 net.cpp:367] relu3c_branch_2_5x5_dw -> Mixed_3c_branch_2_5x5_dw (in-place)
I1017 16:33:47.103510 32032 net.cpp:122] Setting up relu3c_branch_2_5x5_dw
I1017 16:33:47.103521 32032 net.cpp:129] Top shape: 4 32 24 28 28 (2408448)
I1017 16:33:47.103540 32032 net.cpp:137] Memory required for data: 4730192032
I1017 16:33:47.103544 32032 layer_factory.hpp:77] Creating layer Mixed_3c_branch_2_5x5
I1017 16:33:47.103554 32032 net.cpp:84] Creating Layer Mixed_3c_branch_2_5x5
I1017 16:33:47.103557 32032 net.cpp:406] Mixed_3c_branch_2_5x5 <- Mixed_3c_branch_2_5x5_dw
I1017 16:33:47.103564 32032 net.cpp:380] Mixed_3c_branch_2_5x5 -> Mixed_3c_branch_2_5x5
I1017 16:33:47.104244 32032 net.cpp:122] Setting up Mixed_3c_branch_2_5x5
I1017 16:33:47.104254 32032 net.cpp:129] Top shape: 4 96 24 28 28 (7225344)
I1017 16:33:47.104256 32032 net.cpp:137] Memory required for data: 4759093408
I1017 16:33:47.104277 32032 layer_factory.hpp:77] Creating layer bn_Mixed_3c_branch_2_5x5
I1017 16:33:47.104285 32032 net.cpp:84] Creating Layer bn_Mixed_3c_branch_2_5x5
I1017 16:33:47.104290 32032 net.cpp:406] bn_Mixed_3c_branch_2_5x5 <- Mixed_3c_branch_2_5x5
I1017 16:33:47.104295 32032 net.cpp:367] bn_Mixed_3c_branch_2_5x5 -> Mixed_3c_branch_2_5x5 (in-place)
I1017 16:33:47.104557 32032 net.cpp:122] Setting up bn_Mixed_3c_branch_2_5x5
I1017 16:33:47.104564 32032 net.cpp:129] Top shape: 4 96 24 28 28 (7225344)
I1017 16:33:47.104568 32032 net.cpp:137] Memory required for data: 4787994784
I1017 16:33:47.104575 32032 layer_factory.hpp:77] Creating layer sacle_Mixed_3c_branch_2_5x5
I1017 16:33:47.104581 32032 net.cpp:84] Creating Layer sacle_Mixed_3c_branch_2_5x5
I1017 16:33:47.104585 32032 net.cpp:406] sacle_Mixed_3c_branch_2_5x5 <- Mixed_3c_branch_2_5x5
I1017 16:33:47.104591 32032 net.cpp:367] sacle_Mixed_3c_branch_2_5x5 -> Mixed_3c_branch_2_5x5 (in-place)
I1017 16:33:47.104638 32032 layer_factory.hpp:77] Creating layer sacle_Mixed_3c_branch_2_5x5
I1017 16:33:47.104797 32032 net.cpp:122] Setting up sacle_Mixed_3c_branch_2_5x5
I1017 16:33:47.104804 32032 net.cpp:129] Top shape: 4 96 24 28 28 (7225344)
I1017 16:33:47.104807 32032 net.cpp:137] Memory required for data: 4816896160
I1017 16:33:47.104812 32032 layer_factory.hpp:77] Creating layer relu3c_branch_2_5x5
I1017 16:33:47.104818 32032 net.cpp:84] Creating Layer relu3c_branch_2_5x5
I1017 16:33:47.104821 32032 net.cpp:406] relu3c_branch_2_5x5 <- Mixed_3c_branch_2_5x5
I1017 16:33:47.104841 32032 net.cpp:367] relu3c_branch_2_5x5 -> Mixed_3c_branch_2_5x5 (in-place)
I1017 16:33:47.105202 32032 net.cpp:122] Setting up relu3c_branch_2_5x5
I1017 16:33:47.105212 32032 net.cpp:129] Top shape: 4 96 24 28 28 (7225344)
I1017 16:33:47.105216 32032 net.cpp:137] Memory required for data: 4845797536
I1017 16:33:47.105218 32032 layer_factory.hpp:77] Creating layer Mixed_3c_branch_3_Maxpool
I1017 16:33:47.105228 32032 net.cpp:84] Creating Layer Mixed_3c_branch_3_Maxpool
I1017 16:33:47.105232 32032 net.cpp:406] Mixed_3c_branch_3_Maxpool <- Mixed_3b_Mixed_3b_0_split_3
I1017 16:33:47.105239 32032 net.cpp:380] Mixed_3c_branch_3_Maxpool -> Mixed_3c_branch_3_Maxpool
I1017 16:33:47.105460 32032 net.cpp:122] Setting up Mixed_3c_branch_3_Maxpool
I1017 16:33:47.105469 32032 net.cpp:129] Top shape: 4 256 24 28 28 (19267584)
I1017 16:33:47.105473 32032 net.cpp:137] Memory required for data: 4922867872
I1017 16:33:47.105477 32032 layer_factory.hpp:77] Creating layer Mixed_3c_branch_3_1x1
I1017 16:33:47.105485 32032 net.cpp:84] Creating Layer Mixed_3c_branch_3_1x1
I1017 16:33:47.105489 32032 net.cpp:406] Mixed_3c_branch_3_1x1 <- Mixed_3c_branch_3_Maxpool
I1017 16:33:47.105494 32032 net.cpp:380] Mixed_3c_branch_3_1x1 -> Mixed_3c_branch_3_1x1
I1017 16:33:47.106488 32032 net.cpp:122] Setting up Mixed_3c_branch_3_1x1
I1017 16:33:47.106500 32032 net.cpp:129] Top shape: 4 64 24 28 28 (4816896)
I1017 16:33:47.106503 32032 net.cpp:137] Memory required for data: 4942135456
I1017 16:33:47.106523 32032 layer_factory.hpp:77] Creating layer bn_Mixed_3c_branch_3_1x1
I1017 16:33:47.106529 32032 net.cpp:84] Creating Layer bn_Mixed_3c_branch_3_1x1
I1017 16:33:47.106532 32032 net.cpp:406] bn_Mixed_3c_branch_3_1x1 <- Mixed_3c_branch_3_1x1
I1017 16:33:47.106539 32032 net.cpp:367] bn_Mixed_3c_branch_3_1x1 -> Mixed_3c_branch_3_1x1 (in-place)
I1017 16:33:47.106766 32032 net.cpp:122] Setting up bn_Mixed_3c_branch_3_1x1
I1017 16:33:47.106773 32032 net.cpp:129] Top shape: 4 64 24 28 28 (4816896)
I1017 16:33:47.106775 32032 net.cpp:137] Memory required for data: 4961403040
I1017 16:33:47.106782 32032 layer_factory.hpp:77] Creating layer sacle_Mixed_3c_branch_3_1x1
I1017 16:33:47.106787 32032 net.cpp:84] Creating Layer sacle_Mixed_3c_branch_3_1x1
I1017 16:33:47.106791 32032 net.cpp:406] sacle_Mixed_3c_branch_3_1x1 <- Mixed_3c_branch_3_1x1
I1017 16:33:47.106797 32032 net.cpp:367] sacle_Mixed_3c_branch_3_1x1 -> Mixed_3c_branch_3_1x1 (in-place)
I1017 16:33:47.106837 32032 layer_factory.hpp:77] Creating layer sacle_Mixed_3c_branch_3_1x1
I1017 16:33:47.106984 32032 net.cpp:122] Setting up sacle_Mixed_3c_branch_3_1x1
I1017 16:33:47.106992 32032 net.cpp:129] Top shape: 4 64 24 28 28 (4816896)
I1017 16:33:47.106993 32032 net.cpp:137] Memory required for data: 4980670624
I1017 16:33:47.107000 32032 layer_factory.hpp:77] Creating layer relu3c_branch_3_1x1
I1017 16:33:47.107005 32032 net.cpp:84] Creating Layer relu3c_branch_3_1x1
I1017 16:33:47.107009 32032 net.cpp:406] relu3c_branch_3_1x1 <- Mixed_3c_branch_3_1x1
I1017 16:33:47.107015 32032 net.cpp:367] relu3c_branch_3_1x1 -> Mixed_3c_branch_3_1x1 (in-place)
I1017 16:33:47.107197 32032 net.cpp:122] Setting up relu3c_branch_3_1x1
I1017 16:33:47.107203 32032 net.cpp:129] Top shape: 4 64 24 28 28 (4816896)
I1017 16:33:47.107206 32032 net.cpp:137] Memory required for data: 4999938208
I1017 16:33:47.107208 32032 layer_factory.hpp:77] Creating layer Mixed_3c
I1017 16:33:47.107218 32032 net.cpp:84] Creating Layer Mixed_3c
I1017 16:33:47.107220 32032 net.cpp:406] Mixed_3c <- Mixed_3c_branch_0_1x1
I1017 16:33:47.107225 32032 net.cpp:406] Mixed_3c <- Mixed_3c_branch_1_3x3
I1017 16:33:47.107228 32032 net.cpp:406] Mixed_3c <- Mixed_3c_branch_2_5x5
I1017 16:33:47.107233 32032 net.cpp:406] Mixed_3c <- Mixed_3c_branch_3_1x1
I1017 16:33:47.107237 32032 net.cpp:380] Mixed_3c -> Mixed_3c
I1017 16:33:47.107267 32032 net.cpp:122] Setting up Mixed_3c
I1017 16:33:47.107272 32032 net.cpp:129] Top shape: 4 480 24 28 28 (36126720)
I1017 16:33:47.107275 32032 net.cpp:137] Memory required for data: 5144445088
I1017 16:33:47.107277 32032 layer_factory.hpp:77] Creating layer MaxPool3d_4a_3x3
I1017 16:33:47.107286 32032 net.cpp:84] Creating Layer MaxPool3d_4a_3x3
I1017 16:33:47.107290 32032 net.cpp:406] MaxPool3d_4a_3x3 <- Mixed_3c
I1017 16:33:47.107296 32032 net.cpp:380] MaxPool3d_4a_3x3 -> MaxPool3d_4a_3x3
I1017 16:33:47.107506 32032 net.cpp:122] Setting up MaxPool3d_4a_3x3
I1017 16:33:47.107512 32032 net.cpp:129] Top shape: 4 480 12 14 14 (4515840)
I1017 16:33:47.107515 32032 net.cpp:137] Memory required for data: 5162508448
I1017 16:33:47.107519 32032 layer_factory.hpp:77] Creating layer MaxPool3d_4a_3x3_MaxPool3d_4a_3x3_0_split
I1017 16:33:47.107527 32032 net.cpp:84] Creating Layer MaxPool3d_4a_3x3_MaxPool3d_4a_3x3_0_split
I1017 16:33:47.107532 32032 net.cpp:406] MaxPool3d_4a_3x3_MaxPool3d_4a_3x3_0_split <- MaxPool3d_4a_3x3
I1017 16:33:47.107538 32032 net.cpp:380] MaxPool3d_4a_3x3_MaxPool3d_4a_3x3_0_split -> MaxPool3d_4a_3x3_MaxPool3d_4a_3x3_0_split_0
I1017 16:33:47.107544 32032 net.cpp:380] MaxPool3d_4a_3x3_MaxPool3d_4a_3x3_0_split -> MaxPool3d_4a_3x3_MaxPool3d_4a_3x3_0_split_1
I1017 16:33:47.107550 32032 net.cpp:380] MaxPool3d_4a_3x3_MaxPool3d_4a_3x3_0_split -> MaxPool3d_4a_3x3_MaxPool3d_4a_3x3_0_split_2
I1017 16:33:47.107556 32032 net.cpp:380] MaxPool3d_4a_3x3_MaxPool3d_4a_3x3_0_split -> MaxPool3d_4a_3x3_MaxPool3d_4a_3x3_0_split_3
I1017 16:33:47.107621 32032 net.cpp:122] Setting up MaxPool3d_4a_3x3_MaxPool3d_4a_3x3_0_split
I1017 16:33:47.107626 32032 net.cpp:129] Top shape: 4 480 12 14 14 (4515840)
I1017 16:33:47.107641 32032 net.cpp:129] Top shape: 4 480 12 14 14 (4515840)
I1017 16:33:47.107645 32032 net.cpp:129] Top shape: 4 480 12 14 14 (4515840)
I1017 16:33:47.107650 32032 net.cpp:129] Top shape: 4 480 12 14 14 (4515840)
I1017 16:33:47.107651 32032 net.cpp:137] Memory required for data: 5234761888
I1017 16:33:47.107654 32032 layer_factory.hpp:77] Creating layer Mixed_4b_branch_0_1x1
I1017 16:33:47.107663 32032 net.cpp:84] Creating Layer Mixed_4b_branch_0_1x1
I1017 16:33:47.107666 32032 net.cpp:406] Mixed_4b_branch_0_1x1 <- MaxPool3d_4a_3x3_MaxPool3d_4a_3x3_0_split_0
I1017 16:33:47.107671 32032 net.cpp:380] Mixed_4b_branch_0_1x1 -> Mixed_4b_branch_0_1x1
I1017 16:33:47.109028 32032 net.cpp:122] Setting up Mixed_4b_branch_0_1x1
I1017 16:33:47.109040 32032 net.cpp:129] Top shape: 4 192 12 14 14 (1806336)
I1017 16:33:47.109042 32032 net.cpp:137] Memory required for data: 5241987232
I1017 16:33:47.109047 32032 layer_factory.hpp:77] Creating layer bn_Mixed_4b_branch_0_1x1
I1017 16:33:47.109053 32032 net.cpp:84] Creating Layer bn_Mixed_4b_branch_0_1x1
I1017 16:33:47.109057 32032 net.cpp:406] bn_Mixed_4b_branch_0_1x1 <- Mixed_4b_branch_0_1x1
I1017 16:33:47.109064 32032 net.cpp:367] bn_Mixed_4b_branch_0_1x1 -> Mixed_4b_branch_0_1x1 (in-place)
I1017 16:33:47.109275 32032 net.cpp:122] Setting up bn_Mixed_4b_branch_0_1x1
I1017 16:33:47.109280 32032 net.cpp:129] Top shape: 4 192 12 14 14 (1806336)
I1017 16:33:47.109284 32032 net.cpp:137] Memory required for data: 5249212576
I1017 16:33:47.109292 32032 layer_factory.hpp:77] Creating layer sacle_Mixed_4b_branch_0_1x1
I1017 16:33:47.109298 32032 net.cpp:84] Creating Layer sacle_Mixed_4b_branch_0_1x1
I1017 16:33:47.109302 32032 net.cpp:406] sacle_Mixed_4b_branch_0_1x1 <- Mixed_4b_branch_0_1x1
I1017 16:33:47.109308 32032 net.cpp:367] sacle_Mixed_4b_branch_0_1x1 -> Mixed_4b_branch_0_1x1 (in-place)
I1017 16:33:47.109349 32032 layer_factory.hpp:77] Creating layer sacle_Mixed_4b_branch_0_1x1
I1017 16:33:47.109472 32032 net.cpp:122] Setting up sacle_Mixed_4b_branch_0_1x1
I1017 16:33:47.109477 32032 net.cpp:129] Top shape: 4 192 12 14 14 (1806336)
I1017 16:33:47.109479 32032 net.cpp:137] Memory required for data: 5256437920
I1017 16:33:47.109484 32032 layer_factory.hpp:77] Creating layer relu4b_branch_0_1x1
I1017 16:33:47.109491 32032 net.cpp:84] Creating Layer relu4b_branch_0_1x1
I1017 16:33:47.109494 32032 net.cpp:406] relu4b_branch_0_1x1 <- Mixed_4b_branch_0_1x1
I1017 16:33:47.109499 32032 net.cpp:367] relu4b_branch_0_1x1 -> Mixed_4b_branch_0_1x1 (in-place)
I1017 16:33:47.109956 32032 net.cpp:122] Setting up relu4b_branch_0_1x1
I1017 16:33:47.109966 32032 net.cpp:129] Top shape: 4 192 12 14 14 (1806336)
I1017 16:33:47.109984 32032 net.cpp:137] Memory required for data: 5263663264
I1017 16:33:47.109988 32032 layer_factory.hpp:77] Creating layer Mixed_4b_branch_1_1x1
I1017 16:33:47.109999 32032 net.cpp:84] Creating Layer Mixed_4b_branch_1_1x1
I1017 16:33:47.110003 32032 net.cpp:406] Mixed_4b_branch_1_1x1 <- MaxPool3d_4a_3x3_MaxPool3d_4a_3x3_0_split_1
I1017 16:33:47.110010 32032 net.cpp:380] Mixed_4b_branch_1_1x1 -> Mixed_4b_branch_1_1x1
I1017 16:33:47.110889 32032 net.cpp:122] Setting up Mixed_4b_branch_1_1x1
I1017 16:33:47.110898 32032 net.cpp:129] Top shape: 4 96 12 14 14 (903168)
I1017 16:33:47.110900 32032 net.cpp:137] Memory required for data: 5267275936
I1017 16:33:47.110905 32032 layer_factory.hpp:77] Creating layer bn_Mixed_4b_branch_1_1x1
I1017 16:33:47.110914 32032 net.cpp:84] Creating Layer bn_Mixed_4b_branch_1_1x1
I1017 16:33:47.110918 32032 net.cpp:406] bn_Mixed_4b_branch_1_1x1 <- Mixed_4b_branch_1_1x1
I1017 16:33:47.110924 32032 net.cpp:367] bn_Mixed_4b_branch_1_1x1 -> Mixed_4b_branch_1_1x1 (in-place)
I1017 16:33:47.111138 32032 net.cpp:122] Setting up bn_Mixed_4b_branch_1_1x1
I1017 16:33:47.111145 32032 net.cpp:129] Top shape: 4 96 12 14 14 (903168)
I1017 16:33:47.111147 32032 net.cpp:137] Memory required for data: 5270888608
I1017 16:33:47.111153 32032 layer_factory.hpp:77] Creating layer sacle_Mixed_4b_branch_1_1x1
I1017 16:33:47.111160 32032 net.cpp:84] Creating Layer sacle_Mixed_4b_branch_1_1x1
I1017 16:33:47.111178 32032 net.cpp:406] sacle_Mixed_4b_branch_1_1x1 <- Mixed_4b_branch_1_1x1
I1017 16:33:47.111183 32032 net.cpp:367] sacle_Mixed_4b_branch_1_1x1 -> Mixed_4b_branch_1_1x1 (in-place)
I1017 16:33:47.111227 32032 layer_factory.hpp:77] Creating layer sacle_Mixed_4b_branch_1_1x1
I1017 16:33:47.111352 32032 net.cpp:122] Setting up sacle_Mixed_4b_branch_1_1x1
I1017 16:33:47.111358 32032 net.cpp:129] Top shape: 4 96 12 14 14 (903168)
I1017 16:33:47.111361 32032 net.cpp:137] Memory required for data: 5274501280
I1017 16:33:47.111366 32032 layer_factory.hpp:77] Creating layer relu4b_branch_1_1x1
I1017 16:33:47.111372 32032 net.cpp:84] Creating Layer relu4b_branch_1_1x1
I1017 16:33:47.111377 32032 net.cpp:406] relu4b_branch_1_1x1 <- Mixed_4b_branch_1_1x1
I1017 16:33:47.111382 32032 net.cpp:367] relu4b_branch_1_1x1 -> Mixed_4b_branch_1_1x1 (in-place)
I1017 16:33:47.111724 32032 net.cpp:122] Setting up relu4b_branch_1_1x1
I1017 16:33:47.111733 32032 net.cpp:129] Top shape: 4 96 12 14 14 (903168)
I1017 16:33:47.111737 32032 net.cpp:137] Memory required for data: 5278113952
I1017 16:33:47.111740 32032 layer_factory.hpp:77] Creating layer Mixed_4b_branch_1_3x3_dw
I1017 16:33:47.111750 32032 net.cpp:84] Creating Layer Mixed_4b_branch_1_3x3_dw
I1017 16:33:47.111754 32032 net.cpp:406] Mixed_4b_branch_1_3x3_dw <- Mixed_4b_branch_1_1x1
I1017 16:33:47.111763 32032 net.cpp:380] Mixed_4b_branch_1_3x3_dw -> Mixed_4b_branch_1_3x3_dw
I1017 16:33:47.112555 32032 net.cpp:122] Setting up Mixed_4b_branch_1_3x3_dw
I1017 16:33:47.112565 32032 net.cpp:129] Top shape: 4 96 12 14 14 (903168)
I1017 16:33:47.112567 32032 net.cpp:137] Memory required for data: 5281726624
I1017 16:33:47.112573 32032 layer_factory.hpp:77] Creating layer relu4b_branch_1_3x3_dw
I1017 16:33:47.112579 32032 net.cpp:84] Creating Layer relu4b_branch_1_3x3_dw
I1017 16:33:47.112582 32032 net.cpp:406] relu4b_branch_1_3x3_dw <- Mixed_4b_branch_1_3x3_dw
I1017 16:33:47.112589 32032 net.cpp:367] relu4b_branch_1_3x3_dw -> Mixed_4b_branch_1_3x3_dw (in-place)
I1017 16:33:47.112766 32032 net.cpp:122] Setting up relu4b_branch_1_3x3_dw
I1017 16:33:47.112772 32032 net.cpp:129] Top shape: 4 96 12 14 14 (903168)
I1017 16:33:47.112774 32032 net.cpp:137] Memory required for data: 5285339296
I1017 16:33:47.112777 32032 layer_factory.hpp:77] Creating layer Mixed_4b_branch_1_3x3
I1017 16:33:47.112788 32032 net.cpp:84] Creating Layer Mixed_4b_branch_1_3x3
I1017 16:33:47.112792 32032 net.cpp:406] Mixed_4b_branch_1_3x3 <- Mixed_4b_branch_1_3x3_dw
I1017 16:33:47.112798 32032 net.cpp:380] Mixed_4b_branch_1_3x3 -> Mixed_4b_branch_1_3x3
I1017 16:33:47.113756 32032 net.cpp:122] Setting up Mixed_4b_branch_1_3x3
I1017 16:33:47.113768 32032 net.cpp:129] Top shape: 4 208 12 14 14 (1956864)
I1017 16:33:47.113771 32032 net.cpp:137] Memory required for data: 5293166752
I1017 16:33:47.113777 32032 layer_factory.hpp:77] Creating layer bn_Mixed_4b_branch_1_3x3
I1017 16:33:47.113783 32032 net.cpp:84] Creating Layer bn_Mixed_4b_branch_1_3x3
I1017 16:33:47.113787 32032 net.cpp:406] bn_Mixed_4b_branch_1_3x3 <- Mixed_4b_branch_1_3x3
I1017 16:33:47.113795 32032 net.cpp:367] bn_Mixed_4b_branch_1_3x3 -> Mixed_4b_branch_1_3x3 (in-place)
I1017 16:33:47.114078 32032 net.cpp:122] Setting up bn_Mixed_4b_branch_1_3x3
I1017 16:33:47.114084 32032 net.cpp:129] Top shape: 4 208 12 14 14 (1956864)
I1017 16:33:47.114087 32032 net.cpp:137] Memory required for data: 5300994208
I1017 16:33:47.114094 32032 layer_factory.hpp:77] Creating layer sacle_Mixed_4b_branch_1_3x3
I1017 16:33:47.114101 32032 net.cpp:84] Creating Layer sacle_Mixed_4b_branch_1_3x3
I1017 16:33:47.114104 32032 net.cpp:406] sacle_Mixed_4b_branch_1_3x3 <- Mixed_4b_branch_1_3x3
I1017 16:33:47.114109 32032 net.cpp:367] sacle_Mixed_4b_branch_1_3x3 -> Mixed_4b_branch_1_3x3 (in-place)
I1017 16:33:47.114151 32032 layer_factory.hpp:77] Creating layer sacle_Mixed_4b_branch_1_3x3
I1017 16:33:47.114284 32032 net.cpp:122] Setting up sacle_Mixed_4b_branch_1_3x3
I1017 16:33:47.114289 32032 net.cpp:129] Top shape: 4 208 12 14 14 (1956864)
I1017 16:33:47.114305 32032 net.cpp:137] Memory required for data: 5308821664
I1017 16:33:47.114311 32032 layer_factory.hpp:77] Creating layer relu4b_branch_1_3x3
I1017 16:33:47.114323 32032 net.cpp:84] Creating Layer relu4b_branch_1_3x3
I1017 16:33:47.114326 32032 net.cpp:406] relu4b_branch_1_3x3 <- Mixed_4b_branch_1_3x3
I1017 16:33:47.114333 32032 net.cpp:367] relu4b_branch_1_3x3 -> Mixed_4b_branch_1_3x3 (in-place)
I1017 16:33:47.114521 32032 net.cpp:122] Setting up relu4b_branch_1_3x3
I1017 16:33:47.114527 32032 net.cpp:129] Top shape: 4 208 12 14 14 (1956864)
I1017 16:33:47.114531 32032 net.cpp:137] Memory required for data: 5316649120
I1017 16:33:47.114534 32032 layer_factory.hpp:77] Creating layer Mixed_4b_branch_2_1x1
I1017 16:33:47.114542 32032 net.cpp:84] Creating Layer Mixed_4b_branch_2_1x1
I1017 16:33:47.114545 32032 net.cpp:406] Mixed_4b_branch_2_1x1 <- MaxPool3d_4a_3x3_MaxPool3d_4a_3x3_0_split_2
I1017 16:33:47.114552 32032 net.cpp:380] Mixed_4b_branch_2_1x1 -> Mixed_4b_branch_2_1x1
I1017 16:33:47.115386 32032 net.cpp:122] Setting up Mixed_4b_branch_2_1x1
I1017 16:33:47.115397 32032 net.cpp:129] Top shape: 4 16 12 14 14 (150528)
I1017 16:33:47.115401 32032 net.cpp:137] Memory required for data: 5317251232
I1017 16:33:47.115404 32032 layer_factory.hpp:77] Creating layer bn_Mixed_4b_branch_2_1x1
I1017 16:33:47.115415 32032 net.cpp:84] Creating Layer bn_Mixed_4b_branch_2_1x1
I1017 16:33:47.115419 32032 net.cpp:406] bn_Mixed_4b_branch_2_1x1 <- Mixed_4b_branch_2_1x1
I1017 16:33:47.115427 32032 net.cpp:367] bn_Mixed_4b_branch_2_1x1 -> Mixed_4b_branch_2_1x1 (in-place)
I1017 16:33:47.115653 32032 net.cpp:122] Setting up bn_Mixed_4b_branch_2_1x1
I1017 16:33:47.115658 32032 net.cpp:129] Top shape: 4 16 12 14 14 (150528)
I1017 16:33:47.115661 32032 net.cpp:137] Memory required for data: 5317853344
I1017 16:33:47.115667 32032 layer_factory.hpp:77] Creating layer sacle_Mixed_4b_branch_2_1x1
I1017 16:33:47.115675 32032 net.cpp:84] Creating Layer sacle_Mixed_4b_branch_2_1x1
I1017 16:33:47.115679 32032 net.cpp:406] sacle_Mixed_4b_branch_2_1x1 <- Mixed_4b_branch_2_1x1
I1017 16:33:47.115684 32032 net.cpp:367] sacle_Mixed_4b_branch_2_1x1 -> Mixed_4b_branch_2_1x1 (in-place)
I1017 16:33:47.115725 32032 layer_factory.hpp:77] Creating layer sacle_Mixed_4b_branch_2_1x1
I1017 16:33:47.115850 32032 net.cpp:122] Setting up sacle_Mixed_4b_branch_2_1x1
I1017 16:33:47.115857 32032 net.cpp:129] Top shape: 4 16 12 14 14 (150528)
I1017 16:33:47.115860 32032 net.cpp:137] Memory required for data: 5318455456
I1017 16:33:47.115866 32032 layer_factory.hpp:77] Creating layer relu4b_branch_2_1x1
I1017 16:33:47.115872 32032 net.cpp:84] Creating Layer relu4b_branch_2_1x1
I1017 16:33:47.115875 32032 net.cpp:406] relu4b_branch_2_1x1 <- Mixed_4b_branch_2_1x1
I1017 16:33:47.115880 32032 net.cpp:367] relu4b_branch_2_1x1 -> Mixed_4b_branch_2_1x1 (in-place)
I1017 16:33:47.116093 32032 net.cpp:122] Setting up relu4b_branch_2_1x1
I1017 16:33:47.116101 32032 net.cpp:129] Top shape: 4 16 12 14 14 (150528)
I1017 16:33:47.116103 32032 net.cpp:137] Memory required for data: 5319057568
I1017 16:33:47.116106 32032 layer_factory.hpp:77] Creating layer Mixed_4b_branch_2_5x5_dw
I1017 16:33:47.116117 32032 net.cpp:84] Creating Layer Mixed_4b_branch_2_5x5_dw
I1017 16:33:47.116120 32032 net.cpp:406] Mixed_4b_branch_2_5x5_dw <- Mixed_4b_branch_2_1x1
I1017 16:33:47.116129 32032 net.cpp:380] Mixed_4b_branch_2_5x5_dw -> Mixed_4b_branch_2_5x5_dw
I1017 16:33:47.116966 32032 net.cpp:122] Setting up Mixed_4b_branch_2_5x5_dw
I1017 16:33:47.116979 32032 net.cpp:129] Top shape: 4 16 12 14 14 (150528)
I1017 16:33:47.116982 32032 net.cpp:137] Memory required for data: 5319659680
I1017 16:33:47.116987 32032 layer_factory.hpp:77] Creating layer relu4b_branch_2_5x5_dw
I1017 16:33:47.116994 32032 net.cpp:84] Creating Layer relu4b_branch_2_5x5_dw
I1017 16:33:47.116997 32032 net.cpp:406] relu4b_branch_2_5x5_dw <- Mixed_4b_branch_2_5x5_dw
I1017 16:33:47.117003 32032 net.cpp:367] relu4b_branch_2_5x5_dw -> Mixed_4b_branch_2_5x5_dw (in-place)
I1017 16:33:47.117192 32032 net.cpp:122] Setting up relu4b_branch_2_5x5_dw
I1017 16:33:47.117210 32032 net.cpp:129] Top shape: 4 16 12 14 14 (150528)
I1017 16:33:47.117213 32032 net.cpp:137] Memory required for data: 5320261792
I1017 16:33:47.117216 32032 layer_factory.hpp:77] Creating layer Mixed_4b_branch_2_5x5
I1017 16:33:47.117226 32032 net.cpp:84] Creating Layer Mixed_4b_branch_2_5x5
I1017 16:33:47.117229 32032 net.cpp:406] Mixed_4b_branch_2_5x5 <- Mixed_4b_branch_2_5x5_dw
I1017 16:33:47.117236 32032 net.cpp:380] Mixed_4b_branch_2_5x5 -> Mixed_4b_branch_2_5x5
I1017 16:33:47.118083 32032 net.cpp:122] Setting up Mixed_4b_branch_2_5x5
I1017 16:33:47.118094 32032 net.cpp:129] Top shape: 4 48 12 14 14 (451584)
I1017 16:33:47.118098 32032 net.cpp:137] Memory required for data: 5322068128
I1017 16:33:47.118103 32032 layer_factory.hpp:77] Creating layer bn_Mixed_4b_branch_2_5x5
I1017 16:33:47.118110 32032 net.cpp:84] Creating Layer bn_Mixed_4b_branch_2_5x5
I1017 16:33:47.118114 32032 net.cpp:406] bn_Mixed_4b_branch_2_5x5 <- Mixed_4b_branch_2_5x5
I1017 16:33:47.118119 32032 net.cpp:367] bn_Mixed_4b_branch_2_5x5 -> Mixed_4b_branch_2_5x5 (in-place)
I1017 16:33:47.118340 32032 net.cpp:122] Setting up bn_Mixed_4b_branch_2_5x5
I1017 16:33:47.118345 32032 net.cpp:129] Top shape: 4 48 12 14 14 (451584)
I1017 16:33:47.118348 32032 net.cpp:137] Memory required for data: 5323874464
I1017 16:33:47.118355 32032 layer_factory.hpp:77] Creating layer sacle_Mixed_4b_branch_2_5x5
I1017 16:33:47.118362 32032 net.cpp:84] Creating Layer sacle_Mixed_4b_branch_2_5x5
I1017 16:33:47.118366 32032 net.cpp:406] sacle_Mixed_4b_branch_2_5x5 <- Mixed_4b_branch_2_5x5
I1017 16:33:47.118371 32032 net.cpp:367] sacle_Mixed_4b_branch_2_5x5 -> Mixed_4b_branch_2_5x5 (in-place)
I1017 16:33:47.118413 32032 layer_factory.hpp:77] Creating layer sacle_Mixed_4b_branch_2_5x5
I1017 16:33:47.118538 32032 net.cpp:122] Setting up sacle_Mixed_4b_branch_2_5x5
I1017 16:33:47.118543 32032 net.cpp:129] Top shape: 4 48 12 14 14 (451584)
I1017 16:33:47.118546 32032 net.cpp:137] Memory required for data: 5325680800
I1017 16:33:47.118552 32032 layer_factory.hpp:77] Creating layer relu4b_branch_2_5x5
I1017 16:33:47.118556 32032 net.cpp:84] Creating Layer relu4b_branch_2_5x5
I1017 16:33:47.118559 32032 net.cpp:406] relu4b_branch_2_5x5 <- Mixed_4b_branch_2_5x5
I1017 16:33:47.118566 32032 net.cpp:367] relu4b_branch_2_5x5 -> Mixed_4b_branch_2_5x5 (in-place)
I1017 16:33:47.118917 32032 net.cpp:122] Setting up relu4b_branch_2_5x5
I1017 16:33:47.118927 32032 net.cpp:129] Top shape: 4 48 12 14 14 (451584)
I1017 16:33:47.118929 32032 net.cpp:137] Memory required for data: 5327487136
I1017 16:33:47.118933 32032 layer_factory.hpp:77] Creating layer Mixed_4b_branch_3_Maxpool
I1017 16:33:47.118943 32032 net.cpp:84] Creating Layer Mixed_4b_branch_3_Maxpool
I1017 16:33:47.118947 32032 net.cpp:406] Mixed_4b_branch_3_Maxpool <- MaxPool3d_4a_3x3_MaxPool3d_4a_3x3_0_split_3
I1017 16:33:47.118953 32032 net.cpp:380] Mixed_4b_branch_3_Maxpool -> Mixed_4b_branch_3_Maxpool
I1017 16:33:47.119174 32032 net.cpp:122] Setting up Mixed_4b_branch_3_Maxpool
I1017 16:33:47.119180 32032 net.cpp:129] Top shape: 4 480 12 14 14 (4515840)
I1017 16:33:47.119184 32032 net.cpp:137] Memory required for data: 5345550496
I1017 16:33:47.119186 32032 layer_factory.hpp:77] Creating layer Mixed_4b_branch_3_1x1
I1017 16:33:47.119197 32032 net.cpp:84] Creating Layer Mixed_4b_branch_3_1x1
I1017 16:33:47.119200 32032 net.cpp:406] Mixed_4b_branch_3_1x1 <- Mixed_4b_branch_3_Maxpool
I1017 16:33:47.119207 32032 net.cpp:380] Mixed_4b_branch_3_1x1 -> Mixed_4b_branch_3_1x1
I1017 16:33:47.120187 32032 net.cpp:122] Setting up Mixed_4b_branch_3_1x1
I1017 16:33:47.120198 32032 net.cpp:129] Top shape: 4 64 12 14 14 (602112)
I1017 16:33:47.120199 32032 net.cpp:137] Memory required for data: 5347958944
I1017 16:33:47.120205 32032 layer_factory.hpp:77] Creating layer bn_Mixed_4b_branch_3_1x1
I1017 16:33:47.120211 32032 net.cpp:84] Creating Layer bn_Mixed_4b_branch_3_1x1
I1017 16:33:47.120215 32032 net.cpp:406] bn_Mixed_4b_branch_3_1x1 <- Mixed_4b_branch_3_1x1
I1017 16:33:47.120220 32032 net.cpp:367] bn_Mixed_4b_branch_3_1x1 -> Mixed_4b_branch_3_1x1 (in-place)
I1017 16:33:47.120458 32032 net.cpp:122] Setting up bn_Mixed_4b_branch_3_1x1
I1017 16:33:47.120463 32032 net.cpp:129] Top shape: 4 64 12 14 14 (602112)
I1017 16:33:47.120467 32032 net.cpp:137] Memory required for data: 5350367392
I1017 16:33:47.120484 32032 layer_factory.hpp:77] Creating layer sacle_Mixed_4b_branch_3_1x1
I1017 16:33:47.120492 32032 net.cpp:84] Creating Layer sacle_Mixed_4b_branch_3_1x1
I1017 16:33:47.120496 32032 net.cpp:406] sacle_Mixed_4b_branch_3_1x1 <- Mixed_4b_branch_3_1x1
I1017 16:33:47.120501 32032 net.cpp:367] sacle_Mixed_4b_branch_3_1x1 -> Mixed_4b_branch_3_1x1 (in-place)
I1017 16:33:47.120545 32032 layer_factory.hpp:77] Creating layer sacle_Mixed_4b_branch_3_1x1
I1017 16:33:47.120669 32032 net.cpp:122] Setting up sacle_Mixed_4b_branch_3_1x1
I1017 16:33:47.120676 32032 net.cpp:129] Top shape: 4 64 12 14 14 (602112)
I1017 16:33:47.120678 32032 net.cpp:137] Memory required for data: 5352775840
I1017 16:33:47.120683 32032 layer_factory.hpp:77] Creating layer relu4b_branch_3_1x1
I1017 16:33:47.120689 32032 net.cpp:84] Creating Layer relu4b_branch_3_1x1
I1017 16:33:47.120692 32032 net.cpp:406] relu4b_branch_3_1x1 <- Mixed_4b_branch_3_1x1
I1017 16:33:47.120699 32032 net.cpp:367] relu4b_branch_3_1x1 -> Mixed_4b_branch_3_1x1 (in-place)
I1017 16:33:47.120880 32032 net.cpp:122] Setting up relu4b_branch_3_1x1
I1017 16:33:47.120887 32032 net.cpp:129] Top shape: 4 64 12 14 14 (602112)
I1017 16:33:47.120889 32032 net.cpp:137] Memory required for data: 5355184288
I1017 16:33:47.120893 32032 layer_factory.hpp:77] Creating layer Mixed_4b
I1017 16:33:47.120899 32032 net.cpp:84] Creating Layer Mixed_4b
I1017 16:33:47.120903 32032 net.cpp:406] Mixed_4b <- Mixed_4b_branch_0_1x1
I1017 16:33:47.120906 32032 net.cpp:406] Mixed_4b <- Mixed_4b_branch_1_3x3
I1017 16:33:47.120910 32032 net.cpp:406] Mixed_4b <- Mixed_4b_branch_2_5x5
I1017 16:33:47.120914 32032 net.cpp:406] Mixed_4b <- Mixed_4b_branch_3_1x1
I1017 16:33:47.120920 32032 net.cpp:380] Mixed_4b -> Mixed_4b
I1017 16:33:47.120951 32032 net.cpp:122] Setting up Mixed_4b
I1017 16:33:47.120956 32032 net.cpp:129] Top shape: 4 512 12 14 14 (4816896)
I1017 16:33:47.120959 32032 net.cpp:137] Memory required for data: 5374451872
I1017 16:33:47.120962 32032 layer_factory.hpp:77] Creating layer Mixed_4b_Mixed_4b_0_split
I1017 16:33:47.120967 32032 net.cpp:84] Creating Layer Mixed_4b_Mixed_4b_0_split
I1017 16:33:47.120971 32032 net.cpp:406] Mixed_4b_Mixed_4b_0_split <- Mixed_4b
I1017 16:33:47.120977 32032 net.cpp:380] Mixed_4b_Mixed_4b_0_split -> Mixed_4b_Mixed_4b_0_split_0
I1017 16:33:47.120983 32032 net.cpp:380] Mixed_4b_Mixed_4b_0_split -> Mixed_4b_Mixed_4b_0_split_1
I1017 16:33:47.120990 32032 net.cpp:380] Mixed_4b_Mixed_4b_0_split -> Mixed_4b_Mixed_4b_0_split_2
I1017 16:33:47.120995 32032 net.cpp:380] Mixed_4b_Mixed_4b_0_split -> Mixed_4b_Mixed_4b_0_split_3
I1017 16:33:47.121059 32032 net.cpp:122] Setting up Mixed_4b_Mixed_4b_0_split
I1017 16:33:47.121064 32032 net.cpp:129] Top shape: 4 512 12 14 14 (4816896)
I1017 16:33:47.121068 32032 net.cpp:129] Top shape: 4 512 12 14 14 (4816896)
I1017 16:33:47.121071 32032 net.cpp:129] Top shape: 4 512 12 14 14 (4816896)
I1017 16:33:47.121074 32032 net.cpp:129] Top shape: 4 512 12 14 14 (4816896)
I1017 16:33:47.121078 32032 net.cpp:137] Memory required for data: 5451522208
I1017 16:33:47.121079 32032 layer_factory.hpp:77] Creating layer Mixed_4c_branch_0_1x1
I1017 16:33:47.121089 32032 net.cpp:84] Creating Layer Mixed_4c_branch_0_1x1
I1017 16:33:47.121093 32032 net.cpp:406] Mixed_4c_branch_0_1x1 <- Mixed_4b_Mixed_4b_0_split_0
I1017 16:33:47.121099 32032 net.cpp:380] Mixed_4c_branch_0_1x1 -> Mixed_4c_branch_0_1x1
I1017 16:33:47.122411 32032 net.cpp:122] Setting up Mixed_4c_branch_0_1x1
I1017 16:33:47.122422 32032 net.cpp:129] Top shape: 4 160 12 14 14 (1505280)
I1017 16:33:47.122426 32032 net.cpp:137] Memory required for data: 5457543328
I1017 16:33:47.122431 32032 layer_factory.hpp:77] Creating layer bn_Mixed_4c_branch_0_1x1
I1017 16:33:47.122439 32032 net.cpp:84] Creating Layer bn_Mixed_4c_branch_0_1x1
I1017 16:33:47.122455 32032 net.cpp:406] bn_Mixed_4c_branch_0_1x1 <- Mixed_4c_branch_0_1x1
I1017 16:33:47.122462 32032 net.cpp:367] bn_Mixed_4c_branch_0_1x1 -> Mixed_4c_branch_0_1x1 (in-place)
I1017 16:33:47.122682 32032 net.cpp:122] Setting up bn_Mixed_4c_branch_0_1x1
I1017 16:33:47.122689 32032 net.cpp:129] Top shape: 4 160 12 14 14 (1505280)
I1017 16:33:47.122692 32032 net.cpp:137] Memory required for data: 5463564448
I1017 16:33:47.122699 32032 layer_factory.hpp:77] Creating layer sacle_Mixed_4c_branch_0_1x1
I1017 16:33:47.122704 32032 net.cpp:84] Creating Layer sacle_Mixed_4c_branch_0_1x1
I1017 16:33:47.122707 32032 net.cpp:406] sacle_Mixed_4c_branch_0_1x1 <- Mixed_4c_branch_0_1x1
I1017 16:33:47.122712 32032 net.cpp:367] sacle_Mixed_4c_branch_0_1x1 -> Mixed_4c_branch_0_1x1 (in-place)
I1017 16:33:47.122757 32032 layer_factory.hpp:77] Creating layer sacle_Mixed_4c_branch_0_1x1
I1017 16:33:47.122886 32032 net.cpp:122] Setting up sacle_Mixed_4c_branch_0_1x1
I1017 16:33:47.122891 32032 net.cpp:129] Top shape: 4 160 12 14 14 (1505280)
I1017 16:33:47.122895 32032 net.cpp:137] Memory required for data: 5469585568
I1017 16:33:47.122900 32032 layer_factory.hpp:77] Creating layer relu4c_branch_0_1x1
I1017 16:33:47.122905 32032 net.cpp:84] Creating Layer relu4c_branch_0_1x1
I1017 16:33:47.122908 32032 net.cpp:406] relu4c_branch_0_1x1 <- Mixed_4c_branch_0_1x1
I1017 16:33:47.122915 32032 net.cpp:367] relu4c_branch_0_1x1 -> Mixed_4c_branch_0_1x1 (in-place)
I1017 16:33:47.123095 32032 net.cpp:122] Setting up relu4c_branch_0_1x1
I1017 16:33:47.123102 32032 net.cpp:129] Top shape: 4 160 12 14 14 (1505280)
I1017 16:33:47.123104 32032 net.cpp:137] Memory required for data: 5475606688
I1017 16:33:47.123109 32032 layer_factory.hpp:77] Creating layer Mixed_4c_branch_1_1x1
I1017 16:33:47.123119 32032 net.cpp:84] Creating Layer Mixed_4c_branch_1_1x1
I1017 16:33:47.123122 32032 net.cpp:406] Mixed_4c_branch_1_1x1 <- Mixed_4b_Mixed_4b_0_split_1
I1017 16:33:47.123127 32032 net.cpp:380] Mixed_4c_branch_1_1x1 -> Mixed_4c_branch_1_1x1
I1017 16:33:47.124239 32032 net.cpp:122] Setting up Mixed_4c_branch_1_1x1
I1017 16:33:47.124250 32032 net.cpp:129] Top shape: 4 112 12 14 14 (1053696)
I1017 16:33:47.124253 32032 net.cpp:137] Memory required for data: 5479821472
I1017 16:33:47.124258 32032 layer_factory.hpp:77] Creating layer bn_Mixed_4c_branch_1_1x1
I1017 16:33:47.124266 32032 net.cpp:84] Creating Layer bn_Mixed_4c_branch_1_1x1
I1017 16:33:47.124269 32032 net.cpp:406] bn_Mixed_4c_branch_1_1x1 <- Mixed_4c_branch_1_1x1
I1017 16:33:47.124275 32032 net.cpp:367] bn_Mixed_4c_branch_1_1x1 -> Mixed_4c_branch_1_1x1 (in-place)
I1017 16:33:47.124502 32032 net.cpp:122] Setting up bn_Mixed_4c_branch_1_1x1
I1017 16:33:47.124509 32032 net.cpp:129] Top shape: 4 112 12 14 14 (1053696)
I1017 16:33:47.124512 32032 net.cpp:137] Memory required for data: 5484036256
I1017 16:33:47.124518 32032 layer_factory.hpp:77] Creating layer sacle_Mixed_4c_branch_1_1x1
I1017 16:33:47.124526 32032 net.cpp:84] Creating Layer sacle_Mixed_4c_branch_1_1x1
I1017 16:33:47.124529 32032 net.cpp:406] sacle_Mixed_4c_branch_1_1x1 <- Mixed_4c_branch_1_1x1
I1017 16:33:47.124536 32032 net.cpp:367] sacle_Mixed_4c_branch_1_1x1 -> Mixed_4c_branch_1_1x1 (in-place)
I1017 16:33:47.124577 32032 layer_factory.hpp:77] Creating layer sacle_Mixed_4c_branch_1_1x1
I1017 16:33:47.124704 32032 net.cpp:122] Setting up sacle_Mixed_4c_branch_1_1x1
I1017 16:33:47.124711 32032 net.cpp:129] Top shape: 4 112 12 14 14 (1053696)
I1017 16:33:47.124712 32032 net.cpp:137] Memory required for data: 5488251040
I1017 16:33:47.124717 32032 layer_factory.hpp:77] Creating layer relu4c_branch_1_1x1
I1017 16:33:47.124724 32032 net.cpp:84] Creating Layer relu4c_branch_1_1x1
I1017 16:33:47.124727 32032 net.cpp:406] relu4c_branch_1_1x1 <- Mixed_4c_branch_1_1x1
I1017 16:33:47.124732 32032 net.cpp:367] relu4c_branch_1_1x1 -> Mixed_4c_branch_1_1x1 (in-place)
I1017 16:33:47.124905 32032 net.cpp:122] Setting up relu4c_branch_1_1x1
I1017 16:33:47.124912 32032 net.cpp:129] Top shape: 4 112 12 14 14 (1053696)
I1017 16:33:47.124927 32032 net.cpp:137] Memory required for data: 5492465824
I1017 16:33:47.124929 32032 layer_factory.hpp:77] Creating layer Mixed_4c_branch_1_3x3_dw
I1017 16:33:47.124941 32032 net.cpp:84] Creating Layer Mixed_4c_branch_1_3x3_dw
I1017 16:33:47.124944 32032 net.cpp:406] Mixed_4c_branch_1_3x3_dw <- Mixed_4c_branch_1_1x1
I1017 16:33:47.124953 32032 net.cpp:380] Mixed_4c_branch_1_3x3_dw -> Mixed_4c_branch_1_3x3_dw
I1017 16:33:47.126078 32032 net.cpp:122] Setting up Mixed_4c_branch_1_3x3_dw
I1017 16:33:47.126091 32032 net.cpp:129] Top shape: 4 112 12 14 14 (1053696)
I1017 16:33:47.126094 32032 net.cpp:137] Memory required for data: 5496680608
I1017 16:33:47.126101 32032 layer_factory.hpp:77] Creating layer relu4c_branch_1_3x3_dw
I1017 16:33:47.126107 32032 net.cpp:84] Creating Layer relu4c_branch_1_3x3_dw
I1017 16:33:47.126111 32032 net.cpp:406] relu4c_branch_1_3x3_dw <- Mixed_4c_branch_1_3x3_dw
I1017 16:33:47.126116 32032 net.cpp:367] relu4c_branch_1_3x3_dw -> Mixed_4c_branch_1_3x3_dw (in-place)
I1017 16:33:47.126477 32032 net.cpp:122] Setting up relu4c_branch_1_3x3_dw
I1017 16:33:47.126487 32032 net.cpp:129] Top shape: 4 112 12 14 14 (1053696)
I1017 16:33:47.126490 32032 net.cpp:137] Memory required for data: 5500895392
I1017 16:33:47.126493 32032 layer_factory.hpp:77] Creating layer Mixed_4c_branch_1_3x3
I1017 16:33:47.126504 32032 net.cpp:84] Creating Layer Mixed_4c_branch_1_3x3
I1017 16:33:47.126507 32032 net.cpp:406] Mixed_4c_branch_1_3x3 <- Mixed_4c_branch_1_3x3_dw
I1017 16:33:47.126515 32032 net.cpp:380] Mixed_4c_branch_1_3x3 -> Mixed_4c_branch_1_3x3
I1017 16:33:47.127302 32032 net.cpp:122] Setting up Mixed_4c_branch_1_3x3
I1017 16:33:47.127311 32032 net.cpp:129] Top shape: 4 224 12 14 14 (2107392)
I1017 16:33:47.127315 32032 net.cpp:137] Memory required for data: 5509324960
I1017 16:33:47.127321 32032 layer_factory.hpp:77] Creating layer bn_Mixed_4c_branch_1_3x3
I1017 16:33:47.127327 32032 net.cpp:84] Creating Layer bn_Mixed_4c_branch_1_3x3
I1017 16:33:47.127332 32032 net.cpp:406] bn_Mixed_4c_branch_1_3x3 <- Mixed_4c_branch_1_3x3
I1017 16:33:47.127336 32032 net.cpp:367] bn_Mixed_4c_branch_1_3x3 -> Mixed_4c_branch_1_3x3 (in-place)
I1017 16:33:47.127581 32032 net.cpp:122] Setting up bn_Mixed_4c_branch_1_3x3
I1017 16:33:47.127588 32032 net.cpp:129] Top shape: 4 224 12 14 14 (2107392)
I1017 16:33:47.127591 32032 net.cpp:137] Memory required for data: 5517754528
I1017 16:33:47.127599 32032 layer_factory.hpp:77] Creating layer sacle_Mixed_4c_branch_1_3x3
I1017 16:33:47.127605 32032 net.cpp:84] Creating Layer sacle_Mixed_4c_branch_1_3x3
I1017 16:33:47.127609 32032 net.cpp:406] sacle_Mixed_4c_branch_1_3x3 <- Mixed_4c_branch_1_3x3
I1017 16:33:47.127615 32032 net.cpp:367] sacle_Mixed_4c_branch_1_3x3 -> Mixed_4c_branch_1_3x3 (in-place)
I1017 16:33:47.127660 32032 layer_factory.hpp:77] Creating layer sacle_Mixed_4c_branch_1_3x3
I1017 16:33:47.127799 32032 net.cpp:122] Setting up sacle_Mixed_4c_branch_1_3x3
I1017 16:33:47.127805 32032 net.cpp:129] Top shape: 4 224 12 14 14 (2107392)
I1017 16:33:47.127809 32032 net.cpp:137] Memory required for data: 5526184096
I1017 16:33:47.127813 32032 layer_factory.hpp:77] Creating layer relu4c_branch_1_3x3
I1017 16:33:47.127818 32032 net.cpp:84] Creating Layer relu4c_branch_1_3x3
I1017 16:33:47.127821 32032 net.cpp:406] relu4c_branch_1_3x3 <- Mixed_4c_branch_1_3x3
I1017 16:33:47.127830 32032 net.cpp:367] relu4c_branch_1_3x3 -> Mixed_4c_branch_1_3x3 (in-place)
I1017 16:33:47.128280 32032 net.cpp:122] Setting up relu4c_branch_1_3x3
I1017 16:33:47.128290 32032 net.cpp:129] Top shape: 4 224 12 14 14 (2107392)
I1017 16:33:47.128309 32032 net.cpp:137] Memory required for data: 5534613664
I1017 16:33:47.128314 32032 layer_factory.hpp:77] Creating layer Mixed_4c_branch_2_1x1
I1017 16:33:47.128334 32032 net.cpp:84] Creating Layer Mixed_4c_branch_2_1x1
I1017 16:33:47.128338 32032 net.cpp:406] Mixed_4c_branch_2_1x1 <- Mixed_4b_Mixed_4b_0_split_2
I1017 16:33:47.128345 32032 net.cpp:380] Mixed_4c_branch_2_1x1 -> Mixed_4c_branch_2_1x1
I1017 16:33:47.129312 32032 net.cpp:122] Setting up Mixed_4c_branch_2_1x1
I1017 16:33:47.129340 32032 net.cpp:129] Top shape: 4 24 12 14 14 (225792)
I1017 16:33:47.129343 32032 net.cpp:137] Memory required for data: 5535516832
I1017 16:33:47.129349 32032 layer_factory.hpp:77] Creating layer bn_Mixed_4c_branch_2_1x1
I1017 16:33:47.129374 32032 net.cpp:84] Creating Layer bn_Mixed_4c_branch_2_1x1
I1017 16:33:47.129377 32032 net.cpp:406] bn_Mixed_4c_branch_2_1x1 <- Mixed_4c_branch_2_1x1
I1017 16:33:47.129384 32032 net.cpp:367] bn_Mixed_4c_branch_2_1x1 -> Mixed_4c_branch_2_1x1 (in-place)
I1017 16:33:47.129662 32032 net.cpp:122] Setting up bn_Mixed_4c_branch_2_1x1
I1017 16:33:47.129669 32032 net.cpp:129] Top shape: 4 24 12 14 14 (225792)
I1017 16:33:47.129673 32032 net.cpp:137] Memory required for data: 5536420000
I1017 16:33:47.129679 32032 layer_factory.hpp:77] Creating layer sacle_Mixed_4c_branch_2_1x1
I1017 16:33:47.129688 32032 net.cpp:84] Creating Layer sacle_Mixed_4c_branch_2_1x1
I1017 16:33:47.129694 32032 net.cpp:406] sacle_Mixed_4c_branch_2_1x1 <- Mixed_4c_branch_2_1x1
I1017 16:33:47.129699 32032 net.cpp:367] sacle_Mixed_4c_branch_2_1x1 -> Mixed_4c_branch_2_1x1 (in-place)
I1017 16:33:47.129745 32032 layer_factory.hpp:77] Creating layer sacle_Mixed_4c_branch_2_1x1
I1017 16:33:47.129885 32032 net.cpp:122] Setting up sacle_Mixed_4c_branch_2_1x1
I1017 16:33:47.129892 32032 net.cpp:129] Top shape: 4 24 12 14 14 (225792)
I1017 16:33:47.129894 32032 net.cpp:137] Memory required for data: 5537323168
I1017 16:33:47.129900 32032 layer_factory.hpp:77] Creating layer relu4c_branch_2_1x1
I1017 16:33:47.129905 32032 net.cpp:84] Creating Layer relu4c_branch_2_1x1
I1017 16:33:47.129909 32032 net.cpp:406] relu4c_branch_2_1x1 <- Mixed_4c_branch_2_1x1
I1017 16:33:47.129915 32032 net.cpp:367] relu4c_branch_2_1x1 -> Mixed_4c_branch_2_1x1 (in-place)
I1017 16:33:47.130136 32032 net.cpp:122] Setting up relu4c_branch_2_1x1
I1017 16:33:47.130142 32032 net.cpp:129] Top shape: 4 24 12 14 14 (225792)
I1017 16:33:47.130146 32032 net.cpp:137] Memory required for data: 5538226336
I1017 16:33:47.130149 32032 layer_factory.hpp:77] Creating layer Mixed_4c_branch_2_5x5_dw
I1017 16:33:47.130157 32032 net.cpp:84] Creating Layer Mixed_4c_branch_2_5x5_dw
I1017 16:33:47.130161 32032 net.cpp:406] Mixed_4c_branch_2_5x5_dw <- Mixed_4c_branch_2_1x1
I1017 16:33:47.130168 32032 net.cpp:380] Mixed_4c_branch_2_5x5_dw -> Mixed_4c_branch_2_5x5_dw
I1017 16:33:47.131057 32032 net.cpp:122] Setting up Mixed_4c_branch_2_5x5_dw
I1017 16:33:47.131069 32032 net.cpp:129] Top shape: 4 24 12 14 14 (225792)
I1017 16:33:47.131072 32032 net.cpp:137] Memory required for data: 5539129504
I1017 16:33:47.131079 32032 layer_factory.hpp:77] Creating layer relu4c_branch_2_5x5_dw
I1017 16:33:47.131089 32032 net.cpp:84] Creating Layer relu4c_branch_2_5x5_dw
I1017 16:33:47.131093 32032 net.cpp:406] relu4c_branch_2_5x5_dw <- Mixed_4c_branch_2_5x5_dw
I1017 16:33:47.131098 32032 net.cpp:367] relu4c_branch_2_5x5_dw -> Mixed_4c_branch_2_5x5_dw (in-place)
I1017 16:33:47.131330 32032 net.cpp:122] Setting up relu4c_branch_2_5x5_dw
I1017 16:33:47.131336 32032 net.cpp:129] Top shape: 4 24 12 14 14 (225792)
I1017 16:33:47.131340 32032 net.cpp:137] Memory required for data: 5540032672
I1017 16:33:47.131342 32032 layer_factory.hpp:77] Creating layer Mixed_4c_branch_2_5x5
I1017 16:33:47.131351 32032 net.cpp:84] Creating Layer Mixed_4c_branch_2_5x5
I1017 16:33:47.131356 32032 net.cpp:406] Mixed_4c_branch_2_5x5 <- Mixed_4c_branch_2_5x5_dw
I1017 16:33:47.131361 32032 net.cpp:380] Mixed_4c_branch_2_5x5 -> Mixed_4c_branch_2_5x5
I1017 16:33:47.132185 32032 net.cpp:122] Setting up Mixed_4c_branch_2_5x5
I1017 16:33:47.132196 32032 net.cpp:129] Top shape: 4 64 12 14 14 (602112)
I1017 16:33:47.132198 32032 net.cpp:137] Memory required for data: 5542441120
I1017 16:33:47.132205 32032 layer_factory.hpp:77] Creating layer bn_Mixed_4c_branch_2_5x5
I1017 16:33:47.132212 32032 net.cpp:84] Creating Layer bn_Mixed_4c_branch_2_5x5
I1017 16:33:47.132216 32032 net.cpp:406] bn_Mixed_4c_branch_2_5x5 <- Mixed_4c_branch_2_5x5
I1017 16:33:47.132222 32032 net.cpp:367] bn_Mixed_4c_branch_2_5x5 -> Mixed_4c_branch_2_5x5 (in-place)
I1017 16:33:47.132453 32032 net.cpp:122] Setting up bn_Mixed_4c_branch_2_5x5
I1017 16:33:47.132467 32032 net.cpp:129] Top shape: 4 64 12 14 14 (602112)
I1017 16:33:47.132469 32032 net.cpp:137] Memory required for data: 5544849568
I1017 16:33:47.132493 32032 layer_factory.hpp:77] Creating layer sacle_Mixed_4c_branch_2_5x5
I1017 16:33:47.132500 32032 net.cpp:84] Creating Layer sacle_Mixed_4c_branch_2_5x5
I1017 16:33:47.132504 32032 net.cpp:406] sacle_Mixed_4c_branch_2_5x5 <- Mixed_4c_branch_2_5x5
I1017 16:33:47.132509 32032 net.cpp:367] sacle_Mixed_4c_branch_2_5x5 -> Mixed_4c_branch_2_5x5 (in-place)
I1017 16:33:47.132555 32032 layer_factory.hpp:77] Creating layer sacle_Mixed_4c_branch_2_5x5
I1017 16:33:47.132711 32032 net.cpp:122] Setting up sacle_Mixed_4c_branch_2_5x5
I1017 16:33:47.132717 32032 net.cpp:129] Top shape: 4 64 12 14 14 (602112)
I1017 16:33:47.132720 32032 net.cpp:137] Memory required for data: 5547258016
I1017 16:33:47.132726 32032 layer_factory.hpp:77] Creating layer relu4c_branch_2_5x5
I1017 16:33:47.132731 32032 net.cpp:84] Creating Layer relu4c_branch_2_5x5
I1017 16:33:47.132736 32032 net.cpp:406] relu4c_branch_2_5x5 <- Mixed_4c_branch_2_5x5
I1017 16:33:47.132742 32032 net.cpp:367] relu4c_branch_2_5x5 -> Mixed_4c_branch_2_5x5 (in-place)
I1017 16:33:47.132979 32032 net.cpp:122] Setting up relu4c_branch_2_5x5
I1017 16:33:47.132987 32032 net.cpp:129] Top shape: 4 64 12 14 14 (602112)
I1017 16:33:47.132989 32032 net.cpp:137] Memory required for data: 5549666464
I1017 16:33:47.132992 32032 layer_factory.hpp:77] Creating layer Mixed_4c_branch_3_Maxpool
I1017 16:33:47.133002 32032 net.cpp:84] Creating Layer Mixed_4c_branch_3_Maxpool
I1017 16:33:47.133006 32032 net.cpp:406] Mixed_4c_branch_3_Maxpool <- Mixed_4b_Mixed_4b_0_split_3
I1017 16:33:47.133011 32032 net.cpp:380] Mixed_4c_branch_3_Maxpool -> Mixed_4c_branch_3_Maxpool
I1017 16:33:47.133234 32032 net.cpp:122] Setting up Mixed_4c_branch_3_Maxpool
I1017 16:33:47.133241 32032 net.cpp:129] Top shape: 4 512 12 14 14 (4816896)
I1017 16:33:47.133244 32032 net.cpp:137] Memory required for data: 5568934048
I1017 16:33:47.133247 32032 layer_factory.hpp:77] Creating layer Mixed_4c_branch_3_1x1
I1017 16:33:47.133257 32032 net.cpp:84] Creating Layer Mixed_4c_branch_3_1x1
I1017 16:33:47.133260 32032 net.cpp:406] Mixed_4c_branch_3_1x1 <- Mixed_4c_branch_3_Maxpool
I1017 16:33:47.133267 32032 net.cpp:380] Mixed_4c_branch_3_1x1 -> Mixed_4c_branch_3_1x1
I1017 16:33:47.134384 32032 net.cpp:122] Setting up Mixed_4c_branch_3_1x1
I1017 16:33:47.134395 32032 net.cpp:129] Top shape: 4 64 12 14 14 (602112)
I1017 16:33:47.134398 32032 net.cpp:137] Memory required for data: 5571342496
I1017 16:33:47.134403 32032 layer_factory.hpp:77] Creating layer bn_Mixed_4c_branch_3_1x1
I1017 16:33:47.134411 32032 net.cpp:84] Creating Layer bn_Mixed_4c_branch_3_1x1
I1017 16:33:47.134416 32032 net.cpp:406] bn_Mixed_4c_branch_3_1x1 <- Mixed_4c_branch_3_1x1
I1017 16:33:47.134423 32032 net.cpp:367] bn_Mixed_4c_branch_3_1x1 -> Mixed_4c_branch_3_1x1 (in-place)
I1017 16:33:47.134660 32032 net.cpp:122] Setting up bn_Mixed_4c_branch_3_1x1
I1017 16:33:47.134665 32032 net.cpp:129] Top shape: 4 64 12 14 14 (602112)
I1017 16:33:47.134668 32032 net.cpp:137] Memory required for data: 5573750944
I1017 16:33:47.134676 32032 layer_factory.hpp:77] Creating layer sacle_Mixed_4c_branch_3_1x1
I1017 16:33:47.134683 32032 net.cpp:84] Creating Layer sacle_Mixed_4c_branch_3_1x1
I1017 16:33:47.134686 32032 net.cpp:406] sacle_Mixed_4c_branch_3_1x1 <- Mixed_4c_branch_3_1x1
I1017 16:33:47.134691 32032 net.cpp:367] sacle_Mixed_4c_branch_3_1x1 -> Mixed_4c_branch_3_1x1 (in-place)
I1017 16:33:47.134735 32032 layer_factory.hpp:77] Creating layer sacle_Mixed_4c_branch_3_1x1
I1017 16:33:47.134871 32032 net.cpp:122] Setting up sacle_Mixed_4c_branch_3_1x1
I1017 16:33:47.134877 32032 net.cpp:129] Top shape: 4 64 12 14 14 (602112)
I1017 16:33:47.134881 32032 net.cpp:137] Memory required for data: 5576159392
I1017 16:33:47.134886 32032 layer_factory.hpp:77] Creating layer relu4c_branch_3_1x1
I1017 16:33:47.134903 32032 net.cpp:84] Creating Layer relu4c_branch_3_1x1
I1017 16:33:47.134908 32032 net.cpp:406] relu4c_branch_3_1x1 <- Mixed_4c_branch_3_1x1
I1017 16:33:47.134914 32032 net.cpp:367] relu4c_branch_3_1x1 -> Mixed_4c_branch_3_1x1 (in-place)
I1017 16:33:47.135287 32032 net.cpp:122] Setting up relu4c_branch_3_1x1
I1017 16:33:47.135296 32032 net.cpp:129] Top shape: 4 64 12 14 14 (602112)
I1017 16:33:47.135299 32032 net.cpp:137] Memory required for data: 5578567840
I1017 16:33:47.135303 32032 layer_factory.hpp:77] Creating layer Mixed_4c
I1017 16:33:47.135310 32032 net.cpp:84] Creating Layer Mixed_4c
I1017 16:33:47.135313 32032 net.cpp:406] Mixed_4c <- Mixed_4c_branch_0_1x1
I1017 16:33:47.135318 32032 net.cpp:406] Mixed_4c <- Mixed_4c_branch_1_3x3
I1017 16:33:47.135324 32032 net.cpp:406] Mixed_4c <- Mixed_4c_branch_2_5x5
I1017 16:33:47.135327 32032 net.cpp:406] Mixed_4c <- Mixed_4c_branch_3_1x1
I1017 16:33:47.135334 32032 net.cpp:380] Mixed_4c -> Mixed_4c
I1017 16:33:47.135366 32032 net.cpp:122] Setting up Mixed_4c
I1017 16:33:47.135372 32032 net.cpp:129] Top shape: 4 512 12 14 14 (4816896)
I1017 16:33:47.135375 32032 net.cpp:137] Memory required for data: 5597835424
I1017 16:33:47.135380 32032 layer_factory.hpp:77] Creating layer Mixed_4c_Mixed_4c_0_split
I1017 16:33:47.135387 32032 net.cpp:84] Creating Layer Mixed_4c_Mixed_4c_0_split
I1017 16:33:47.135391 32032 net.cpp:406] Mixed_4c_Mixed_4c_0_split <- Mixed_4c
I1017 16:33:47.135397 32032 net.cpp:380] Mixed_4c_Mixed_4c_0_split -> Mixed_4c_Mixed_4c_0_split_0
I1017 16:33:47.135403 32032 net.cpp:380] Mixed_4c_Mixed_4c_0_split -> Mixed_4c_Mixed_4c_0_split_1
I1017 16:33:47.135409 32032 net.cpp:380] Mixed_4c_Mixed_4c_0_split -> Mixed_4c_Mixed_4c_0_split_2
I1017 16:33:47.135416 32032 net.cpp:380] Mixed_4c_Mixed_4c_0_split -> Mixed_4c_Mixed_4c_0_split_3
I1017 16:33:47.135484 32032 net.cpp:122] Setting up Mixed_4c_Mixed_4c_0_split
I1017 16:33:47.135489 32032 net.cpp:129] Top shape: 4 512 12 14 14 (4816896)
I1017 16:33:47.135493 32032 net.cpp:129] Top shape: 4 512 12 14 14 (4816896)
I1017 16:33:47.135498 32032 net.cpp:129] Top shape: 4 512 12 14 14 (4816896)
I1017 16:33:47.135500 32032 net.cpp:129] Top shape: 4 512 12 14 14 (4816896)
I1017 16:33:47.135504 32032 net.cpp:137] Memory required for data: 5674905760
I1017 16:33:47.135505 32032 layer_factory.hpp:77] Creating layer Mixed_4d_branch_0_1x1
I1017 16:33:47.135515 32032 net.cpp:84] Creating Layer Mixed_4d_branch_0_1x1
I1017 16:33:47.135519 32032 net.cpp:406] Mixed_4d_branch_0_1x1 <- Mixed_4c_Mixed_4c_0_split_0
I1017 16:33:47.135525 32032 net.cpp:380] Mixed_4d_branch_0_1x1 -> Mixed_4d_branch_0_1x1
I1017 16:33:47.137730 32032 net.cpp:122] Setting up Mixed_4d_branch_0_1x1
I1017 16:33:47.137743 32032 net.cpp:129] Top shape: 4 128 12 14 14 (1204224)
I1017 16:33:47.137746 32032 net.cpp:137] Memory required for data: 5679722656
I1017 16:33:47.137753 32032 layer_factory.hpp:77] Creating layer bn_Mixed_4d_branch_0_1x1
I1017 16:33:47.137763 32032 net.cpp:84] Creating Layer bn_Mixed_4d_branch_0_1x1
I1017 16:33:47.137768 32032 net.cpp:406] bn_Mixed_4d_branch_0_1x1 <- Mixed_4d_branch_0_1x1
I1017 16:33:47.137774 32032 net.cpp:367] bn_Mixed_4d_branch_0_1x1 -> Mixed_4d_branch_0_1x1 (in-place)
I1017 16:33:47.138033 32032 net.cpp:122] Setting up bn_Mixed_4d_branch_0_1x1
I1017 16:33:47.138038 32032 net.cpp:129] Top shape: 4 128 12 14 14 (1204224)
I1017 16:33:47.138042 32032 net.cpp:137] Memory required for data: 5684539552
I1017 16:33:47.138049 32032 layer_factory.hpp:77] Creating layer sacle_Mixed_4d_branch_0_1x1
I1017 16:33:47.138056 32032 net.cpp:84] Creating Layer sacle_Mixed_4d_branch_0_1x1
I1017 16:33:47.138061 32032 net.cpp:406] sacle_Mixed_4d_branch_0_1x1 <- Mixed_4d_branch_0_1x1
I1017 16:33:47.138069 32032 net.cpp:367] sacle_Mixed_4d_branch_0_1x1 -> Mixed_4d_branch_0_1x1 (in-place)
I1017 16:33:47.138116 32032 layer_factory.hpp:77] Creating layer sacle_Mixed_4d_branch_0_1x1
I1017 16:33:47.138244 32032 net.cpp:122] Setting up sacle_Mixed_4d_branch_0_1x1
I1017 16:33:47.138249 32032 net.cpp:129] Top shape: 4 128 12 14 14 (1204224)
I1017 16:33:47.138270 32032 net.cpp:137] Memory required for data: 5689356448
I1017 16:33:47.138276 32032 layer_factory.hpp:77] Creating layer relu4d_branch_0_1x1
I1017 16:33:47.138283 32032 net.cpp:84] Creating Layer relu4d_branch_0_1x1
I1017 16:33:47.138285 32032 net.cpp:406] relu4d_branch_0_1x1 <- Mixed_4d_branch_0_1x1
I1017 16:33:47.138293 32032 net.cpp:367] relu4d_branch_0_1x1 -> Mixed_4d_branch_0_1x1 (in-place)
I1017 16:33:47.138491 32032 net.cpp:122] Setting up relu4d_branch_0_1x1
I1017 16:33:47.138500 32032 net.cpp:129] Top shape: 4 128 12 14 14 (1204224)
I1017 16:33:47.138502 32032 net.cpp:137] Memory required for data: 5694173344
I1017 16:33:47.138506 32032 layer_factory.hpp:77] Creating layer Mixed_4d_branch_1_1x1
I1017 16:33:47.138518 32032 net.cpp:84] Creating Layer Mixed_4d_branch_1_1x1
I1017 16:33:47.138521 32032 net.cpp:406] Mixed_4d_branch_1_1x1 <- Mixed_4c_Mixed_4c_0_split_1
I1017 16:33:47.138527 32032 net.cpp:380] Mixed_4d_branch_1_1x1 -> Mixed_4d_branch_1_1x1
I1017 16:33:47.139708 32032 net.cpp:122] Setting up Mixed_4d_branch_1_1x1
I1017 16:33:47.139719 32032 net.cpp:129] Top shape: 4 128 12 14 14 (1204224)
I1017 16:33:47.139721 32032 net.cpp:137] Memory required for data: 5698990240
I1017 16:33:47.139727 32032 layer_factory.hpp:77] Creating layer bn_Mixed_4d_branch_1_1x1
I1017 16:33:47.139736 32032 net.cpp:84] Creating Layer bn_Mixed_4d_branch_1_1x1
I1017 16:33:47.139739 32032 net.cpp:406] bn_Mixed_4d_branch_1_1x1 <- Mixed_4d_branch_1_1x1
I1017 16:33:47.139746 32032 net.cpp:367] bn_Mixed_4d_branch_1_1x1 -> Mixed_4d_branch_1_1x1 (in-place)
I1017 16:33:47.139974 32032 net.cpp:122] Setting up bn_Mixed_4d_branch_1_1x1
I1017 16:33:47.139981 32032 net.cpp:129] Top shape: 4 128 12 14 14 (1204224)
I1017 16:33:47.139983 32032 net.cpp:137] Memory required for data: 5703807136
I1017 16:33:47.139991 32032 layer_factory.hpp:77] Creating layer sacle_Mixed_4d_branch_1_1x1
I1017 16:33:47.139997 32032 net.cpp:84] Creating Layer sacle_Mixed_4d_branch_1_1x1
I1017 16:33:47.140000 32032 net.cpp:406] sacle_Mixed_4d_branch_1_1x1 <- Mixed_4d_branch_1_1x1
I1017 16:33:47.140007 32032 net.cpp:367] sacle_Mixed_4d_branch_1_1x1 -> Mixed_4d_branch_1_1x1 (in-place)
I1017 16:33:47.140048 32032 layer_factory.hpp:77] Creating layer sacle_Mixed_4d_branch_1_1x1
I1017 16:33:47.140172 32032 net.cpp:122] Setting up sacle_Mixed_4d_branch_1_1x1
I1017 16:33:47.140179 32032 net.cpp:129] Top shape: 4 128 12 14 14 (1204224)
I1017 16:33:47.140182 32032 net.cpp:137] Memory required for data: 5708624032
I1017 16:33:47.140187 32032 layer_factory.hpp:77] Creating layer relu4d_branch_1_1x1
I1017 16:33:47.140192 32032 net.cpp:84] Creating Layer relu4d_branch_1_1x1
I1017 16:33:47.140197 32032 net.cpp:406] relu4d_branch_1_1x1 <- Mixed_4d_branch_1_1x1
I1017 16:33:47.140200 32032 net.cpp:367] relu4d_branch_1_1x1 -> Mixed_4d_branch_1_1x1 (in-place)
I1017 16:33:47.140394 32032 net.cpp:122] Setting up relu4d_branch_1_1x1
I1017 16:33:47.140401 32032 net.cpp:129] Top shape: 4 128 12 14 14 (1204224)
I1017 16:33:47.140404 32032 net.cpp:137] Memory required for data: 5713440928
I1017 16:33:47.140409 32032 layer_factory.hpp:77] Creating layer Mixed_4d_branch_1_3x3_dw
I1017 16:33:47.140419 32032 net.cpp:84] Creating Layer Mixed_4d_branch_1_3x3_dw
I1017 16:33:47.140422 32032 net.cpp:406] Mixed_4d_branch_1_3x3_dw <- Mixed_4d_branch_1_1x1
I1017 16:33:47.140430 32032 net.cpp:380] Mixed_4d_branch_1_3x3_dw -> Mixed_4d_branch_1_3x3_dw
I1017 16:33:47.141268 32032 net.cpp:122] Setting up Mixed_4d_branch_1_3x3_dw
I1017 16:33:47.141280 32032 net.cpp:129] Top shape: 4 128 12 14 14 (1204224)
I1017 16:33:47.141284 32032 net.cpp:137] Memory required for data: 5718257824
I1017 16:33:47.141289 32032 layer_factory.hpp:77] Creating layer relu4d_branch_1_3x3_dw
I1017 16:33:47.141295 32032 net.cpp:84] Creating Layer relu4d_branch_1_3x3_dw
I1017 16:33:47.141299 32032 net.cpp:406] relu4d_branch_1_3x3_dw <- Mixed_4d_branch_1_3x3_dw
I1017 16:33:47.141304 32032 net.cpp:367] relu4d_branch_1_3x3_dw -> Mixed_4d_branch_1_3x3_dw (in-place)
I1017 16:33:47.141494 32032 net.cpp:122] Setting up relu4d_branch_1_3x3_dw
I1017 16:33:47.141515 32032 net.cpp:129] Top shape: 4 128 12 14 14 (1204224)
I1017 16:33:47.141517 32032 net.cpp:137] Memory required for data: 5723074720
I1017 16:33:47.141521 32032 layer_factory.hpp:77] Creating layer Mixed_4d_branch_1_3x3
I1017 16:33:47.141530 32032 net.cpp:84] Creating Layer Mixed_4d_branch_1_3x3
I1017 16:33:47.141535 32032 net.cpp:406] Mixed_4d_branch_1_3x3 <- Mixed_4d_branch_1_3x3_dw
I1017 16:33:47.141541 32032 net.cpp:380] Mixed_4d_branch_1_3x3 -> Mixed_4d_branch_1_3x3
I1017 16:33:47.142614 32032 net.cpp:122] Setting up Mixed_4d_branch_1_3x3
I1017 16:33:47.142627 32032 net.cpp:129] Top shape: 4 256 12 14 14 (2408448)
I1017 16:33:47.142628 32032 net.cpp:137] Memory required for data: 5732708512
I1017 16:33:47.142635 32032 layer_factory.hpp:77] Creating layer bn_Mixed_4d_branch_1_3x3
I1017 16:33:47.142643 32032 net.cpp:84] Creating Layer bn_Mixed_4d_branch_1_3x3
I1017 16:33:47.142648 32032 net.cpp:406] bn_Mixed_4d_branch_1_3x3 <- Mixed_4d_branch_1_3x3
I1017 16:33:47.142653 32032 net.cpp:367] bn_Mixed_4d_branch_1_3x3 -> Mixed_4d_branch_1_3x3 (in-place)
I1017 16:33:47.142877 32032 net.cpp:122] Setting up bn_Mixed_4d_branch_1_3x3
I1017 16:33:47.142884 32032 net.cpp:129] Top shape: 4 256 12 14 14 (2408448)
I1017 16:33:47.142886 32032 net.cpp:137] Memory required for data: 5742342304
I1017 16:33:47.142894 32032 layer_factory.hpp:77] Creating layer sacle_Mixed_4d_branch_1_3x3
I1017 16:33:47.142901 32032 net.cpp:84] Creating Layer sacle_Mixed_4d_branch_1_3x3
I1017 16:33:47.142904 32032 net.cpp:406] sacle_Mixed_4d_branch_1_3x3 <- Mixed_4d_branch_1_3x3
I1017 16:33:47.142910 32032 net.cpp:367] sacle_Mixed_4d_branch_1_3x3 -> Mixed_4d_branch_1_3x3 (in-place)
I1017 16:33:47.142956 32032 layer_factory.hpp:77] Creating layer sacle_Mixed_4d_branch_1_3x3
I1017 16:33:47.143095 32032 net.cpp:122] Setting up sacle_Mixed_4d_branch_1_3x3
I1017 16:33:47.143100 32032 net.cpp:129] Top shape: 4 256 12 14 14 (2408448)
I1017 16:33:47.143105 32032 net.cpp:137] Memory required for data: 5751976096
I1017 16:33:47.143110 32032 layer_factory.hpp:77] Creating layer relu4d_branch_1_3x3
I1017 16:33:47.143115 32032 net.cpp:84] Creating Layer relu4d_branch_1_3x3
I1017 16:33:47.143117 32032 net.cpp:406] relu4d_branch_1_3x3 <- Mixed_4d_branch_1_3x3
I1017 16:33:47.143124 32032 net.cpp:367] relu4d_branch_1_3x3 -> Mixed_4d_branch_1_3x3 (in-place)
I1017 16:33:47.143307 32032 net.cpp:122] Setting up relu4d_branch_1_3x3
I1017 16:33:47.143316 32032 net.cpp:129] Top shape: 4 256 12 14 14 (2408448)
I1017 16:33:47.143318 32032 net.cpp:137] Memory required for data: 5761609888
I1017 16:33:47.143323 32032 layer_factory.hpp:77] Creating layer Mixed_4d_branch_2_1x1
I1017 16:33:47.143332 32032 net.cpp:84] Creating Layer Mixed_4d_branch_2_1x1
I1017 16:33:47.143334 32032 net.cpp:406] Mixed_4d_branch_2_1x1 <- Mixed_4c_Mixed_4c_0_split_2
I1017 16:33:47.143342 32032 net.cpp:380] Mixed_4d_branch_2_1x1 -> Mixed_4d_branch_2_1x1
I1017 16:33:47.144244 32032 net.cpp:122] Setting up Mixed_4d_branch_2_1x1
I1017 16:33:47.144254 32032 net.cpp:129] Top shape: 4 24 12 14 14 (225792)
I1017 16:33:47.144258 32032 net.cpp:137] Memory required for data: 5762513056
I1017 16:33:47.144263 32032 layer_factory.hpp:77] Creating layer bn_Mixed_4d_branch_2_1x1
I1017 16:33:47.144271 32032 net.cpp:84] Creating Layer bn_Mixed_4d_branch_2_1x1
I1017 16:33:47.144275 32032 net.cpp:406] bn_Mixed_4d_branch_2_1x1 <- Mixed_4d_branch_2_1x1
I1017 16:33:47.144281 32032 net.cpp:367] bn_Mixed_4d_branch_2_1x1 -> Mixed_4d_branch_2_1x1 (in-place)
I1017 16:33:47.144520 32032 net.cpp:122] Setting up bn_Mixed_4d_branch_2_1x1
I1017 16:33:47.144526 32032 net.cpp:129] Top shape: 4 24 12 14 14 (225792)
I1017 16:33:47.144529 32032 net.cpp:137] Memory required for data: 5763416224
I1017 16:33:47.144536 32032 layer_factory.hpp:77] Creating layer sacle_Mixed_4d_branch_2_1x1
I1017 16:33:47.144543 32032 net.cpp:84] Creating Layer sacle_Mixed_4d_branch_2_1x1
I1017 16:33:47.144547 32032 net.cpp:406] sacle_Mixed_4d_branch_2_1x1 <- Mixed_4d_branch_2_1x1
I1017 16:33:47.144551 32032 net.cpp:367] sacle_Mixed_4d_branch_2_1x1 -> Mixed_4d_branch_2_1x1 (in-place)
I1017 16:33:47.144613 32032 layer_factory.hpp:77] Creating layer sacle_Mixed_4d_branch_2_1x1
I1017 16:33:47.144749 32032 net.cpp:122] Setting up sacle_Mixed_4d_branch_2_1x1
I1017 16:33:47.144757 32032 net.cpp:129] Top shape: 4 24 12 14 14 (225792)
I1017 16:33:47.144760 32032 net.cpp:137] Memory required for data: 5764319392
I1017 16:33:47.144767 32032 layer_factory.hpp:77] Creating layer relu4d_branch_2_1x1
I1017 16:33:47.144773 32032 net.cpp:84] Creating Layer relu4d_branch_2_1x1
I1017 16:33:47.144776 32032 net.cpp:406] relu4d_branch_2_1x1 <- Mixed_4d_branch_2_1x1
I1017 16:33:47.144780 32032 net.cpp:367] relu4d_branch_2_1x1 -> Mixed_4d_branch_2_1x1 (in-place)
I1017 16:33:47.144973 32032 net.cpp:122] Setting up relu4d_branch_2_1x1
I1017 16:33:47.144981 32032 net.cpp:129] Top shape: 4 24 12 14 14 (225792)
I1017 16:33:47.144985 32032 net.cpp:137] Memory required for data: 5765222560
I1017 16:33:47.144989 32032 layer_factory.hpp:77] Creating layer Mixed_4d_branch_2_5x5_dw
I1017 16:33:47.144997 32032 net.cpp:84] Creating Layer Mixed_4d_branch_2_5x5_dw
I1017 16:33:47.145000 32032 net.cpp:406] Mixed_4d_branch_2_5x5_dw <- Mixed_4d_branch_2_1x1
I1017 16:33:47.145009 32032 net.cpp:380] Mixed_4d_branch_2_5x5_dw -> Mixed_4d_branch_2_5x5_dw
I1017 16:33:47.145953 32032 net.cpp:122] Setting up Mixed_4d_branch_2_5x5_dw
I1017 16:33:47.145979 32032 net.cpp:129] Top shape: 4 24 12 14 14 (225792)
I1017 16:33:47.145982 32032 net.cpp:137] Memory required for data: 5766125728
I1017 16:33:47.145988 32032 layer_factory.hpp:77] Creating layer relu4d_branch_2_5x5_dw
I1017 16:33:47.145997 32032 net.cpp:84] Creating Layer relu4d_branch_2_5x5_dw
I1017 16:33:47.146000 32032 net.cpp:406] relu4d_branch_2_5x5_dw <- Mixed_4d_branch_2_5x5_dw
I1017 16:33:47.146005 32032 net.cpp:367] relu4d_branch_2_5x5_dw -> Mixed_4d_branch_2_5x5_dw (in-place)
I1017 16:33:47.146369 32032 net.cpp:122] Setting up relu4d_branch_2_5x5_dw
I1017 16:33:47.146379 32032 net.cpp:129] Top shape: 4 24 12 14 14 (225792)
I1017 16:33:47.146381 32032 net.cpp:137] Memory required for data: 5767028896
I1017 16:33:47.146386 32032 layer_factory.hpp:77] Creating layer Mixed_4d_branch_2_5x5
I1017 16:33:47.146396 32032 net.cpp:84] Creating Layer Mixed_4d_branch_2_5x5
I1017 16:33:47.146399 32032 net.cpp:406] Mixed_4d_branch_2_5x5 <- Mixed_4d_branch_2_5x5_dw
I1017 16:33:47.146407 32032 net.cpp:380] Mixed_4d_branch_2_5x5 -> Mixed_4d_branch_2_5x5
I1017 16:33:47.147253 32032 net.cpp:122] Setting up Mixed_4d_branch_2_5x5
I1017 16:33:47.147264 32032 net.cpp:129] Top shape: 4 64 12 14 14 (602112)
I1017 16:33:47.147267 32032 net.cpp:137] Memory required for data: 5769437344
I1017 16:33:47.147272 32032 layer_factory.hpp:77] Creating layer bn_Mixed_4d_branch_2_5x5
I1017 16:33:47.147280 32032 net.cpp:84] Creating Layer bn_Mixed_4d_branch_2_5x5
I1017 16:33:47.147285 32032 net.cpp:406] bn_Mixed_4d_branch_2_5x5 <- Mixed_4d_branch_2_5x5
I1017 16:33:47.147291 32032 net.cpp:367] bn_Mixed_4d_branch_2_5x5 -> Mixed_4d_branch_2_5x5 (in-place)
I1017 16:33:47.147550 32032 net.cpp:122] Setting up bn_Mixed_4d_branch_2_5x5
I1017 16:33:47.147557 32032 net.cpp:129] Top shape: 4 64 12 14 14 (602112)
I1017 16:33:47.147560 32032 net.cpp:137] Memory required for data: 5771845792
I1017 16:33:47.147567 32032 layer_factory.hpp:77] Creating layer sacle_Mixed_4d_branch_2_5x5
I1017 16:33:47.147577 32032 net.cpp:84] Creating Layer sacle_Mixed_4d_branch_2_5x5
I1017 16:33:47.147579 32032 net.cpp:406] sacle_Mixed_4d_branch_2_5x5 <- Mixed_4d_branch_2_5x5
I1017 16:33:47.147585 32032 net.cpp:367] sacle_Mixed_4d_branch_2_5x5 -> Mixed_4d_branch_2_5x5 (in-place)
I1017 16:33:47.147631 32032 layer_factory.hpp:77] Creating layer sacle_Mixed_4d_branch_2_5x5
I1017 16:33:47.147786 32032 net.cpp:122] Setting up sacle_Mixed_4d_branch_2_5x5
I1017 16:33:47.147791 32032 net.cpp:129] Top shape: 4 64 12 14 14 (602112)
I1017 16:33:47.147795 32032 net.cpp:137] Memory required for data: 5774254240
I1017 16:33:47.147801 32032 layer_factory.hpp:77] Creating layer relu4d_branch_2_5x5
I1017 16:33:47.147821 32032 net.cpp:84] Creating Layer relu4d_branch_2_5x5
I1017 16:33:47.147825 32032 net.cpp:406] relu4d_branch_2_5x5 <- Mixed_4d_branch_2_5x5
I1017 16:33:47.147832 32032 net.cpp:367] relu4d_branch_2_5x5 -> Mixed_4d_branch_2_5x5 (in-place)
I1017 16:33:47.148034 32032 net.cpp:122] Setting up relu4d_branch_2_5x5
I1017 16:33:47.148041 32032 net.cpp:129] Top shape: 4 64 12 14 14 (602112)
I1017 16:33:47.148044 32032 net.cpp:137] Memory required for data: 5776662688
I1017 16:33:47.148048 32032 layer_factory.hpp:77] Creating layer Mixed_4d_branch_3_Maxpool
I1017 16:33:47.148056 32032 net.cpp:84] Creating Layer Mixed_4d_branch_3_Maxpool
I1017 16:33:47.148061 32032 net.cpp:406] Mixed_4d_branch_3_Maxpool <- Mixed_4c_Mixed_4c_0_split_3
I1017 16:33:47.148067 32032 net.cpp:380] Mixed_4d_branch_3_Maxpool -> Mixed_4d_branch_3_Maxpool
I1017 16:33:47.148301 32032 net.cpp:122] Setting up Mixed_4d_branch_3_Maxpool
I1017 16:33:47.148309 32032 net.cpp:129] Top shape: 4 512 12 14 14 (4816896)
I1017 16:33:47.148313 32032 net.cpp:137] Memory required for data: 5795930272
I1017 16:33:47.148315 32032 layer_factory.hpp:77] Creating layer Mixed_4d_branch_3_1x1
I1017 16:33:47.148324 32032 net.cpp:84] Creating Layer Mixed_4d_branch_3_1x1
I1017 16:33:47.148329 32032 net.cpp:406] Mixed_4d_branch_3_1x1 <- Mixed_4d_branch_3_Maxpool
I1017 16:33:47.148335 32032 net.cpp:380] Mixed_4d_branch_3_1x1 -> Mixed_4d_branch_3_1x1
I1017 16:33:47.149386 32032 net.cpp:122] Setting up Mixed_4d_branch_3_1x1
I1017 16:33:47.149397 32032 net.cpp:129] Top shape: 4 64 12 14 14 (602112)
I1017 16:33:47.149400 32032 net.cpp:137] Memory required for data: 5798338720
I1017 16:33:47.149406 32032 layer_factory.hpp:77] Creating layer bn_Mixed_4d_branch_3_1x1
I1017 16:33:47.149415 32032 net.cpp:84] Creating Layer bn_Mixed_4d_branch_3_1x1
I1017 16:33:47.149420 32032 net.cpp:406] bn_Mixed_4d_branch_3_1x1 <- Mixed_4d_branch_3_1x1
I1017 16:33:47.149425 32032 net.cpp:367] bn_Mixed_4d_branch_3_1x1 -> Mixed_4d_branch_3_1x1 (in-place)
I1017 16:33:47.149709 32032 net.cpp:122] Setting up bn_Mixed_4d_branch_3_1x1
I1017 16:33:47.149716 32032 net.cpp:129] Top shape: 4 64 12 14 14 (602112)
I1017 16:33:47.149720 32032 net.cpp:137] Memory required for data: 5800747168
I1017 16:33:47.149727 32032 layer_factory.hpp:77] Creating layer sacle_Mixed_4d_branch_3_1x1
I1017 16:33:47.149735 32032 net.cpp:84] Creating Layer sacle_Mixed_4d_branch_3_1x1
I1017 16:33:47.149739 32032 net.cpp:406] sacle_Mixed_4d_branch_3_1x1 <- Mixed_4d_branch_3_1x1
I1017 16:33:47.149744 32032 net.cpp:367] sacle_Mixed_4d_branch_3_1x1 -> Mixed_4d_branch_3_1x1 (in-place)
I1017 16:33:47.149792 32032 layer_factory.hpp:77] Creating layer sacle_Mixed_4d_branch_3_1x1
I1017 16:33:47.149937 32032 net.cpp:122] Setting up sacle_Mixed_4d_branch_3_1x1
I1017 16:33:47.149958 32032 net.cpp:129] Top shape: 4 64 12 14 14 (602112)
I1017 16:33:47.149961 32032 net.cpp:137] Memory required for data: 5803155616
I1017 16:33:47.149967 32032 layer_factory.hpp:77] Creating layer relu4d_branch_3_1x1
I1017 16:33:47.149972 32032 net.cpp:84] Creating Layer relu4d_branch_3_1x1
I1017 16:33:47.149976 32032 net.cpp:406] relu4d_branch_3_1x1 <- Mixed_4d_branch_3_1x1
I1017 16:33:47.149981 32032 net.cpp:367] relu4d_branch_3_1x1 -> Mixed_4d_branch_3_1x1 (in-place)
I1017 16:33:47.150187 32032 net.cpp:122] Setting up relu4d_branch_3_1x1
I1017 16:33:47.150194 32032 net.cpp:129] Top shape: 4 64 12 14 14 (602112)
I1017 16:33:47.150197 32032 net.cpp:137] Memory required for data: 5805564064
I1017 16:33:47.150202 32032 layer_factory.hpp:77] Creating layer Mixed_4d
I1017 16:33:47.150209 32032 net.cpp:84] Creating Layer Mixed_4d
I1017 16:33:47.150213 32032 net.cpp:406] Mixed_4d <- Mixed_4d_branch_0_1x1
I1017 16:33:47.150216 32032 net.cpp:406] Mixed_4d <- Mixed_4d_branch_1_3x3
I1017 16:33:47.150221 32032 net.cpp:406] Mixed_4d <- Mixed_4d_branch_2_5x5
I1017 16:33:47.150225 32032 net.cpp:406] Mixed_4d <- Mixed_4d_branch_3_1x1
I1017 16:33:47.150231 32032 net.cpp:380] Mixed_4d -> Mixed_4d
I1017 16:33:47.150264 32032 net.cpp:122] Setting up Mixed_4d
I1017 16:33:47.150285 32032 net.cpp:129] Top shape: 4 512 12 14 14 (4816896)
I1017 16:33:47.150287 32032 net.cpp:137] Memory required for data: 5824831648
I1017 16:33:47.150290 32032 layer_factory.hpp:77] Creating layer Mixed_4d_Mixed_4d_0_split
I1017 16:33:47.150296 32032 net.cpp:84] Creating Layer Mixed_4d_Mixed_4d_0_split
I1017 16:33:47.150300 32032 net.cpp:406] Mixed_4d_Mixed_4d_0_split <- Mixed_4d
I1017 16:33:47.150308 32032 net.cpp:380] Mixed_4d_Mixed_4d_0_split -> Mixed_4d_Mixed_4d_0_split_0
I1017 16:33:47.150315 32032 net.cpp:380] Mixed_4d_Mixed_4d_0_split -> Mixed_4d_Mixed_4d_0_split_1
I1017 16:33:47.150321 32032 net.cpp:380] Mixed_4d_Mixed_4d_0_split -> Mixed_4d_Mixed_4d_0_split_2
I1017 16:33:47.150327 32032 net.cpp:380] Mixed_4d_Mixed_4d_0_split -> Mixed_4d_Mixed_4d_0_split_3
I1017 16:33:47.150403 32032 net.cpp:122] Setting up Mixed_4d_Mixed_4d_0_split
I1017 16:33:47.150408 32032 net.cpp:129] Top shape: 4 512 12 14 14 (4816896)
I1017 16:33:47.150411 32032 net.cpp:129] Top shape: 4 512 12 14 14 (4816896)
I1017 16:33:47.150416 32032 net.cpp:129] Top shape: 4 512 12 14 14 (4816896)
I1017 16:33:47.150419 32032 net.cpp:129] Top shape: 4 512 12 14 14 (4816896)
I1017 16:33:47.150421 32032 net.cpp:137] Memory required for data: 5901901984
I1017 16:33:47.150424 32032 layer_factory.hpp:77] Creating layer Mixed_4e_branch_0_1x1
I1017 16:33:47.150435 32032 net.cpp:84] Creating Layer Mixed_4e_branch_0_1x1
I1017 16:33:47.150439 32032 net.cpp:406] Mixed_4e_branch_0_1x1 <- Mixed_4d_Mixed_4d_0_split_0
I1017 16:33:47.150444 32032 net.cpp:380] Mixed_4e_branch_0_1x1 -> Mixed_4e_branch_0_1x1
I1017 16:33:47.151613 32032 net.cpp:122] Setting up Mixed_4e_branch_0_1x1
I1017 16:33:47.151624 32032 net.cpp:129] Top shape: 4 112 12 14 14 (1053696)
I1017 16:33:47.151628 32032 net.cpp:137] Memory required for data: 5906116768
I1017 16:33:47.151633 32032 layer_factory.hpp:77] Creating layer bn_Mixed_4e_branch_0_1x1
I1017 16:33:47.151640 32032 net.cpp:84] Creating Layer bn_Mixed_4e_branch_0_1x1
I1017 16:33:47.151644 32032 net.cpp:406] bn_Mixed_4e_branch_0_1x1 <- Mixed_4e_branch_0_1x1
I1017 16:33:47.151651 32032 net.cpp:367] bn_Mixed_4e_branch_0_1x1 -> Mixed_4e_branch_0_1x1 (in-place)
I1017 16:33:47.151912 32032 net.cpp:122] Setting up bn_Mixed_4e_branch_0_1x1
I1017 16:33:47.151918 32032 net.cpp:129] Top shape: 4 112 12 14 14 (1053696)
I1017 16:33:47.151921 32032 net.cpp:137] Memory required for data: 5910331552
I1017 16:33:47.151928 32032 layer_factory.hpp:77] Creating layer sacle_Mixed_4e_branch_0_1x1
I1017 16:33:47.151938 32032 net.cpp:84] Creating Layer sacle_Mixed_4e_branch_0_1x1
I1017 16:33:47.151942 32032 net.cpp:406] sacle_Mixed_4e_branch_0_1x1 <- Mixed_4e_branch_0_1x1
I1017 16:33:47.151947 32032 net.cpp:367] sacle_Mixed_4e_branch_0_1x1 -> Mixed_4e_branch_0_1x1 (in-place)
I1017 16:33:47.151993 32032 layer_factory.hpp:77] Creating layer sacle_Mixed_4e_branch_0_1x1
I1017 16:33:47.152133 32032 net.cpp:122] Setting up sacle_Mixed_4e_branch_0_1x1
I1017 16:33:47.152138 32032 net.cpp:129] Top shape: 4 112 12 14 14 (1053696)
I1017 16:33:47.152143 32032 net.cpp:137] Memory required for data: 5914546336
I1017 16:33:47.152148 32032 layer_factory.hpp:77] Creating layer relu4e_branch_0_1x1
I1017 16:33:47.152153 32032 net.cpp:84] Creating Layer relu4e_branch_0_1x1
I1017 16:33:47.152158 32032 net.cpp:406] relu4e_branch_0_1x1 <- Mixed_4e_branch_0_1x1
I1017 16:33:47.152163 32032 net.cpp:367] relu4e_branch_0_1x1 -> Mixed_4e_branch_0_1x1 (in-place)
I1017 16:33:47.152370 32032 net.cpp:122] Setting up relu4e_branch_0_1x1
I1017 16:33:47.152379 32032 net.cpp:129] Top shape: 4 112 12 14 14 (1053696)
I1017 16:33:47.152381 32032 net.cpp:137] Memory required for data: 5918761120
I1017 16:33:47.152386 32032 layer_factory.hpp:77] Creating layer Mixed_4e_branch_1_1x1
I1017 16:33:47.152395 32032 net.cpp:84] Creating Layer Mixed_4e_branch_1_1x1
I1017 16:33:47.152398 32032 net.cpp:406] Mixed_4e_branch_1_1x1 <- Mixed_4d_Mixed_4d_0_split_1
I1017 16:33:47.152405 32032 net.cpp:380] Mixed_4e_branch_1_1x1 -> Mixed_4e_branch_1_1x1
I1017 16:33:47.153889 32032 net.cpp:122] Setting up Mixed_4e_branch_1_1x1
I1017 16:33:47.153924 32032 net.cpp:129] Top shape: 4 144 12 14 14 (1354752)
I1017 16:33:47.153928 32032 net.cpp:137] Memory required for data: 5924180128
I1017 16:33:47.153934 32032 layer_factory.hpp:77] Creating layer bn_Mixed_4e_branch_1_1x1
I1017 16:33:47.153942 32032 net.cpp:84] Creating Layer bn_Mixed_4e_branch_1_1x1
I1017 16:33:47.153961 32032 net.cpp:406] bn_Mixed_4e_branch_1_1x1 <- Mixed_4e_branch_1_1x1
I1017 16:33:47.153968 32032 net.cpp:367] bn_Mixed_4e_branch_1_1x1 -> Mixed_4e_branch_1_1x1 (in-place)
I1017 16:33:47.154211 32032 net.cpp:122] Setting up bn_Mixed_4e_branch_1_1x1
I1017 16:33:47.154217 32032 net.cpp:129] Top shape: 4 144 12 14 14 (1354752)
I1017 16:33:47.154220 32032 net.cpp:137] Memory required for data: 5929599136
I1017 16:33:47.154227 32032 layer_factory.hpp:77] Creating layer sacle_Mixed_4e_branch_1_1x1
I1017 16:33:47.154233 32032 net.cpp:84] Creating Layer sacle_Mixed_4e_branch_1_1x1
I1017 16:33:47.154237 32032 net.cpp:406] sacle_Mixed_4e_branch_1_1x1 <- Mixed_4e_branch_1_1x1
I1017 16:33:47.154243 32032 net.cpp:367] sacle_Mixed_4e_branch_1_1x1 -> Mixed_4e_branch_1_1x1 (in-place)
I1017 16:33:47.154286 32032 layer_factory.hpp:77] Creating layer sacle_Mixed_4e_branch_1_1x1
I1017 16:33:47.154429 32032 net.cpp:122] Setting up sacle_Mixed_4e_branch_1_1x1
I1017 16:33:47.154436 32032 net.cpp:129] Top shape: 4 144 12 14 14 (1354752)
I1017 16:33:47.154438 32032 net.cpp:137] Memory required for data: 5935018144
I1017 16:33:47.154445 32032 layer_factory.hpp:77] Creating layer relu4e_branch_1_1x1
I1017 16:33:47.154450 32032 net.cpp:84] Creating Layer relu4e_branch_1_1x1
I1017 16:33:47.154454 32032 net.cpp:406] relu4e_branch_1_1x1 <- Mixed_4e_branch_1_1x1
I1017 16:33:47.154462 32032 net.cpp:367] relu4e_branch_1_1x1 -> Mixed_4e_branch_1_1x1 (in-place)
I1017 16:33:47.154831 32032 net.cpp:122] Setting up relu4e_branch_1_1x1
I1017 16:33:47.154841 32032 net.cpp:129] Top shape: 4 144 12 14 14 (1354752)
I1017 16:33:47.154845 32032 net.cpp:137] Memory required for data: 5940437152
I1017 16:33:47.154848 32032 layer_factory.hpp:77] Creating layer Mixed_4e_branch_1_3x3_dw
I1017 16:33:47.154858 32032 net.cpp:84] Creating Layer Mixed_4e_branch_1_3x3_dw
I1017 16:33:47.154862 32032 net.cpp:406] Mixed_4e_branch_1_3x3_dw <- Mixed_4e_branch_1_1x1
I1017 16:33:47.154870 32032 net.cpp:380] Mixed_4e_branch_1_3x3_dw -> Mixed_4e_branch_1_3x3_dw
I1017 16:33:47.155565 32032 net.cpp:122] Setting up Mixed_4e_branch_1_3x3_dw
I1017 16:33:47.155575 32032 net.cpp:129] Top shape: 4 144 12 14 14 (1354752)
I1017 16:33:47.155577 32032 net.cpp:137] Memory required for data: 5945856160
I1017 16:33:47.155583 32032 layer_factory.hpp:77] Creating layer relu4e_branch_1_3x3_dw
I1017 16:33:47.155591 32032 net.cpp:84] Creating Layer relu4e_branch_1_3x3_dw
I1017 16:33:47.155594 32032 net.cpp:406] relu4e_branch_1_3x3_dw <- Mixed_4e_branch_1_3x3_dw
I1017 16:33:47.155599 32032 net.cpp:367] relu4e_branch_1_3x3_dw -> Mixed_4e_branch_1_3x3_dw (in-place)
I1017 16:33:47.155995 32032 net.cpp:122] Setting up relu4e_branch_1_3x3_dw
I1017 16:33:47.156005 32032 net.cpp:129] Top shape: 4 144 12 14 14 (1354752)
I1017 16:33:47.156008 32032 net.cpp:137] Memory required for data: 5951275168
I1017 16:33:47.156013 32032 layer_factory.hpp:77] Creating layer Mixed_4e_branch_1_3x3
I1017 16:33:47.156023 32032 net.cpp:84] Creating Layer Mixed_4e_branch_1_3x3
I1017 16:33:47.156028 32032 net.cpp:406] Mixed_4e_branch_1_3x3 <- Mixed_4e_branch_1_3x3_dw
I1017 16:33:47.156034 32032 net.cpp:380] Mixed_4e_branch_1_3x3 -> Mixed_4e_branch_1_3x3
I1017 16:33:47.157104 32032 net.cpp:122] Setting up Mixed_4e_branch_1_3x3
I1017 16:33:47.157114 32032 net.cpp:129] Top shape: 4 288 12 14 14 (2709504)
I1017 16:33:47.157117 32032 net.cpp:137] Memory required for data: 5962113184
I1017 16:33:47.157122 32032 layer_factory.hpp:77] Creating layer bn_Mixed_4e_branch_1_3x3
I1017 16:33:47.157131 32032 net.cpp:84] Creating Layer bn_Mixed_4e_branch_1_3x3
I1017 16:33:47.157135 32032 net.cpp:406] bn_Mixed_4e_branch_1_3x3 <- Mixed_4e_branch_1_3x3
I1017 16:33:47.157140 32032 net.cpp:367] bn_Mixed_4e_branch_1_3x3 -> Mixed_4e_branch_1_3x3 (in-place)
I1017 16:33:47.157413 32032 net.cpp:122] Setting up bn_Mixed_4e_branch_1_3x3
I1017 16:33:47.157419 32032 net.cpp:129] Top shape: 4 288 12 14 14 (2709504)
I1017 16:33:47.157423 32032 net.cpp:137] Memory required for data: 5972951200
I1017 16:33:47.157430 32032 layer_factory.hpp:77] Creating layer sacle_Mixed_4e_branch_1_3x3
I1017 16:33:47.157436 32032 net.cpp:84] Creating Layer sacle_Mixed_4e_branch_1_3x3
I1017 16:33:47.157439 32032 net.cpp:406] sacle_Mixed_4e_branch_1_3x3 <- Mixed_4e_branch_1_3x3
I1017 16:33:47.157445 32032 net.cpp:367] sacle_Mixed_4e_branch_1_3x3 -> Mixed_4e_branch_1_3x3 (in-place)
I1017 16:33:47.157496 32032 layer_factory.hpp:77] Creating layer sacle_Mixed_4e_branch_1_3x3
I1017 16:33:47.157682 32032 net.cpp:122] Setting up sacle_Mixed_4e_branch_1_3x3
I1017 16:33:47.157688 32032 net.cpp:129] Top shape: 4 288 12 14 14 (2709504)
I1017 16:33:47.157692 32032 net.cpp:137] Memory required for data: 5983789216
I1017 16:33:47.157699 32032 layer_factory.hpp:77] Creating layer relu4e_branch_1_3x3
I1017 16:33:47.157706 32032 net.cpp:84] Creating Layer relu4e_branch_1_3x3
I1017 16:33:47.157708 32032 net.cpp:406] relu4e_branch_1_3x3 <- Mixed_4e_branch_1_3x3
I1017 16:33:47.157713 32032 net.cpp:367] relu4e_branch_1_3x3 -> Mixed_4e_branch_1_3x3 (in-place)
I1017 16:33:47.157935 32032 net.cpp:122] Setting up relu4e_branch_1_3x3
I1017 16:33:47.157943 32032 net.cpp:129] Top shape: 4 288 12 14 14 (2709504)
I1017 16:33:47.157945 32032 net.cpp:137] Memory required for data: 5994627232
I1017 16:33:47.157949 32032 layer_factory.hpp:77] Creating layer Mixed_4e_branch_2_1x1
I1017 16:33:47.157958 32032 net.cpp:84] Creating Layer Mixed_4e_branch_2_1x1
I1017 16:33:47.157963 32032 net.cpp:406] Mixed_4e_branch_2_1x1 <- Mixed_4d_Mixed_4d_0_split_2
I1017 16:33:47.157984 32032 net.cpp:380] Mixed_4e_branch_2_1x1 -> Mixed_4e_branch_2_1x1
I1017 16:33:47.158928 32032 net.cpp:122] Setting up Mixed_4e_branch_2_1x1
I1017 16:33:47.158938 32032 net.cpp:129] Top shape: 4 32 12 14 14 (301056)
I1017 16:33:47.158941 32032 net.cpp:137] Memory required for data: 5995831456
I1017 16:33:47.158946 32032 layer_factory.hpp:77] Creating layer bn_Mixed_4e_branch_2_1x1
I1017 16:33:47.158957 32032 net.cpp:84] Creating Layer bn_Mixed_4e_branch_2_1x1
I1017 16:33:47.158960 32032 net.cpp:406] bn_Mixed_4e_branch_2_1x1 <- Mixed_4e_branch_2_1x1
I1017 16:33:47.158967 32032 net.cpp:367] bn_Mixed_4e_branch_2_1x1 -> Mixed_4e_branch_2_1x1 (in-place)
I1017 16:33:47.159221 32032 net.cpp:122] Setting up bn_Mixed_4e_branch_2_1x1
I1017 16:33:47.159227 32032 net.cpp:129] Top shape: 4 32 12 14 14 (301056)
I1017 16:33:47.159230 32032 net.cpp:137] Memory required for data: 5997035680
I1017 16:33:47.159237 32032 layer_factory.hpp:77] Creating layer sacle_Mixed_4e_branch_2_1x1
I1017 16:33:47.159243 32032 net.cpp:84] Creating Layer sacle_Mixed_4e_branch_2_1x1
I1017 16:33:47.159247 32032 net.cpp:406] sacle_Mixed_4e_branch_2_1x1 <- Mixed_4e_branch_2_1x1
I1017 16:33:47.159253 32032 net.cpp:367] sacle_Mixed_4e_branch_2_1x1 -> Mixed_4e_branch_2_1x1 (in-place)
I1017 16:33:47.159296 32032 layer_factory.hpp:77] Creating layer sacle_Mixed_4e_branch_2_1x1
I1017 16:33:47.159440 32032 net.cpp:122] Setting up sacle_Mixed_4e_branch_2_1x1
…
I1017 16:33:47.296001 32032 net.cpp:137] Memory required for data: 6443953312
I1017 16:33:47.296030 32032 layer_factory.hpp:77] Creating layer sacle_Mixed_5c_branch_2_1x1
I1017 16:33:47.296070 32032 net.cpp:84] Creating Layer sacle_Mixed_5c_branch_2_1x1
I1017 16:33:47.296077 32032 net.cpp:406] sacle_Mixed_5c_branch_2_1x1 <- Mixed_5c_branch_2_1x1
I1017 16:33:47.296089 32032 net.cpp:367] sacle_Mixed_5c_branch_2_1x1 -> Mixed_5c_branch_2_1x1 (in-place)
I1017 16:33:47.296205 32032 layer_factory.hpp:77] Creating layer sacle_Mixed_5c_branch_2_1x1
I1017 16:33:47.296546 32032 net.cpp:122] Setting up sacle_Mixed_5c_branch_2_1x1
I1017 16:33:47.296557 32032 net.cpp:129] Top shape: 4 48 6 7 7 (56448)
I1017 16:33:47.296566 32032 net.cpp:137] Memory required for data: 6444179104
I1017 16:33:47.296577 32032 layer_factory.hpp:77] Creating layer relu5c_branch_2_1x1
I1017 16:33:47.296588 32032 net.cpp:84] Creating Layer relu5c_branch_2_1x1
I1017 16:33:47.296595 32032 net.cpp:406] relu5c_branch_2_1x1 <- Mixed_5c_branch_2_1x1
I1017 16:33:47.296608 32032 net.cpp:367] relu5c_branch_2_1x1 -> Mixed_5c_branch_2_1x1 (in-place)
I1017 16:33:47.297053 32032 net.cpp:122] Setting up relu5c_branch_2_1x1
I1017 16:33:47.297070 32032 net.cpp:129] Top shape: 4 48 6 7 7 (56448)
I1017 16:33:47.297076 32032 net.cpp:137] Memory required for data: 6444404896
I1017 16:33:47.297085 32032 layer_factory.hpp:77] Creating layer Mixed_5c_branch_2_5x5_dw
I1017 16:33:47.297113 32032 net.cpp:84] Creating Layer Mixed_5c_branch_2_5x5_dw
I1017 16:33:47.297121 32032 net.cpp:406] Mixed_5c_branch_2_5x5_dw <- Mixed_5c_branch_2_1x1
I1017 16:33:47.297148 32032 net.cpp:380] Mixed_5c_branch_2_5x5_dw -> Mixed_5c_branch_2_5x5_dw
I1017 16:33:47.299114 32032 net.cpp:122] Setting up Mixed_5c_branch_2_5x5_dw
I1017 16:33:47.299136 32032 net.cpp:129] Top shape: 4 48 6 7 7 (56448)
I1017 16:33:47.299142 32032 net.cpp:137] Memory required for data: 6444630688
I1017 16:33:47.299152 32032 layer_factory.hpp:77] Creating layer relu5c_branch_2_5x5_dw
I1017 16:33:47.299183 32032 net.cpp:84] Creating Layer relu5c_branch_2_5x5_dw
I1017 16:33:47.299191 32032 net.cpp:406] relu5c_branch_2_5x5_dw <- Mixed_5c_branch_2_5x5_dw
I1017 16:33:47.299203 32032 net.cpp:367] relu5c_branch_2_5x5_dw -> Mixed_5c_branch_2_5x5_dw (in-place)
I1017 16:33:47.299588 32032 net.cpp:122] Setting up relu5c_branch_2_5x5_dw
I1017 16:33:47.299602 32032 net.cpp:129] Top shape: 4 48 6 7 7 (56448)
I1017 16:33:47.299608 32032 net.cpp:137] Memory required for data: 6444856480
I1017 16:33:47.299614 32032 layer_factory.hpp:77] Creating layer Mixed_5c_branch_2_5x5
I1017 16:33:47.299628 32032 net.cpp:84] Creating Layer Mixed_5c_branch_2_5x5
I1017 16:33:47.299636 32032 net.cpp:406] Mixed_5c_branch_2_5x5 <- Mixed_5c_branch_2_5x5_dw
I1017 16:33:47.299656 32032 net.cpp:380] Mixed_5c_branch_2_5x5 -> Mixed_5c_branch_2_5x5
I1017 16:33:47.301383 32032 net.cpp:122] Setting up Mixed_5c_branch_2_5x5
I1017 16:33:47.301403 32032 net.cpp:129] Top shape: 4 128 6 7 7 (150528)
I1017 16:33:47.301409 32032 net.cpp:137] Memory required for data: 6445458592
I1017 16:33:47.301419 32032 layer_factory.hpp:77] Creating layer bn_Mixed_5c_branch_2_5x5
I1017 16:33:47.301435 32032 net.cpp:84] Creating Layer bn_Mixed_5c_branch_2_5x5
I1017 16:33:47.301442 32032 net.cpp:406] bn_Mixed_5c_branch_2_5x5 <- Mixed_5c_branch_2_5x5
I1017 16:33:47.301456 32032 net.cpp:367] bn_Mixed_5c_branch_2_5x5 -> Mixed_5c_branch_2_5x5 (in-place)
I1017 16:33:47.302011 32032 net.cpp:122] Setting up bn_Mixed_5c_branch_2_5x5
I1017 16:33:47.302023 32032 net.cpp:129] Top shape: 4 128 6 7 7 (150528)
I1017 16:33:47.302029 32032 net.cpp:137] Memory required for data: 6446060704
I1017 16:33:47.302044 32032 layer_factory.hpp:77] Creating layer sacle_Mixed_5c_branch_2_5x5
I1017 16:33:47.302059 32032 net.cpp:84] Creating Layer sacle_Mixed_5c_branch_2_5x5
I1017 16:33:47.302065 32032 net.cpp:406] sacle_Mixed_5c_branch_2_5x5 <- Mixed_5c_branch_2_5x5
I1017 16:33:47.302075 32032 net.cpp:367] sacle_Mixed_5c_branch_2_5x5 -> Mixed_5c_branch_2_5x5 (in-place)
I1017 16:33:47.308694 32032 layer_factory.hpp:77] Creating layer sacle_Mixed_5c_branch_2_5x5
I1017 16:33:47.309123 32032 net.cpp:122] Setting up sacle_Mixed_5c_branch_2_5x5
I1017 16:33:47.309141 32032 net.cpp:129] Top shape: 4 128 6 7 7 (150528)
I1017 16:33:47.309147 32032 net.cpp:137] Memory required for data: 6446662816
I1017 16:33:47.309190 32032 layer_factory.hpp:77] Creating layer relu5c_branch_2_5x5
I1017 16:33:47.309206 32032 net.cpp:84] Creating Layer relu5c_branch_2_5x5
I1017 16:33:47.309214 32032 net.cpp:406] relu5c_branch_2_5x5 <- Mixed_5c_branch_2_5x5
I1017 16:33:47.309226 32032 net.cpp:367] relu5c_branch_2_5x5 -> Mixed_5c_branch_2_5x5 (in-place)
I1017 16:33:47.309798 32032 net.cpp:122] Setting up relu5c_branch_2_5x5
I1017 16:33:47.309824 32032 net.cpp:129] Top shape: 4 128 6 7 7 (150528)
I1017 16:33:47.309829 32032 net.cpp:137] Memory required for data: 6447264928
I1017 16:33:47.309835 32032 layer_factory.hpp:77] Creating layer Mixed_5c_branch_3_Maxpool
I1017 16:33:47.309865 32032 net.cpp:84] Creating Layer Mixed_5c_branch_3_Maxpool
I1017 16:33:47.309875 32032 net.cpp:406] Mixed_5c_branch_3_Maxpool <- Mixed_5b_Mixed_5b_0_split_3
I1017 16:33:47.309888 32032 net.cpp:380] Mixed_5c_branch_3_Maxpool -> Mixed_5c_branch_3_Maxpool
I1017 16:33:47.310931 32032 net.cpp:122] Setting up Mixed_5c_branch_3_Maxpool
I1017 16:33:47.310950 32032 net.cpp:129] Top shape: 4 832 6 7 7 (978432)
I1017 16:33:47.310956 32032 net.cpp:137] Memory required for data: 6451178656
I1017 16:33:47.310961 32032 layer_factory.hpp:77] Creating layer Mixed_5c_branch_3_1x1
I1017 16:33:47.310976 32032 net.cpp:84] Creating Layer Mixed_5c_branch_3_1x1
I1017 16:33:47.310984 32032 net.cpp:406] Mixed_5c_branch_3_1x1 <- Mixed_5c_branch_3_Maxpool
I1017 16:33:47.310998 32032 net.cpp:380] Mixed_5c_branch_3_1x1 -> Mixed_5c_branch_3_1x1
I1017 16:33:47.313828 32032 net.cpp:122] Setting up Mixed_5c_branch_3_1x1
I1017 16:33:47.313859 32032 net.cpp:129] Top shape: 4 128 6 7 7 (150528)
I1017 16:33:47.313866 32032 net.cpp:137] Memory required for data: 6451780768
I1017 16:33:47.313892 32032 layer_factory.hpp:77] Creating layer bn_Mixed_5c_branch_3_1x1
I1017 16:33:47.313920 32032 net.cpp:84] Creating Layer bn_Mixed_5c_branch_3_1x1
I1017 16:33:47.313936 32032 net.cpp:406] bn_Mixed_5c_branch_3_1x1 <- Mixed_5c_branch_3_1x1
I1017 16:33:47.313954 32032 net.cpp:367] bn_Mixed_5c_branch_3_1x1 -> Mixed_5c_branch_3_1x1 (in-place)
I1017 16:33:47.314451 32032 net.cpp:122] Setting up bn_Mixed_5c_branch_3_1x1
I1017 16:33:47.314461 32032 net.cpp:129] Top shape: 4 128 6 7 7 (150528)
I1017 16:33:47.314467 32032 net.cpp:137] Memory required for data: 6452382880
I1017 16:33:47.314481 32032 layer_factory.hpp:77] Creating layer sacle_Mixed_5c_branch_3_1x1
I1017 16:33:47.314496 32032 net.cpp:84] Creating Layer sacle_Mixed_5c_branch_3_1x1
I1017 16:33:47.314502 32032 net.cpp:406] sacle_Mixed_5c_branch_3_1x1 <- Mixed_5c_branch_3_1x1
I1017 16:33:47.314512 32032 net.cpp:367] sacle_Mixed_5c_branch_3_1x1 -> Mixed_5c_branch_3_1x1 (in-place)
I1017 16:33:47.314612 32032 layer_factory.hpp:77] Creating layer sacle_Mixed_5c_branch_3_1x1
I1017 16:33:47.314872 32032 net.cpp:122] Setting up sacle_Mixed_5c_branch_3_1x1
I1017 16:33:47.314882 32032 net.cpp:129] Top shape: 4 128 6 7 7 (150528)
I1017 16:33:47.314888 32032 net.cpp:137] Memory required for data: 6452984992
I1017 16:33:47.314899 32032 layer_factory.hpp:77] Creating layer relu5c_branch_3_1x1
I1017 16:33:47.314913 32032 net.cpp:84] Creating Layer relu5c_branch_3_1x1
I1017 16:33:47.314918 32032 net.cpp:406] relu5c_branch_3_1x1 <- Mixed_5c_branch_3_1x1
I1017 16:33:47.314926 32032 net.cpp:367] relu5c_branch_3_1x1 -> Mixed_5c_branch_3_1x1 (in-place)
I1017 16:33:47.315289 32032 net.cpp:122] Setting up relu5c_branch_3_1x1
I1017 16:33:47.315301 32032 net.cpp:129] Top shape: 4 128 6 7 7 (150528)
I1017 16:33:47.315306 32032 net.cpp:137] Memory required for data: 6453587104
I1017 16:33:47.315311 32032 layer_factory.hpp:77] Creating layer Mixed_5c
I1017 16:33:47.315328 32032 net.cpp:84] Creating Layer Mixed_5c
I1017 16:33:47.315336 32032 net.cpp:406] Mixed_5c <- Mixed_5c_branch_0_1x1
I1017 16:33:47.315344 32032 net.cpp:406] Mixed_5c <- Mixed_5c_branch_1_3x3
I1017 16:33:47.315390 32032 net.cpp:406] Mixed_5c <- Mixed_5c_branch_2_5x5
I1017 16:33:47.315399 32032 net.cpp:406] Mixed_5c <- Mixed_5c_branch_3_1x1
I1017 16:33:47.315409 32032 net.cpp:380] Mixed_5c -> Mixed_5c
I1017 16:33:47.315475 32032 net.cpp:122] Setting up Mixed_5c
I1017 16:33:47.315485 32032 net.cpp:129] Top shape: 4 1024 6 7 7 (1204224)
I1017 16:33:47.315490 32032 net.cpp:137] Memory required for data: 6458404000
I1017 16:33:47.315515 32032 layer_factory.hpp:77] Creating layer Avg-Pool
I1017 16:33:47.315527 32032 net.cpp:84] Creating Layer Avg-Pool
I1017 16:33:47.315536 32032 net.cpp:406] Avg-Pool <- Mixed_5c
I1017 16:33:47.315547 32032 net.cpp:380] Avg-Pool -> Avg-Pool
I1017 16:33:47.315964 32032 net.cpp:122] Setting up Avg-Pool
I1017 16:33:47.315979 32032 net.cpp:129] Top shape: 4 1024 6 1 1 (24576)
I1017 16:33:47.315984 32032 net.cpp:137] Memory required for data: 6458502304
I1017 16:33:47.315989 32032 layer_factory.hpp:77] Creating layer permuted_data
I1017 16:33:47.316000 32032 net.cpp:84] Creating Layer permuted_data
I1017 16:33:47.316006 32032 net.cpp:406] permuted_data <- Avg-Pool
I1017 16:33:47.316017 32032 net.cpp:380] permuted_data -> permuted_data
I1017 16:33:47.316267 32032 net.cpp:122] Setting up permuted_data
I1017 16:33:47.316278 32032 net.cpp:129] Top shape: 6 4 1024 1 1 (24576)
I1017 16:33:47.316283 32032 net.cpp:137] Memory required for data: 6458600608
I1017 16:33:47.316298 32032 layer_factory.hpp:77] Creating layer lstmx
I1017 16:33:47.316311 32032 net.cpp:84] Creating Layer lstmx
I1017 16:33:47.316316 32032 net.cpp:406] lstmx <- permuted_data
I1017 16:33:47.316324 32032 net.cpp:406] lstmx <- indicator
I1017 16:33:47.316335 32032 net.cpp:380] lstmx -> lstmx
I1017 16:33:47.316351 32032 recurrent_layer.cpp:20] Initializing recurrent layer: assuming input batch contains 6 timesteps of 4 independent streams.
I1017 16:33:47.317051 32032 net.cpp:51] Initializing net from parameters: 
layer {
  name: "lstmx_"
  type: "Input"
  top: "x"
  top: "cont"
  input_param {
    shape {
      dim: 6
      dim: 4
      dim: 1024
      dim: 1
      dim: 1
    }
    shape {
      dim: 6
      dim: 4
    }
  }
}
layer {
  name: "lstmx_"
  type: "Input"
  top: "c_0"
  top: "h_0"
  input_param {
    shape {
      dim: 1
      dim: 4
      dim: 256
    }
    shape {
      dim: 1
      dim: 4
      dim: 256
    }
  }
}
layer {
  name: "lstmx_cont_slice"
  type: "Slice"
  bottom: "cont"
  top: "cont_1"
  top: "cont_2"
  top: "cont_3"
  top: "cont_4"
  top: "cont_5"
  top: "cont_6"
  slice_param {
    axis: 0
  }
}
layer {
  name: "lstmx_x_transform"
  type: "InnerProduct"
  bottom: "x"
  top: "W_xc_x"
  param {
    name: "W_xc"
  }
  param {
    name: "b_c"
  }
  propagate_down: true
  inner_product_param {
    num_output: 1024
    bias_term: true
    weight_filler {
      type: "xavier"
    }
    bias_filler {
      type: "constant"
      value: 0
    }
    axis: 2
  }
}
layer {
  name: "lstmx_W_xc_x_slice"
  type: "Slice"
  bottom: "W_xc_x"
  top: "W_xc_x_1"
  top: "W_xc_x_2"
  top: "W_xc_x_3"
  top: "W_xc_x_4"
  top: "W_xc_x_5"
  top: "W_xc_x_6"
  slice_param {
    axis: 0
  }
}
layer {
  name: "lstmx_h_conted_0"
  type: "Scale"
  bottom: "h_0"
  bottom: "cont_1"
  top: "h_conted_0"
  scale_param {
    axis: 0
  }
}
layer {
  name: "lstmx_transform_1"
  type: "InnerProduct"
  bottom: "h_conted_0"
  top: "W_hc_h_0"
  param {
    name: "W_hc"
  }
  inner_product_param {
    num_output: 1024
    bias_term: false
    weight_filler {
      type: "xavier"
    }
    axis: 2
  }
}
layer {
  name: "lstmx_gate_input_1"
  type: "Eltwise"
  bottom: "W_hc_h_0"
  bottom: "W_xc_x_1"
  top: "gate_input_1"
  eltwise_param {
    operation: SUM
  }
}
layer {
  name: "lstmx_unit_1"
  type: "LSTMUnit"
  bottom: "c_0"
  bottom: "gate_input_1"
  bottom: "cont_1"
  top: "c_1"
  top: "h_1"
}
layer {
  name: "lstmx_h_conted_1"
  type: "Scale"
  bottom: "h_1"
  bottom: "cont_2"
  top: "h_conted_1"
  scale_param {
    axis: 0
  }
}
layer {
  name: "lstmx_transform_2"
  type: "InnerProduct"
  bottom: "h_conted_1"
  top: "W_hc_h_1"
  param {
    name: "W_hc"
  }
  inner_product_param {
    num_output: 1024
    bias_term: false
    weight_filler {
      type: "xavier"
    }
    axis: 2
  }
}
layer {
  name: "lstmx_gate_input_2"
  type: "Eltwise"
  bottom: "W_hc_h_1"
  bottom: "W_xc_x_2"
  top: "gate_input_2"
  eltwise_param {
    operation: SUM
  }
}
layer {
  name: "lstmx_unit_2"
  type: "LSTMUnit"
  bottom: "c_1"
  bottom: "gate_input_2"
  bottom: "cont_2"
  top: "c_2"
  top: "h_2"
}
layer {
  name: "lstmx_h_conted_2"
  type: "Scale"
  bottom: "h_2"
  bottom: "cont_3"
  top: "h_conted_2"
  scale_param {
    axis: 0
  }
}
layer {
  name: "lstmx_transform_3"
  type: "InnerProduct"
  bottom: "h_conted_2"
  top: "W_hc_h_2"
  param {
    name: "W_hc"
  }
  inner_product_param {
    num_output: 1024
    bias_term: false
    weight_filler {
      type: "xavier"
    }
    axis: 2
  }
}
layer {
  name: "lstmx_gate_input_3"
  type: "Eltwise"
  bottom: "W_hc_h_2"
  bottom: "W_xc_x_3"
  top: "gate_input_3"
  eltwise_param {
    operation: SUM
  }
}
layer {
  name: "lstmx_unit_3"
  type: "LSTMUnit"
  bottom: "c_2"
  bottom: "gate_input_3"
  bottom: "cont_3"
  top: "c_3"
  top: "h_3"
}
layer {
  name: "lstmx_h_conted_3"
  type: "Scale"
  bottom: "h_3"
  bottom: "cont_4"
  top: "h_conted_3"
  scale_param {
    axis: 0
  }
}
layer {
  name: "lstmx_transform_4"
  type: "InnerProduct"
  bottom: "h_conted_3"
  top: "W_hc_h_3"
  param {
    name: "W_hc"
  }
  inner_product_param {
    num_output: 1024
    bias_term: false
    weight_filler {
      type: "xavier"
    }
    axis: 2
  }
}
layer {
  name: "lstmx_gate_input_4"
  type: "Eltwise"
  bottom: "W_hc_h_3"
  bottom: "W_xc_x_4"
  top: "gate_input_4"
  eltwise_param {
    operation: SUM
  }
}
layer {
  name: "lstmx_unit_4"
  type: "LSTMUnit"
  bottom: "c_3"
  bottom: "gate_input_4"
  bottom: "cont_4"
  top: "c_4"
  top: "h_4"
}
layer {
  name: "lstmx_h_conted_4"
  type: "Scale"
  bottom: "h_4"
  bottom: "cont_5"
  top: "h_conted_4"
  scale_param {
    axis: 0
  }
}
layer {
  name: "lstmx_transform_5"
  type: "InnerProduct"
  bottom: "h_conted_4"
  top: "W_hc_h_4"
  param {
    name: "W_hc"
  }
  inner_product_param {
    num_output: 1024
    bias_term: false
    weight_filler {
      type: "xavier"
    }
    axis: 2
  }
}
layer {
  name: "lstmx_gate_input_5"
  type: "Eltwise"
  bottom: "W_hc_h_4"
  bottom: "W_xc_x_5"
  top: "gate_input_5"
  eltwise_param {
    operation: SUM
  }
}
layer {
  name: "lstmx_unit_5"
  type: "LSTMUnit"
  bottom: "c_4"
  bottom: "gate_input_5"
  bottom: "cont_5"
  top: "c_5"
  top: "h_5"
}
layer {
  name: "lstmx_h_conted_5"
  type: "Scale"
  bottom: "h_5"
  bottom: "cont_6"
  top: "h_conted_5"
  scale_param {
    axis: 0
  }
}
layer {
  name: "lstmx_transform_6"
  type: "InnerProduct"
  bottom: "h_conted_5"
  top: "W_hc_h_5"
  param {
    name: "W_hc"
  }
  inner_product_param {
    num_output: 1024
    bias_term: false
    weight_filler {
      type: "xavier"
    }
    axis: 2
  }
}
layer {
  name: "lstmx_gate_input_6"
  type: "Eltwise"
  bottom: "W_hc_h_5"
  bottom: "W_xc_x_6"
  top: "gate_input_6"
  eltwise_param {
    operation: SUM
  }
}
layer {
  name: "lstmx_unit_6"
  type: "LSTMUnit"
  bottom: "c_5"
  bottom: "gate_input_6"
  bottom: "cont_6"
  top: "c_6"
  top: "h_6"
}
layer {
  name: "lstmx_"
  type: "Split"
  bottom: "c_6"
  top: "c_T"
}
layer {
  name: "lstmx_h_concat"
  type: "Concat"
  bottom: "h_1"
  bottom: "h_2"
  bottom: "h_3"
  bottom: "h_4"
  bottom: "h_5"
  bottom: "h_6"
  top: "h"
  concat_param {
    axis: 0
  }
}
layer {
  name: "h_pseudoloss"
  type: "Reduction"
  bottom: "h"
  top: "h_pseudoloss"
  loss_weight: 1
}
I1017 16:33:47.317426 32032 layer_factory.hpp:77] Creating layer lstmx_
I1017 16:33:47.317446 32032 net.cpp:84] Creating Layer lstmx_
I1017 16:33:47.317456 32032 net.cpp:380] lstmx_ -> x
I1017 16:33:47.317471 32032 net.cpp:380] lstmx_ -> cont
I1017 16:33:47.317589 32032 net.cpp:122] Setting up lstmx_
I1017 16:33:47.317601 32032 net.cpp:129] Top shape: 6 4 1024 1 1 (24576)
I1017 16:33:47.317610 32032 net.cpp:129] Top shape: 6 4 (24)
I1017 16:33:47.317631 32032 net.cpp:137] Memory required for data: 98400
I1017 16:33:47.317637 32032 layer_factory.hpp:77] Creating layer lstmx_
I1017 16:33:47.317647 32032 net.cpp:84] Creating Layer lstmx_
I1017 16:33:47.317657 32032 net.cpp:380] lstmx_ -> c_0
I1017 16:33:47.317669 32032 net.cpp:380] lstmx_ -> h_0
I1017 16:33:47.317760 32032 net.cpp:122] Setting up lstmx_
I1017 16:33:47.317770 32032 net.cpp:129] Top shape: 1 4 256 (1024)
I1017 16:33:47.317777 32032 net.cpp:129] Top shape: 1 4 256 (1024)
I1017 16:33:47.317781 32032 net.cpp:137] Memory required for data: 106592
I1017 16:33:47.317787 32032 layer_factory.hpp:77] Creating layer lstmx_cont_slice
I1017 16:33:47.317800 32032 net.cpp:84] Creating Layer lstmx_cont_slice
I1017 16:33:47.317807 32032 net.cpp:406] lstmx_cont_slice <- cont
I1017 16:33:47.317819 32032 net.cpp:380] lstmx_cont_slice -> cont_1
I1017 16:33:47.317832 32032 net.cpp:380] lstmx_cont_slice -> cont_2
I1017 16:33:47.317842 32032 net.cpp:380] lstmx_cont_slice -> cont_3
I1017 16:33:47.317853 32032 net.cpp:380] lstmx_cont_slice -> cont_4
I1017 16:33:47.317862 32032 net.cpp:380] lstmx_cont_slice -> cont_5
I1017 16:33:47.317881 32032 net.cpp:380] lstmx_cont_slice -> cont_6
I1017 16:33:47.318084 32032 net.cpp:122] Setting up lstmx_cont_slice
I1017 16:33:47.318095 32032 net.cpp:129] Top shape: 1 4 (4)
I1017 16:33:47.318101 32032 net.cpp:129] Top shape: 1 4 (4)
I1017 16:33:47.318107 32032 net.cpp:129] Top shape: 1 4 (4)
I1017 16:33:47.318114 32032 net.cpp:129] Top shape: 1 4 (4)
I1017 16:33:47.318121 32032 net.cpp:129] Top shape: 1 4 (4)
I1017 16:33:47.318126 32032 net.cpp:129] Top shape: 1 4 (4)
I1017 16:33:47.318131 32032 net.cpp:137] Memory required for data: 106688
I1017 16:33:47.318136 32032 layer_factory.hpp:77] Creating layer cont_1_lstmx_cont_slice_0_split
I1017 16:33:47.318146 32032 net.cpp:84] Creating Layer cont_1_lstmx_cont_slice_0_split
I1017 16:33:47.318151 32032 net.cpp:406] cont_1_lstmx_cont_slice_0_split <- cont_1
I1017 16:33:47.318162 32032 net.cpp:380] cont_1_lstmx_cont_slice_0_split -> cont_1_lstmx_cont_slice_0_split_0
I1017 16:33:47.318173 32032 net.cpp:380] cont_1_lstmx_cont_slice_0_split -> cont_1_lstmx_cont_slice_0_split_1
I1017 16:33:47.318253 32032 net.cpp:122] Setting up cont_1_lstmx_cont_slice_0_split
I1017 16:33:47.318260 32032 net.cpp:129] Top shape: 1 4 (4)
I1017 16:33:47.318266 32032 net.cpp:129] Top shape: 1 4 (4)
I1017 16:33:47.318270 32032 net.cpp:137] Memory required for data: 106720
I1017 16:33:47.318276 32032 layer_factory.hpp:77] Creating layer cont_2_lstmx_cont_slice_1_split
I1017 16:33:47.318285 32032 net.cpp:84] Creating Layer cont_2_lstmx_cont_slice_1_split
I1017 16:33:47.318291 32032 net.cpp:406] cont_2_lstmx_cont_slice_1_split <- cont_2
I1017 16:33:47.318300 32032 net.cpp:380] cont_2_lstmx_cont_slice_1_split -> cont_2_lstmx_cont_slice_1_split_0
I1017 16:33:47.318311 32032 net.cpp:380] cont_2_lstmx_cont_slice_1_split -> cont_2_lstmx_cont_slice_1_split_1
I1017 16:33:47.318385 32032 net.cpp:122] Setting up cont_2_lstmx_cont_slice_1_split
I1017 16:33:47.318393 32032 net.cpp:129] Top shape: 1 4 (4)
I1017 16:33:47.318399 32032 net.cpp:129] Top shape: 1 4 (4)
I1017 16:33:47.318405 32032 net.cpp:137] Memory required for data: 106752
I1017 16:33:47.318409 32032 layer_factory.hpp:77] Creating layer cont_3_lstmx_cont_slice_2_split
I1017 16:33:47.318418 32032 net.cpp:84] Creating Layer cont_3_lstmx_cont_slice_2_split
I1017 16:33:47.318423 32032 net.cpp:406] cont_3_lstmx_cont_slice_2_split <- cont_3
I1017 16:33:47.318434 32032 net.cpp:380] cont_3_lstmx_cont_slice_2_split -> cont_3_lstmx_cont_slice_2_split_0
I1017 16:33:47.318444 32032 net.cpp:380] cont_3_lstmx_cont_slice_2_split -> cont_3_lstmx_cont_slice_2_split_1
I1017 16:33:47.346577 32032 net.cpp:122] Setting up cont_3_lstmx_cont_slice_2_split
I1017 16:33:47.346604 32032 net.cpp:129] Top shape: 1 4 (4)
I1017 16:33:47.346611 32032 net.cpp:129] Top shape: 1 4 (4)
I1017 16:33:47.346614 32032 net.cpp:137] Memory required for data: 106784
I1017 16:33:47.346621 32032 layer_factory.hpp:77] Creating layer cont_4_lstmx_cont_slice_3_split
I1017 16:33:47.346660 32032 net.cpp:84] Creating Layer cont_4_lstmx_cont_slice_3_split
I1017 16:33:47.346668 32032 net.cpp:406] cont_4_lstmx_cont_slice_3_split <- cont_4
I1017 16:33:47.346680 32032 net.cpp:380] cont_4_lstmx_cont_slice_3_split -> cont_4_lstmx_cont_slice_3_split_0
I1017 16:33:47.346709 32032 net.cpp:380] cont_4_lstmx_cont_slice_3_split -> cont_4_lstmx_cont_slice_3_split_1
I1017 16:33:47.346796 32032 net.cpp:122] Setting up cont_4_lstmx_cont_slice_3_split
I1017 16:33:47.346807 32032 net.cpp:129] Top shape: 1 4 (4)
I1017 16:33:47.346813 32032 net.cpp:129] Top shape: 1 4 (4)
I1017 16:33:47.346818 32032 net.cpp:137] Memory required for data: 106816
I1017 16:33:47.346823 32032 layer_factory.hpp:77] Creating layer cont_5_lstmx_cont_slice_4_split
I1017 16:33:47.346837 32032 net.cpp:84] Creating Layer cont_5_lstmx_cont_slice_4_split
I1017 16:33:47.346841 32032 net.cpp:406] cont_5_lstmx_cont_slice_4_split <- cont_5
I1017 16:33:47.346850 32032 net.cpp:380] cont_5_lstmx_cont_slice_4_split -> cont_5_lstmx_cont_slice_4_split_0
I1017 16:33:47.346860 32032 net.cpp:380] cont_5_lstmx_cont_slice_4_split -> cont_5_lstmx_cont_slice_4_split_1
I1017 16:33:47.346940 32032 net.cpp:122] Setting up cont_5_lstmx_cont_slice_4_split
I1017 16:33:47.346947 32032 net.cpp:129] Top shape: 1 4 (4)
I1017 16:33:47.346953 32032 net.cpp:129] Top shape: 1 4 (4)
I1017 16:33:47.346957 32032 net.cpp:137] Memory required for data: 106848
I1017 16:33:47.346964 32032 layer_factory.hpp:77] Creating layer cont_6_lstmx_cont_slice_5_split
I1017 16:33:47.346976 32032 net.cpp:84] Creating Layer cont_6_lstmx_cont_slice_5_split
I1017 16:33:47.346982 32032 net.cpp:406] cont_6_lstmx_cont_slice_5_split <- cont_6
I1017 16:33:47.346990 32032 net.cpp:380] cont_6_lstmx_cont_slice_5_split -> cont_6_lstmx_cont_slice_5_split_0
I1017 16:33:47.347002 32032 net.cpp:380] cont_6_lstmx_cont_slice_5_split -> cont_6_lstmx_cont_slice_5_split_1
I1017 16:33:47.347076 32032 net.cpp:122] Setting up cont_6_lstmx_cont_slice_5_split
I1017 16:33:47.347084 32032 net.cpp:129] Top shape: 1 4 (4)
I1017 16:33:47.347090 32032 net.cpp:129] Top shape: 1 4 (4)
I1017 16:33:47.347095 32032 net.cpp:137] Memory required for data: 106880
I1017 16:33:47.347100 32032 layer_factory.hpp:77] Creating layer lstmx_x_transform
I1017 16:33:47.347118 32032 net.cpp:84] Creating Layer lstmx_x_transform
I1017 16:33:47.347123 32032 net.cpp:406] lstmx_x_transform <- x
I1017 16:33:47.347136 32032 net.cpp:380] lstmx_x_transform -> W_xc_x
I1017 16:33:47.363577 32032 net.cpp:122] Setting up lstmx_x_transform
I1017 16:33:47.363615 32032 net.cpp:129] Top shape: 6 4 1024 (24576)
I1017 16:33:47.363626 32032 net.cpp:137] Memory required for data: 205184
I1017 16:33:47.363679 32032 layer_factory.hpp:77] Creating layer lstmx_W_xc_x_slice
I1017 16:33:47.363698 32032 net.cpp:84] Creating Layer lstmx_W_xc_x_slice
I1017 16:33:47.363704 32032 net.cpp:406] lstmx_W_xc_x_slice <- W_xc_x
I1017 16:33:47.363716 32032 net.cpp:380] lstmx_W_xc_x_slice -> W_xc_x_1
I1017 16:33:47.363731 32032 net.cpp:380] lstmx_W_xc_x_slice -> W_xc_x_2
I1017 16:33:47.363740 32032 net.cpp:380] lstmx_W_xc_x_slice -> W_xc_x_3
I1017 16:33:47.363749 32032 net.cpp:380] lstmx_W_xc_x_slice -> W_xc_x_4
I1017 16:33:47.363756 32032 net.cpp:380] lstmx_W_xc_x_slice -> W_xc_x_5
I1017 16:33:47.363766 32032 net.cpp:380] lstmx_W_xc_x_slice -> W_xc_x_6
I1017 16:33:47.363999 32032 net.cpp:122] Setting up lstmx_W_xc_x_slice
I1017 16:33:47.364009 32032 net.cpp:129] Top shape: 1 4 1024 (4096)
I1017 16:33:47.364014 32032 net.cpp:129] Top shape: 1 4 1024 (4096)
I1017 16:33:47.364022 32032 net.cpp:129] Top shape: 1 4 1024 (4096)
I1017 16:33:47.364027 32032 net.cpp:129] Top shape: 1 4 1024 (4096)
I1017 16:33:47.364032 32032 net.cpp:129] Top shape: 1 4 1024 (4096)
I1017 16:33:47.364037 32032 net.cpp:129] Top shape: 1 4 1024 (4096)
I1017 16:33:47.364042 32032 net.cpp:137] Memory required for data: 303488
I1017 16:33:47.364046 32032 layer_factory.hpp:77] Creating layer lstmx_h_conted_0
I1017 16:33:47.364056 32032 net.cpp:84] Creating Layer lstmx_h_conted_0
I1017 16:33:47.364100 32032 net.cpp:406] lstmx_h_conted_0 <- h_0
I1017 16:33:47.364109 32032 net.cpp:406] lstmx_h_conted_0 <- cont_1_lstmx_cont_slice_0_split_0
I1017 16:33:47.364121 32032 net.cpp:380] lstmx_h_conted_0 -> h_conted_0
I1017 16:33:47.364255 32032 net.cpp:122] Setting up lstmx_h_conted_0
I1017 16:33:47.364264 32032 net.cpp:129] Top shape: 1 4 256 (1024)
I1017 16:33:47.364269 32032 net.cpp:137] Memory required for data: 307584
I1017 16:33:47.364274 32032 layer_factory.hpp:77] Creating layer lstmx_transform_1
I1017 16:33:47.364285 32032 net.cpp:84] Creating Layer lstmx_transform_1
I1017 16:33:47.364291 32032 net.cpp:406] lstmx_transform_1 <- h_conted_0
I1017 16:33:47.364300 32032 net.cpp:380] lstmx_transform_1 -> W_hc_h_0
I1017 16:33:47.368337 32032 net.cpp:122] Setting up lstmx_transform_1
I1017 16:33:47.368353 32032 net.cpp:129] Top shape: 1 4 1024 (4096)
I1017 16:33:47.368358 32032 net.cpp:137] Memory required for data: 323968
I1017 16:33:47.368379 32032 layer_factory.hpp:77] Creating layer lstmx_gate_input_1
I1017 16:33:47.368392 32032 net.cpp:84] Creating Layer lstmx_gate_input_1
I1017 16:33:47.368398 32032 net.cpp:406] lstmx_gate_input_1 <- W_hc_h_0
I1017 16:33:47.368405 32032 net.cpp:406] lstmx_gate_input_1 <- W_xc_x_1
I1017 16:33:47.368418 32032 net.cpp:380] lstmx_gate_input_1 -> gate_input_1
I1017 16:33:47.368469 32032 net.cpp:122] Setting up lstmx_gate_input_1
I1017 16:33:47.368477 32032 net.cpp:129] Top shape: 1 4 1024 (4096)
I1017 16:33:47.368481 32032 net.cpp:137] Memory required for data: 340352
I1017 16:33:47.368487 32032 layer_factory.hpp:77] Creating layer lstmx_unit_1
I1017 16:33:47.368497 32032 net.cpp:84] Creating Layer lstmx_unit_1
I1017 16:33:47.368502 32032 net.cpp:406] lstmx_unit_1 <- c_0
I1017 16:33:47.368510 32032 net.cpp:406] lstmx_unit_1 <- gate_input_1
I1017 16:33:47.368517 32032 net.cpp:406] lstmx_unit_1 <- cont_1_lstmx_cont_slice_0_split_1
I1017 16:33:47.368525 32032 net.cpp:380] lstmx_unit_1 -> c_1
I1017 16:33:47.368541 32032 net.cpp:380] lstmx_unit_1 -> h_1
I1017 16:33:47.368633 32032 net.cpp:122] Setting up lstmx_unit_1
I1017 16:33:47.368645 32032 net.cpp:129] Top shape: 1 4 256 (1024)
I1017 16:33:47.368651 32032 net.cpp:129] Top shape: 1 4 256 (1024)
I1017 16:33:47.368654 32032 net.cpp:137] Memory required for data: 348544
I1017 16:33:47.368659 32032 layer_factory.hpp:77] Creating layer h_1_lstmx_unit_1_1_split
I1017 16:33:47.368667 32032 net.cpp:84] Creating Layer h_1_lstmx_unit_1_1_split
I1017 16:33:47.368672 32032 net.cpp:406] h_1_lstmx_unit_1_1_split <- h_1
I1017 16:33:47.368680 32032 net.cpp:380] h_1_lstmx_unit_1_1_split -> h_1_lstmx_unit_1_1_split_0
I1017 16:33:47.368690 32032 net.cpp:380] h_1_lstmx_unit_1_1_split -> h_1_lstmx_unit_1_1_split_1
I1017 16:33:47.368757 32032 net.cpp:122] Setting up h_1_lstmx_unit_1_1_split
I1017 16:33:47.368765 32032 net.cpp:129] Top shape: 1 4 256 (1024)
I1017 16:33:47.368770 32032 net.cpp:129] Top shape: 1 4 256 (1024)
I1017 16:33:47.368774 32032 net.cpp:137] Memory required for data: 356736
I1017 16:33:47.368779 32032 layer_factory.hpp:77] Creating layer lstmx_h_conted_1
I1017 16:33:47.368809 32032 net.cpp:84] Creating Layer lstmx_h_conted_1
I1017 16:33:47.368814 32032 net.cpp:406] lstmx_h_conted_1 <- h_1_lstmx_unit_1_1_split_0
I1017 16:33:47.368822 32032 net.cpp:406] lstmx_h_conted_1 <- cont_2_lstmx_cont_slice_1_split_0
I1017 16:33:47.368832 32032 net.cpp:380] lstmx_h_conted_1 -> h_conted_1
I1017 16:33:47.368957 32032 net.cpp:122] Setting up lstmx_h_conted_1
I1017 16:33:47.368965 32032 net.cpp:129] Top shape: 1 4 256 (1024)
I1017 16:33:47.368969 32032 net.cpp:137] Memory required for data: 360832
I1017 16:33:47.369498 32032 layer_factory.hpp:77] Creating layer lstmx_transform_2
I1017 16:33:47.369524 32032 net.cpp:84] Creating Layer lstmx_transform_2
I1017 16:33:47.369530 32032 net.cpp:406] lstmx_transform_2 <- h_conted_1
I1017 16:33:47.369539 32032 net.cpp:380] lstmx_transform_2 -> W_hc_h_1
I1017 16:33:47.372108 32032 net.cpp:122] Setting up lstmx_transform_2
I1017 16:33:47.372118 32032 net.cpp:129] Top shape: 1 4 1024 (4096)
I1017 16:33:47.372153 32032 net.cpp:137] Memory required for data: 377216
I1017 16:33:47.372159 32032 net.cpp:465] Sharing parameters 'W_hc' owned by layer 'lstmx_transform_1', param index 0
I1017 16:33:47.372177 32032 layer_factory.hpp:77] Creating layer lstmx_gate_input_2
I1017 16:33:47.372185 32032 net.cpp:84] Creating Layer lstmx_gate_input_2
I1017 16:33:47.372190 32032 net.cpp:406] lstmx_gate_input_2 <- W_hc_h_1
I1017 16:33:47.372197 32032 net.cpp:406] lstmx_gate_input_2 <- W_xc_x_2
I1017 16:33:47.372206 32032 net.cpp:380] lstmx_gate_input_2 -> gate_input_2
I1017 16:33:47.372265 32032 net.cpp:122] Setting up lstmx_gate_input_2
I1017 16:33:47.372273 32032 net.cpp:129] Top shape: 1 4 1024 (4096)
I1017 16:33:47.372277 32032 net.cpp:137] Memory required for data: 393600
I1017 16:33:47.372283 32032 layer_factory.hpp:77] Creating layer lstmx_unit_2
I1017 16:33:47.372290 32032 net.cpp:84] Creating Layer lstmx_unit_2
I1017 16:33:47.372295 32032 net.cpp:406] lstmx_unit_2 <- c_1
I1017 16:33:47.372301 32032 net.cpp:406] lstmx_unit_2 <- gate_input_2
I1017 16:33:47.372308 32032 net.cpp:406] lstmx_unit_2 <- cont_2_lstmx_cont_slice_1_split_1
I1017 16:33:47.372316 32032 net.cpp:380] lstmx_unit_2 -> c_2
I1017 16:33:47.372325 32032 net.cpp:380] lstmx_unit_2 -> h_2
I1017 16:33:47.372424 32032 net.cpp:122] Setting up lstmx_unit_2
I1017 16:33:47.372433 32032 net.cpp:129] Top shape: 1 4 256 (1024)
I1017 16:33:47.372439 32032 net.cpp:129] Top shape: 1 4 256 (1024)
I1017 16:33:47.372442 32032 net.cpp:137] Memory required for data: 401792
I1017 16:33:47.372467 32032 layer_factory.hpp:77] Creating layer h_2_lstmx_unit_2_1_split
I1017 16:33:47.372475 32032 net.cpp:84] Creating Layer h_2_lstmx_unit_2_1_split
I1017 16:33:47.372480 32032 net.cpp:406] h_2_lstmx_unit_2_1_split <- h_2
I1017 16:33:47.372488 32032 net.cpp:380] h_2_lstmx_unit_2_1_split -> h_2_lstmx_unit_2_1_split_0
I1017 16:33:47.372496 32032 net.cpp:380] h_2_lstmx_unit_2_1_split -> h_2_lstmx_unit_2_1_split_1
I1017 16:33:47.372570 32032 net.cpp:122] Setting up h_2_lstmx_unit_2_1_split
I1017 16:33:47.372576 32032 net.cpp:129] Top shape: 1 4 256 (1024)
I1017 16:33:47.372582 32032 net.cpp:129] Top shape: 1 4 256 (1024)
I1017 16:33:47.372586 32032 net.cpp:137] Memory required for data: 409984
I1017 16:33:47.372591 32032 layer_factory.hpp:77] Creating layer lstmx_h_conted_2
I1017 16:33:47.372598 32032 net.cpp:84] Creating Layer lstmx_h_conted_2
I1017 16:33:47.372603 32032 net.cpp:406] lstmx_h_conted_2 <- h_2_lstmx_unit_2_1_split_0
I1017 16:33:47.372609 32032 net.cpp:406] lstmx_h_conted_2 <- cont_3_lstmx_cont_slice_2_split_0
I1017 16:33:47.372622 32032 net.cpp:380] lstmx_h_conted_2 -> h_conted_2
I1017 16:33:47.372750 32032 net.cpp:122] Setting up lstmx_h_conted_2
I1017 16:33:47.372757 32032 net.cpp:129] Top shape: 1 4 256 (1024)
I1017 16:33:47.372761 32032 net.cpp:137] Memory required for data: 414080
I1017 16:33:47.372766 32032 layer_factory.hpp:77] Creating layer lstmx_transform_3
I1017 16:33:47.372776 32032 net.cpp:84] Creating Layer lstmx_transform_3
I1017 16:33:47.372781 32032 net.cpp:406] lstmx_transform_3 <- h_conted_2
I1017 16:33:47.372788 32032 net.cpp:380] lstmx_transform_3 -> W_hc_h_2
I1017 16:33:47.376519 32032 net.cpp:122] Setting up lstmx_transform_3
I1017 16:33:47.376534 32032 net.cpp:129] Top shape: 1 4 1024 (4096)
I1017 16:33:47.376538 32032 net.cpp:137] Memory required for data: 430464
I1017 16:33:47.376546 32032 net.cpp:465] Sharing parameters 'W_hc' owned by layer 'lstmx_transform_1', param index 0
I1017 16:33:47.376554 32032 layer_factory.hpp:77] Creating layer lstmx_gate_input_3
I1017 16:33:47.376574 32032 net.cpp:84] Creating Layer lstmx_gate_input_3
I1017 16:33:47.376579 32032 net.cpp:406] lstmx_gate_input_3 <- W_hc_h_2
I1017 16:33:47.376586 32032 net.cpp:406] lstmx_gate_input_3 <- W_xc_x_3
I1017 16:33:47.376595 32032 net.cpp:380] lstmx_gate_input_3 -> gate_input_3
I1017 16:33:47.376641 32032 net.cpp:122] Setting up lstmx_gate_input_3
I1017 16:33:47.376648 32032 net.cpp:129] Top shape: 1 4 1024 (4096)
I1017 16:33:47.376652 32032 net.cpp:137] Memory required for data: 446848
I1017 16:33:47.376675 32032 layer_factory.hpp:77] Creating layer lstmx_unit_3
I1017 16:33:47.376685 32032 net.cpp:84] Creating Layer lstmx_unit_3
I1017 16:33:47.376690 32032 net.cpp:406] lstmx_unit_3 <- c_2
I1017 16:33:47.376704 32032 net.cpp:406] lstmx_unit_3 <- gate_input_3
I1017 16:33:47.376713 32032 net.cpp:406] lstmx_unit_3 <- cont_3_lstmx_cont_slice_2_split_1
I1017 16:33:47.376729 32032 net.cpp:380] lstmx_unit_3 -> c_3
I1017 16:33:47.376739 32032 net.cpp:380] lstmx_unit_3 -> h_3
I1017 16:33:47.376830 32032 net.cpp:122] Setting up lstmx_unit_3
I1017 16:33:47.376839 32032 net.cpp:129] Top shape: 1 4 256 (1024)
I1017 16:33:47.376844 32032 net.cpp:129] Top shape: 1 4 256 (1024)
I1017 16:33:47.376848 32032 net.cpp:137] Memory required for data: 455040
I1017 16:33:47.376852 32032 layer_factory.hpp:77] Creating layer h_3_lstmx_unit_3_1_split
I1017 16:33:47.376859 32032 net.cpp:84] Creating Layer h_3_lstmx_unit_3_1_split
I1017 16:33:47.376864 32032 net.cpp:406] h_3_lstmx_unit_3_1_split <- h_3
I1017 16:33:47.376873 32032 net.cpp:380] h_3_lstmx_unit_3_1_split -> h_3_lstmx_unit_3_1_split_0
I1017 16:33:47.376883 32032 net.cpp:380] h_3_lstmx_unit_3_1_split -> h_3_lstmx_unit_3_1_split_1
I1017 16:33:47.376956 32032 net.cpp:122] Setting up h_3_lstmx_unit_3_1_split
I1017 16:33:47.376963 32032 net.cpp:129] Top shape: 1 4 256 (1024)
I1017 16:33:47.376968 32032 net.cpp:129] Top shape: 1 4 256 (1024)
I1017 16:33:47.376972 32032 net.cpp:137] Memory required for data: 463232
I1017 16:33:47.376977 32032 layer_factory.hpp:77] Creating layer lstmx_h_conted_3
I1017 16:33:47.376984 32032 net.cpp:84] Creating Layer lstmx_h_conted_3
I1017 16:33:47.376989 32032 net.cpp:406] lstmx_h_conted_3 <- h_3_lstmx_unit_3_1_split_0
I1017 16:33:47.376996 32032 net.cpp:406] lstmx_h_conted_3 <- cont_4_lstmx_cont_slice_3_split_0
I1017 16:33:47.377004 32032 net.cpp:380] lstmx_h_conted_3 -> h_conted_3
I1017 16:33:47.377120 32032 net.cpp:122] Setting up lstmx_h_conted_3
I1017 16:33:47.377126 32032 net.cpp:129] Top shape: 1 4 256 (1024)
I1017 16:33:47.377130 32032 net.cpp:137] Memory required for data: 467328
I1017 16:33:47.377143 32032 layer_factory.hpp:77] Creating layer lstmx_transform_4
I1017 16:33:47.377151 32032 net.cpp:84] Creating Layer lstmx_transform_4
I1017 16:33:47.377156 32032 net.cpp:406] lstmx_transform_4 <- h_conted_3
I1017 16:33:47.377168 32032 net.cpp:380] lstmx_transform_4 -> W_hc_h_3
I1017 16:33:47.379565 32032 net.cpp:122] Setting up lstmx_transform_4
I1017 16:33:47.379573 32032 net.cpp:129] Top shape: 1 4 1024 (4096)
I1017 16:33:47.379577 32032 net.cpp:137] Memory required for data: 483712
I1017 16:33:47.379582 32032 net.cpp:465] Sharing parameters 'W_hc' owned by layer 'lstmx_transform_1', param index 0
I1017 16:33:47.379587 32032 layer_factory.hpp:77] Creating layer lstmx_gate_input_4
I1017 16:33:47.379598 32032 net.cpp:84] Creating Layer lstmx_gate_input_4
I1017 16:33:47.379603 32032 net.cpp:406] lstmx_gate_input_4 <- W_hc_h_3
I1017 16:33:47.379608 32032 net.cpp:406] lstmx_gate_input_4 <- W_xc_x_4
I1017 16:33:47.379616 32032 net.cpp:380] lstmx_gate_input_4 -> gate_input_4
I1017 16:33:47.379657 32032 net.cpp:122] Setting up lstmx_gate_input_4
I1017 16:33:47.379664 32032 net.cpp:129] Top shape: 1 4 1024 (4096)
I1017 16:33:47.379667 32032 net.cpp:137] Memory required for data: 500096
I1017 16:33:47.379673 32032 layer_factory.hpp:77] Creating layer lstmx_unit_4
I1017 16:33:47.379679 32032 net.cpp:84] Creating Layer lstmx_unit_4
I1017 16:33:47.379683 32032 net.cpp:406] lstmx_unit_4 <- c_3
I1017 16:33:47.379689 32032 net.cpp:406] lstmx_unit_4 <- gate_input_4
I1017 16:33:47.379696 32032 net.cpp:406] lstmx_unit_4 <- cont_4_lstmx_cont_slice_3_split_1
I1017 16:33:47.379706 32032 net.cpp:380] lstmx_unit_4 -> c_4
I1017 16:33:47.379714 32032 net.cpp:380] lstmx_unit_4 -> h_4
I1017 16:33:47.379801 32032 net.cpp:122] Setting up lstmx_unit_4
I1017 16:33:47.379808 32032 net.cpp:129] Top shape: 1 4 256 (1024)
I1017 16:33:47.379813 32032 net.cpp:129] Top shape: 1 4 256 (1024)
I1017 16:33:47.379817 32032 net.cpp:137] Memory required for data: 508288
I1017 16:33:47.379848 32032 layer_factory.hpp:77] Creating layer h_4_lstmx_unit_4_1_split
I1017 16:33:47.379855 32032 net.cpp:84] Creating Layer h_4_lstmx_unit_4_1_split
I1017 16:33:47.379860 32032 net.cpp:406] h_4_lstmx_unit_4_1_split <- h_4
I1017 16:33:47.379869 32032 net.cpp:380] h_4_lstmx_unit_4_1_split -> h_4_lstmx_unit_4_1_split_0
I1017 16:33:47.379878 32032 net.cpp:380] h_4_lstmx_unit_4_1_split -> h_4_lstmx_unit_4_1_split_1
I1017 16:33:47.379942 32032 net.cpp:122] Setting up h_4_lstmx_unit_4_1_split
I1017 16:33:47.379950 32032 net.cpp:129] Top shape: 1 4 256 (1024)
I1017 16:33:47.379954 32032 net.cpp:129] Top shape: 1 4 256 (1024)
I1017 16:33:47.379958 32032 net.cpp:137] Memory required for data: 516480
I1017 16:33:47.379963 32032 layer_factory.hpp:77] Creating layer lstmx_h_conted_4
I1017 16:33:47.379972 32032 net.cpp:84] Creating Layer lstmx_h_conted_4
I1017 16:33:47.379977 32032 net.cpp:406] lstmx_h_conted_4 <- h_4_lstmx_unit_4_1_split_0
I1017 16:33:47.379983 32032 net.cpp:406] lstmx_h_conted_4 <- cont_5_lstmx_cont_slice_4_split_0
I1017 16:33:47.379994 32032 net.cpp:380] lstmx_h_conted_4 -> h_conted_4
I1017 16:33:47.380107 32032 net.cpp:122] Setting up lstmx_h_conted_4
I1017 16:33:47.380115 32032 net.cpp:129] Top shape: 1 4 256 (1024)
I1017 16:33:47.380118 32032 net.cpp:137] Memory required for data: 520576
I1017 16:33:47.380125 32032 layer_factory.hpp:77] Creating layer lstmx_transform_5
I1017 16:33:47.380156 32032 net.cpp:84] Creating Layer lstmx_transform_5
I1017 16:33:47.380162 32032 net.cpp:406] lstmx_transform_5 <- h_conted_4
I1017 16:33:47.380168 32032 net.cpp:380] lstmx_transform_5 -> W_hc_h_4
I1017 16:33:47.383795 32032 net.cpp:122] Setting up lstmx_transform_5
I1017 16:33:47.383810 32032 net.cpp:129] Top shape: 1 4 1024 (4096)
I1017 16:33:47.383814 32032 net.cpp:137] Memory required for data: 536960
I1017 16:33:47.383821 32032 net.cpp:465] Sharing parameters 'W_hc' owned by layer 'lstmx_transform_1', param index 0
I1017 16:33:47.383826 32032 layer_factory.hpp:77] Creating layer lstmx_gate_input_5
I1017 16:33:47.383846 32032 net.cpp:84] Creating Layer lstmx_gate_input_5
I1017 16:33:47.383852 32032 net.cpp:406] lstmx_gate_input_5 <- W_hc_h_4
I1017 16:33:47.383858 32032 net.cpp:406] lstmx_gate_input_5 <- W_xc_x_5
I1017 16:33:47.383867 32032 net.cpp:380] lstmx_gate_input_5 -> gate_input_5
I1017 16:33:47.383914 32032 net.cpp:122] Setting up lstmx_gate_input_5
I1017 16:33:47.383922 32032 net.cpp:129] Top shape: 1 4 1024 (4096)
I1017 16:33:47.383925 32032 net.cpp:137] Memory required for data: 553344
I1017 16:33:47.383931 32032 layer_factory.hpp:77] Creating layer lstmx_unit_5
I1017 16:33:47.383939 32032 net.cpp:84] Creating Layer lstmx_unit_5
I1017 16:33:47.383944 32032 net.cpp:406] lstmx_unit_5 <- c_4
I1017 16:33:47.383949 32032 net.cpp:406] lstmx_unit_5 <- gate_input_5
I1017 16:33:47.383956 32032 net.cpp:406] lstmx_unit_5 <- cont_5_lstmx_cont_slice_4_split_1
I1017 16:33:47.383965 32032 net.cpp:380] lstmx_unit_5 -> c_5
I1017 16:33:47.383975 32032 net.cpp:380] lstmx_unit_5 -> h_5
I1017 16:33:47.384063 32032 net.cpp:122] Setting up lstmx_unit_5
I1017 16:33:47.384071 32032 net.cpp:129] Top shape: 1 4 256 (1024)
I1017 16:33:47.384076 32032 net.cpp:129] Top shape: 1 4 256 (1024)
I1017 16:33:47.384080 32032 net.cpp:137] Memory required for data: 561536
I1017 16:33:47.384084 32032 layer_factory.hpp:77] Creating layer h_5_lstmx_unit_5_1_split
I1017 16:33:47.384091 32032 net.cpp:84] Creating Layer h_5_lstmx_unit_5_1_split
I1017 16:33:47.384096 32032 net.cpp:406] h_5_lstmx_unit_5_1_split <- h_5
I1017 16:33:47.384111 32032 net.cpp:380] h_5_lstmx_unit_5_1_split -> h_5_lstmx_unit_5_1_split_0
I1017 16:33:47.384121 32032 net.cpp:380] h_5_lstmx_unit_5_1_split -> h_5_lstmx_unit_5_1_split_1
I1017 16:33:47.384186 32032 net.cpp:122] Setting up h_5_lstmx_unit_5_1_split
I1017 16:33:47.384193 32032 net.cpp:129] Top shape: 1 4 256 (1024)
I1017 16:33:47.384198 32032 net.cpp:129] Top shape: 1 4 256 (1024)
I1017 16:33:47.384202 32032 net.cpp:137] Memory required for data: 569728
I1017 16:33:47.384207 32032 layer_factory.hpp:77] Creating layer lstmx_h_conted_5
I1017 16:33:47.384234 32032 net.cpp:84] Creating Layer lstmx_h_conted_5
I1017 16:33:47.384239 32032 net.cpp:406] lstmx_h_conted_5 <- h_5_lstmx_unit_5_1_split_0
I1017 16:33:47.384246 32032 net.cpp:406] lstmx_h_conted_5 <- cont_6_lstmx_cont_slice_5_split_0
I1017 16:33:47.384255 32032 net.cpp:380] lstmx_h_conted_5 -> h_conted_5
I1017 16:33:47.384377 32032 net.cpp:122] Setting up lstmx_h_conted_5
I1017 16:33:47.384387 32032 net.cpp:129] Top shape: 1 4 256 (1024)
I1017 16:33:47.384392 32032 net.cpp:137] Memory required for data: 573824
I1017 16:33:47.384405 32032 layer_factory.hpp:77] Creating layer lstmx_transform_6
I1017 16:33:47.384414 32032 net.cpp:84] Creating Layer lstmx_transform_6
I1017 16:33:47.384418 32032 net.cpp:406] lstmx_transform_6 <- h_conted_5
I1017 16:33:47.384426 32032 net.cpp:380] lstmx_transform_6 -> W_hc_h_5
I1017 16:33:47.386801 32032 net.cpp:122] Setting up lstmx_transform_6
I1017 16:33:47.386811 32032 net.cpp:129] Top shape: 1 4 1024 (4096)
I1017 16:33:47.386814 32032 net.cpp:137] Memory required for data: 590208
I1017 16:33:47.386819 32032 net.cpp:465] Sharing parameters 'W_hc' owned by layer 'lstmx_transform_1', param index 0
I1017 16:33:47.386826 32032 layer_factory.hpp:77] Creating layer lstmx_gate_input_6
I1017 16:33:47.386832 32032 net.cpp:84] Creating Layer lstmx_gate_input_6
I1017 16:33:47.386837 32032 net.cpp:406] lstmx_gate_input_6 <- W_hc_h_5
I1017 16:33:47.386842 32032 net.cpp:406] lstmx_gate_input_6 <- W_xc_x_6
I1017 16:33:47.386850 32032 net.cpp:380] lstmx_gate_input_6 -> gate_input_6
I1017 16:33:47.386891 32032 net.cpp:122] Setting up lstmx_gate_input_6
I1017 16:33:47.386898 32032 net.cpp:129] Top shape: 1 4 1024 (4096)
I1017 16:33:47.386901 32032 net.cpp:137] Memory required for data: 606592
I1017 16:33:47.386906 32032 layer_factory.hpp:77] Creating layer lstmx_unit_6
I1017 16:33:47.386912 32032 net.cpp:84] Creating Layer lstmx_unit_6
I1017 16:33:47.386917 32032 net.cpp:406] lstmx_unit_6 <- c_5
I1017 16:33:47.386922 32032 net.cpp:406] lstmx_unit_6 <- gate_input_6
I1017 16:33:47.386929 32032 net.cpp:406] lstmx_unit_6 <- cont_6_lstmx_cont_slice_5_split_1
I1017 16:33:47.386936 32032 net.cpp:380] lstmx_unit_6 -> c_6
I1017 16:33:47.386945 32032 net.cpp:380] lstmx_unit_6 -> h_6
I1017 16:33:47.387027 32032 net.cpp:122] Setting up lstmx_unit_6
I1017 16:33:47.387035 32032 net.cpp:129] Top shape: 1 4 256 (1024)
I1017 16:33:47.387040 32032 net.cpp:129] Top shape: 1 4 256 (1024)
I1017 16:33:47.387043 32032 net.cpp:137] Memory required for data: 614784
I1017 16:33:47.387048 32032 layer_factory.hpp:77] Creating layer lstmx_
I1017 16:33:47.387054 32032 net.cpp:84] Creating Layer lstmx_
I1017 16:33:47.387058 32032 net.cpp:406] lstmx_ <- c_6
I1017 16:33:47.387064 32032 net.cpp:380] lstmx_ -> c_T
I1017 16:33:47.387109 32032 net.cpp:122] Setting up lstmx_
I1017 16:33:47.387126 32032 net.cpp:129] Top shape: 1 4 256 (1024)
I1017 16:33:47.387130 32032 net.cpp:137] Memory required for data: 618880
I1017 16:33:47.387135 32032 layer_factory.hpp:77] Creating layer lstmx_h_concat
I1017 16:33:47.387145 32032 net.cpp:84] Creating Layer lstmx_h_concat
I1017 16:33:47.387151 32032 net.cpp:406] lstmx_h_concat <- h_1_lstmx_unit_1_1_split_1
I1017 16:33:47.387156 32032 net.cpp:406] lstmx_h_concat <- h_2_lstmx_unit_2_1_split_1
I1017 16:33:47.387161 32032 net.cpp:406] lstmx_h_concat <- h_3_lstmx_unit_3_1_split_1
I1017 16:33:47.387166 32032 net.cpp:406] lstmx_h_concat <- h_4_lstmx_unit_4_1_split_1
I1017 16:33:47.405355 32032 net.cpp:406] lstmx_h_concat <- h_5_lstmx_unit_5_1_split_1
I1017 16:33:47.405382 32032 net.cpp:406] lstmx_h_concat <- h_6
I1017 16:33:47.405407 32032 net.cpp:380] lstmx_h_concat -> h
I1017 16:33:47.405632 32032 net.cpp:122] Setting up lstmx_h_concat
I1017 16:33:47.405644 32032 net.cpp:129] Top shape: 6 4 256 (6144)
I1017 16:33:47.405648 32032 net.cpp:137] Memory required for data: 643456
I1017 16:33:47.405668 32032 layer_factory.hpp:77] Creating layer h_pseudoloss
I1017 16:33:47.405679 32032 net.cpp:84] Creating Layer h_pseudoloss
I1017 16:33:47.405683 32032 net.cpp:406] h_pseudoloss <- h
I1017 16:33:47.405714 32032 net.cpp:380] h_pseudoloss -> h_pseudoloss
I1017 16:33:47.406108 32032 net.cpp:122] Setting up h_pseudoloss
…
I1017 16:33:47.406497 32032 net.cpp:200] lstmx_ does not need backward computation.
I1017 16:33:47.406502 32032 net.cpp:242] This network produces output c_T
I1017 16:33:47.406508 32032 net.cpp:242] This network produces output h_pseudoloss
I1017 16:33:47.408193 32032 net.cpp:255] Network initialization done.
I1017 16:33:47.408385 32032 recurrent_layer.cpp:150] Adding parameter 0: W_xc
I1017 16:33:47.408394 32032 recurrent_layer.cpp:150] Adding parameter 1: b_c
I1017 16:33:47.408399 32032 recurrent_layer.cpp:150] Adding parameter 2: W_hc
I1017 16:33:47.408632 32032 net.cpp:122] Setting up lstmx
I1017 16:33:47.408663 32032 net.cpp:129] Top shape: 6 4 256 (6144)
I1017 16:33:47.408668 32032 net.cpp:137] Memory required for data: 6458625184
I1017 16:33:47.408789 32032 layer_factory.hpp:77] Creating layer slice_lstmx
I1017 16:33:47.408803 32032 net.cpp:84] Creating Layer slice_lstmx
I1017 16:33:47.408823 32032 net.cpp:406] slice_lstmx <- lstmx
I1017 16:33:47.408840 32032 net.cpp:380] slice_lstmx -> listmx_out1
I1017 16:33:47.408859 32032 net.cpp:380] slice_lstmx -> listmx_out
I1017 16:33:47.408946 32032 net.cpp:122] Setting up slice_lstmx
I1017 16:33:47.408955 32032 net.cpp:129] Top shape: 5 4 256 (5120)
I1017 16:33:47.408962 32032 net.cpp:129] Top shape: 1 4 256 (1024)
I1017 16:33:47.408965 32032 net.cpp:137] Memory required for data: 6458649760
I1017 16:33:47.408970 32032 layer_factory.hpp:77] Creating layer silence
I1017 16:33:47.408980 32032 net.cpp:84] Creating Layer silence
I1017 16:33:47.408985 32032 net.cpp:406] silence <- listmx_out1
I1017 16:33:47.408993 32032 net.cpp:122] Setting up silence
I1017 16:33:47.408998 32032 net.cpp:137] Memory required for data: 6458649760
I1017 16:33:47.409003 32032 layer_factory.hpp:77] Creating layer reshape
I1017 16:33:47.409013 32032 net.cpp:84] Creating Layer reshape
I1017 16:33:47.409018 32032 net.cpp:406] reshape <- listmx_out
I1017 16:33:47.409026 32032 net.cpp:380] reshape -> reshape
I1017 16:33:47.409076 32032 net.cpp:122] Setting up reshape
I1017 16:33:47.409083 32032 net.cpp:129] Top shape: 4 256 (1024)
I1017 16:33:47.409087 32032 net.cpp:137] Memory required for data: 6458653856
I1017 16:33:47.409092 32032 layer_factory.hpp:77] Creating layer fc6_no_action
I1017 16:33:47.409106 32032 net.cpp:84] Creating Layer fc6_no_action
I1017 16:33:47.409111 32032 net.cpp:406] fc6_no_action <- reshape
I1017 16:33:47.409121 32032 net.cpp:380] fc6_no_action -> fc6
I1017 16:33:47.409567 32032 net.cpp:122] Setting up fc6_no_action
I1017 16:33:47.409580 32032 net.cpp:129] Top shape: 4 21 (84)
I1017 16:33:47.409584 32032 net.cpp:137] Memory required for data: 6458654192
I1017 16:33:47.409595 32032 layer_factory.hpp:77] Creating layer fc6_fc6_no_action_0_split
I1017 16:33:47.409605 32032 net.cpp:84] Creating Layer fc6_fc6_no_action_0_split
I1017 16:33:47.409610 32032 net.cpp:406] fc6_fc6_no_action_0_split <- fc6
I1017 16:33:47.409621 32032 net.cpp:380] fc6_fc6_no_action_0_split -> fc6_fc6_no_action_0_split_0
I1017 16:33:47.409631 32032 net.cpp:380] fc6_fc6_no_action_0_split -> fc6_fc6_no_action_0_split_1
I1017 16:33:47.409770 32032 net.cpp:122] Setting up fc6_fc6_no_action_0_split
I1017 16:33:47.409780 32032 net.cpp:129] Top shape: 4 21 (84)
I1017 16:33:47.409785 32032 net.cpp:129] Top shape: 4 21 (84)
I1017 16:33:47.430356 32032 net.cpp:137] Memory required for data: 6458654864
I1017 16:33:47.430382 32032 layer_factory.hpp:77] Creating layer loss
I1017 16:33:47.430400 32032 net.cpp:84] Creating Layer loss
I1017 16:33:47.430408 32032 net.cpp:406] loss <- fc6_fc6_no_action_0_split_0
I1017 16:33:47.430418 32032 net.cpp:406] loss <- label_data_1_split_0
I1017 16:33:47.430425 32032 net.cpp:380] loss -> loss
I1017 16:33:47.430444 32032 layer_factory.hpp:77] Creating layer loss
I1017 16:33:47.431784 32032 net.cpp:122] Setting up loss
I1017 16:33:47.431798 32032 net.cpp:129] Top shape: (1)
I1017 16:33:47.431802 32032 net.cpp:132]     with loss weight 1
I1017 16:33:47.431813 32032 net.cpp:137] Memory required for data: 6458654868
I1017 16:33:47.431816 32032 layer_factory.hpp:77] Creating layer prob
I1017 16:33:47.431862 32032 net.cpp:84] Creating Layer prob
I1017 16:33:47.431867 32032 net.cpp:406] prob <- fc6_fc6_no_action_0_split_1
I1017 16:33:47.431876 32032 net.cpp:380] prob -> prob
I1017 16:33:47.432458 32032 net.cpp:122] Setting up prob
I1017 16:33:47.432471 32032 net.cpp:129] Top shape: 4 21 (84)
I1017 16:33:47.432474 32032 net.cpp:137] Memory required for data: 6458655204
I1017 16:33:47.432478 32032 layer_factory.hpp:77] Creating layer accuracy
I1017 16:33:47.432487 32032 net.cpp:84] Creating Layer accuracy
I1017 16:33:47.432490 32032 net.cpp:406] accuracy <- prob
I1017 16:33:47.432495 32032 net.cpp:406] accuracy <- label_data_1_split_1
I1017 16:33:47.432534 32032 net.cpp:380] accuracy -> accuracy/top-1
…
