…
I0905 15:21:34.715900 32713 upgrade_proto.cpp:80] Successfully upgraded batch norm layers using deprecated params.
I0905 15:21:34.718911 32713 net.cpp:51] Initializing net from parameters: 
name: "i3d_dw"
state {
  phase: TRAIN
  level: 0
  stage: ""
}
layer {
  name: "data"
  type: "VideoLstmData"
  top: "data"
  top: "label"
  top: "lstm_flag"
  transform_param {
    mirror: true
    crop_size: 224
    mean_value: 90
    mean_value: 98
    mean_value: 102
  }
  video_data_param {
    source: "examples/lstm_one_video/train.txt"
    batch_size: 4
    shuffle: true
    new_length: 48
    new_height: 256
    new_width: 256
  }
}
layer {
  name: "indicator"
  type: "ContinuationIndicator"
  bottom: "lstm_flag"
  top: "indicator"
  continuation_indicator_param {
    time_step: 6
    batch_size: 4
  }
}
layer {
  name: "Conv3d_1a"
  type: "NdConvolution"
  bottom: "data"
  top: "Conv3d_1a"
  param {
    lr_mult: 1
    decay_mult: 1
  }
  convolution_param {
    num_output: 64
    bias_term: false
    weight_filler {
      type: "xavier"
    }
    pad_shape {
      dim: 3
      dim: 3
      dim: 3
    }
    kernel_shape {
      dim: 7
      dim: 7
      dim: 7
    }
    stride_shape {
      dim: 2
      dim: 2
      dim: 2
    }
  }
}
layer {
  name: "bn_Conv3d_1a"
  type: "BatchNorm"
  bottom: "Conv3d_1a"
  top: "Conv3d_1a"
  param {
    lr_mult: 0
    decay_mult: 0
  }
  param {
    lr_mult: 0
    decay_mult: 0
  }
  param {
    lr_mult: 0
    decay_mult: 0
  }
  batch_norm_param {
    use_global_stats: false
  }
}
layer {
  name: "sacle_Conv3d_1a"
  type: "Scale"
  bottom: "Conv3d_1a"
  top: "Conv3d_1a"
  param {
    lr_mult: 1
    decay_mult: 0
  }
  param {
    lr_mult: 1
    decay_mult: 0
  }
  scale_param {
    bias_term: true
  }
}
layer {
  name: "relu1a"
  type: "ReLU"
  bottom: "Conv3d_1a"
  top: "Conv3d_1a"
}
layer {
  name: "MaxPool3d_2a_3x3"
  type: "NdPooling"
  bottom: "Conv3d_1a"
  top: "MaxPool3d_2a_3x3"
  pooling_param {
    pool: MAX
    kernel_shape {
      dim: 1
      dim: 3
      dim: 3
    }
    stride_shape {
      dim: 1
      dim: 2
      dim: 2
    }
  }
}
layer {
  name: "Conv3d_2b"
  type: "NdConvolution"
  bottom: "MaxPool3d_2a_3x3"
  top: "Conv3d_2b"
  param {
    lr_mult: 1
    decay_mult: 1
  }
  convolution_param {
    num_output: 64
    bias_term: false
    weight_filler {
      type: "xavier"
    }
    kernel_shape {
      dim: 1
      dim: 1
      dim: 1
    }
    stride_shape {
      dim: 1
      dim: 1
      dim: 1
    }
  }
}
layer {
  name: "bn_Conv3d_2b"
  type: "BatchNorm"
  bottom: "Conv3d_2b"
  top: "Conv3d_2b"
  param {
    lr_mult: 0
    decay_mult: 0
  }
  param {
    lr_mult: 0
    decay_mult: 0
  }
  param {
    lr_mult: 0
    decay_mult: 0
  }
  batch_norm_param {
    use_global_stats: false
  }
}
layer {
  name: "sacle_Conv3d_2b"
  type: "Scale"
  bottom: "Conv3d_2b"
  top: "Conv3d_2b"
  param {
    lr_mult: 1
    decay_mult: 0
  }
  param {
    lr_mult: 1
    decay_mult: 0
  }
  scale_param {
    bias_term: true
  }
}
layer {
  name: "relu2b"
  type: "ReLU"
  bottom: "Conv3d_2b"
  top: "Conv3d_2b"
}
layer {
  name: "Conv3d_2c_dw"
  type: "DepthwiseNdConvolution"
  bottom: "Conv3d_2b"
  top: "Conv3d_2c_dw"
  param {
    lr_mult: 1
    decay_mult: 1
  }
  convolution_param {
    num_output: 64
    bias_term: false
    weight_filler {
      type: "xavier"
    }
    pad_shape {
      dim: 1
      dim: 1
      dim: 1
    }
    kernel_shape {
      dim: 3
      dim: 3
      dim: 3
    }
    stride_shape {
      dim: 1
      dim: 1
      dim: 1
    }
  }
}
layer {
  name: "relu2c_dw"
  type: "ReLU"
  bottom: "Conv3d_2c_dw"
  top: "Conv3d_2c_dw"
}
layer {
  name: "Conv3d_2c"
  type: "NdConvolution"
  bottom: "Conv3d_2c_dw"
  top: "Conv3d_2c"
  param {
    lr_mult: 1
    decay_mult: 1
  }
  convolution_param {
    num_output: 192
    bias_term: false
    weight_filler {
      type: "xavier"
    }
    kernel_shape {
      dim: 1
      dim: 1
      dim: 1
    }
    stride_shape {
      dim: 1
      dim: 1
      dim: 1
    }
  }
}
layer {
  name: "bn_Conv3d_2c"
  type: "BatchNorm"
  bottom: "Conv3d_2c"
  top: "Conv3d_2c"
  param {
    lr_mult: 0
    decay_mult: 0
  }
  param {
    lr_mult: 0
    decay_mult: 0
  }
  param {
    lr_mult: 0
    decay_mult: 0
  }
  batch_norm_param {
    use_global_stats: false
  }
}
layer {
  name: "sacle_Conv3d_2c"
  type: "Scale"
  bottom: "Conv3d_2c"
  top: "Conv3d_2c"
  param {
    lr_mult: 1
    decay_mult: 0
  }
  param {
    lr_mult: 1
    decay_mult: 0
  }
  scale_param {
    bias_term: true
  }
}
layer {
  name: "relu2c"
  type: "ReLU"
  bottom: "Conv3d_2c"
  top: "Conv3d_2c"
}
layer {
  name: "MaxPool3d_3a_3x3"
  type: "NdPooling"
  bottom: "Conv3d_2c"
  top: "MaxPool3d_3a_3x3"
  pooling_param {
    pool: MAX
    kernel_shape {
      dim: 1
      dim: 3
      dim: 3
    }
    stride_shape {
      dim: 1
      dim: 2
      dim: 2
    }
  }
}
layer {
  name: "Mixed_3b_branch_0_1x1"
  type: "NdConvolution"
  bottom: "MaxPool3d_3a_3x3"
  top: "Mixed_3b_branch_0_1x1"
  param {
    lr_mult: 1
    decay_mult: 1
  }
  convolution_param {
    num_output: 64
    bias_term: false
    weight_filler {
      type: "xavier"
    }
    kernel_shape {
      dim: 1
      dim: 1
      dim: 1
    }
    stride_shape {
      dim: 1
      dim: 1
      dim: 1
    }
  }
}
layer {
  name: "bn_Mixed_3b_branch_0_1x1"
  type: "BatchNorm"
  bottom: "Mixed_3b_branch_0_1x1"
  top: "Mixed_3b_branch_0_1x1"
  param {
    lr_mult: 0
    decay_mult: 0
  }
  param {
    lr_mult: 0
    decay_mult: 0
  }
  param {
    lr_mult: 0
    decay_mult: 0
  }
  batch_norm_param {
    use_global_stats: false
  }
}
layer {
  name: "sacle_Mixed_3b_branch_0_1x1"
  type: "Scale"
  bottom: "Mixed_3b_branch_0_1x1"
  top: "Mixed_3b_branch_0_1x1"
  param {
    lr_mult: 1
    decay_mult: 0
  }
  param {
    lr_mult: 1
    decay_mult: 0
  }
  scale_param {
    bias_term: true
  }
}
layer {
  name: "relu3b_branch_0_1x1"
  type: "ReLU"
  bottom: "Mixed_3b_branch_0_1x1"
  top: "Mixed_3b_branch_0_1x1"
}
layer {
  name: "Mixed_3b_branch_1_1x1"
  type: "NdConvolution"
  bottom: "MaxPool3d_3a_3x3"
  top: "Mixed_3b_branch_1_1x1"
  param {
    lr_mult: 1
    decay_mult: 1
  }
  convolution_param {
    num_output: 96
    bias_term: false
    weight_filler {
      type: "xavier"
    }
    kernel_shape {
      dim: 1
      dim: 1
      dim: 1
    }
    stride_shape {
      dim: 1
      dim: 1
      dim: 1
    }
  }
}
layer {
  name: "bn_Mixed_3b_branch_1_1x1"
  type: "BatchNorm"
  bottom: "Mixed_3b_branch_1_1x1"
  top: "Mixed_3b_branch_1_1x1"
  param {
    lr_mult: 0
    decay_mult: 0
  }
  param {
    lr_mult: 0
    decay_mult: 0
  }
  param {
    lr_mult: 0
    decay_mult: 0
  }
  batch_norm_param {
    use_global_stats: false
  }
}
layer {
  name: "sacle_Mixed_3b_branch_1_1x1"
  type: "Scale"
  bottom: "Mixed_3b_branch_1_1x1"
  top: "Mixed_3b_branch_1_1x1"
  param {
    lr_mult: 1
    decay_mult: 0
  }
  param {
    lr_mult: 1
    decay_mult: 0
  }
  scale_param {
    bias_term: true
  }
}
layer {
  name: "relu3b_branch_1_1x1"
  type: "ReLU"
  bottom: "Mixed_3b_branch_1_1x1"
  top: "Mixed_3b_branch_1_1x1"
}
layer {
  name: "Mixed_3b_branch_1_3x3_dw"
  type: "DepthwiseNdConvolution"
  bottom: "Mixed_3b_branch_1_1x1"
  top: "Mixed_3b_branch_1_3x3_dw"
  param {
    lr_mult: 1
    decay_mult: 1
  }
  convolution_param {
    num_output: 96
    bias_term: false
    weight_filler {
      type: "xavier"
    }
    pad_shape {
      dim: 1
      dim: 1
      dim: 1
    }
    kernel_shape {
      dim: 3
      dim: 3
      dim: 3
    }
    stride_shape {
      dim: 1
      dim: 1
      dim: 1
    }
  }
}
layer {
  name: "relu3b_branch_1_3x3_dw"
  type: "ReLU"
  bottom: "Mixed_3b_branch_1_3x3_dw"
  top: "Mixed_3b_branch_1_3x3_dw"
}
layer {
  name: "Mixed_3b_branch_1_3x3"
  type: "NdConvolution"
  bottom: "Mixed_3b_branch_1_3x3_dw"
  top: "Mixed_3b_branch_1_3x3"
  param {
    lr_mult: 1
    decay_mult: 1
  }
  convolution_param {
    num_output: 128
    bias_term: false
    weight_filler {
      type: "xavier"
    }
    kernel_shape {
      dim: 1
      dim: 1
      dim: 1
    }
    stride_shape {
      dim: 1
      dim: 1
      dim: 1
    }
  }
}
layer {
  name: "bn_Mixed_3b_branch_1_3x3"
  type: "BatchNorm"
  bottom: "Mixed_3b_branch_1_3x3"
  top: "Mixed_3b_branch_1_3x3"
  param {
    lr_mult: 0
    decay_mult: 0
  }
  param {
    lr_mult: 0
    decay_mult: 0
  }
  param {
    lr_mult: 0
    decay_mult: 0
  }
  batch_norm_param {
    use_global_stats: false
  }
}
layer {
  name: "sacle_Mixed_3b_branch_1_3x3"
  type: "Scale"
  bottom: "Mixed_3b_branch_1_3x3"
  top: "Mixed_3b_branch_1_3x3"
  param {
    lr_mult: 1
    decay_mult: 0
  }
  param {
    lr_mult: 1
    decay_mult: 0
  }
  scale_param {
    bias_term: true
  }
}
layer {
  name: "relu3b_branch_1_3x3"
  type: "ReLU"
  bottom: "Mixed_3b_branch_1_3x3"
  top: "Mixed_3b_branch_1_3x3"
}
layer {
  name: "Mixed_3b_branch_2_1x1"
  type: "NdConvolution"
  bottom: "MaxPool3d_3a_3x3"
  top: "Mixed_3b_branch_2_1x1"
  param {
    lr_mult: 1
    decay_mult: 1
  }
  convolution_param {
    num_output: 16
    bias_term: false
    weight_filler {
      type: "xavier"
    }
    kernel_shape {
      dim: 1
      dim: 1
      dim: 1
    }
    stride_shape {
      dim: 1
      dim: 1
      dim: 1
    }
  }
}
layer {
  name: "bn_Mixed_3b_branch_2_1x1"
  type: "BatchNorm"
  bottom: "Mixed_3b_branch_2_1x1"
  top: "Mixed_3b_branch_2_1x1"
  param {
    lr_mult: 0
    decay_mult: 0
  }
  param {
    lr_mult: 0
    decay_mult: 0
  }
  param {
    lr_mult: 0
    decay_mult: 0
  }
  batch_norm_param {
    use_global_stats: false
  }
}
layer {
  name: "sacle_Mixed_3b_branch_2_1x1"
  type: "Scale"
  bottom: "Mixed_3b_branch_2_1x1"
  top: "Mixed_3b_branch_2_1x1"
  param {
    lr_mult: 1
    decay_mult: 0
  }
  param {
    lr_mult: 1
    decay_mult: 0
  }
  scale_param {
    bias_term: true
  }
}
layer {
  name: "relu3b_branch_2_1x1"
  type: "ReLU"
  bottom: "Mixed_3b_branch_2_1x1"
  top: "Mixed_3b_branch_2_1x1"
}
layer {
  name: "Mixed_3b_branch_2_5x5_dw"
  type: "DepthwiseNdConvolution"
  bottom: "Mixed_3b_branch_2_1x1"
  top: "Mixed_3b_branch_2_5x5_dw"
  param {
    lr_mult: 1
    decay_mult: 1
  }
  convolution_param {
    num_output: 16
    bias_term: false
    weight_filler {
      type: "xavier"
    }
    pad_shape {
      dim: 2
      dim: 2
      dim: 2
    }
    kernel_shape {
      dim: 5
      dim: 5
      dim: 5
    }
    stride_shape {
      dim: 1
      dim: 1
      dim: 1
    }
  }
}
layer {
  name: "relu3b_branch_2_5x5_dw"
  type: "ReLU"
  bottom: "Mixed_3b_branch_2_5x5_dw"
  top: "Mixed_3b_branch_2_5x5_dw"
}
layer {
  name: "Mixed_3b_branch_2_5x5"
  type: "NdConvolution"
  bottom: "Mixed_3b_branch_2_5x5_dw"
  top: "Mixed_3b_branch_2_5x5"
  param {
    lr_mult: 1
    decay_mult: 1
  }
  convolution_param {
    num_output: 32
    bias_term: false
    weight_filler {
      type: "xavier"
    }
    kernel_shape {
      dim: 1
      dim: 1
      dim: 1
    }
    stride_shape {
      dim: 1
      dim: 1
      dim: 1
    }
  }
}
layer {
  name: "bn_Mixed_3b_branch_2_5x5"
  type: "BatchNorm"
  bottom: "Mixed_3b_branch_2_5x5"
  top: "Mixed_3b_branch_2_5x5"
  param {
    lr_mult: 0
    decay_mult: 0
  }
  param {
    lr_mult: 0
    decay_mult: 0
  }
  param {
    lr_mult: 0
    decay_mult: 0
  }
  batch_norm_param {
    use_global_stats: false
  }
}
layer {
  name: "sacle_Mixed_3b_branch_2_5x5"
  type: "Scale"
  bottom: "Mixed_3b_branch_2_5x5"
  top: "Mixed_3b_branch_2_5x5"
  param {
    lr_mult: 1
    decay_mult: 0
  }
  param {
    lr_mult: 1
    decay_mult: 0
  }
  scale_param {
    bias_term: true
  }
}
layer {
  name: "relu3b_branch_2_5x5"
  type: "ReLU"
  bottom: "Mixed_3b_branch_2_5x5"
  top: "Mixed_3b_branch_2_5x5"
}
layer {
  name: "Mixed_3b_branch_3_Maxpool"
  type: "NdPooling"
  bottom: "MaxPool3d_3a_3x3"
  top: "Mixed_3b_branch_3_Maxpool"
  pooling_param {
    pool: MAX
    pad_shape {
      dim: 1
      dim: 1
      dim: 1
    }
    kernel_shape {
      dim: 3
      dim: 3
      dim: 3
    }
    stride_shape {
      dim: 1
      dim: 1
      dim: 1
    }
  }
}
layer {
  name: "Mixed_3b_branch_3_1x1"
  type: "NdConvolution"
  bottom: "Mixed_3b_branch_3_Maxpool"
  top: "Mixed_3b_branch_3_1x1"
  param {
    lr_mult: 1
    decay_mult: 1
  }
  convolution_param {
    num_output: 32
    bias_term: false
    weight_filler {
      type: "xavier"
    }
    kernel_shape {
      dim: 1
      dim: 1
      dim: 1
    }
    stride_shape {
      dim: 1
      dim: 1
      dim: 1
    }
  }
}
layer {
  name: "bn_Mixed_3b_branch_3_1x1"
  type: "BatchNorm"
  bottom: "Mixed_3b_branch_3_1x1"
  top: "Mixed_3b_branch_3_1x1"
  param {
    lr_mult: 0
    decay_mult: 0
  }
  param {
    lr_mult: 0
    decay_mult: 0
  }
  param {
    lr_mult: 0
    decay_mult: 0
  }
  batch_norm_param {
    use_global_stats: false
  }
}
layer {
  name: "sacle_Mixed_3b_branch_3_1x1"
  type: "Scale"
  bottom: "Mixed_3b_branch_3_1x1"
  top: "Mixed_3b_branch_3_1x1"
  param {
    lr_mult: 1
    decay_mult: 0
  }
  param {
    lr_mult: 1
    decay_mult: 0
  }
  scale_param {
    bias_term: true
  }
}
layer {
  name: "relu3b_branch_3_1x1"
  type: "ReLU"
  bottom: "Mixed_3b_branch_3_1x1"
  top: "Mixed_3b_branch_3_1x1"
}
layer {
  name: "Mixed_3b"
  type: "Concat"
  bottom: "Mixed_3b_branch_0_1x1"
  bottom: "Mixed_3b_branch_1_3x3"
  bottom: "Mixed_3b_branch_2_5x5"
  bottom: "Mixed_3b_branch_3_1x1"
  top: "Mixed_3b"
  concat_param {
    axis: 1
  }
}
layer {
  name: "Mixed_3c_branch_0_1x1"
  type: "NdConvolution"
  bottom: "Mixed_3b"
  top: "Mixed_3c_branch_0_1x1"
  param {
    lr_mult: 1
    decay_mult: 1
  }
  convolution_param {
    num_output: 128
    bias_term: false
    weight_filler {
      type: "xavier"
    }
    kernel_shape {
      dim: 1
      dim: 1
      dim: 1
    }
    stride_shape {
      dim: 1
      dim: 1
      dim: 1
    }
  }
}
layer {
  name: "bn_Mixed_3c_branch_0_1x1"
  type: "BatchNorm"
  bottom: "Mixed_3c_branch_0_1x1"
  top: "Mixed_3c_branch_0_1x1"
  param {
    lr_mult: 0
    decay_mult: 0
  }
  param {
    lr_mult: 0
    decay_mult: 0
  }
  param {
    lr_mult: 0
    decay_mult: 0
  }
  batch_norm_param {
    use_global_stats: false
  }
}
layer {
  name: "sacle_Mixed_3c_branch_0_1x1"
  type: "Scale"
  bottom: "Mixed_3c_branch_0_1x1"
  top: "Mixed_3c_branch_0_1x1"
  param {
    lr_mult: 1
    decay_mult: 0
  }
  param {
    lr_mult: 1
    decay_mult: 0
  }
  scale_param {
    bias_term: true
  }
}
layer {
  name: "relu3c_branch_0_1x1"
  type: "ReLU"
  bottom: "Mixed_3c_branch_0_1x1"
  top: "Mixed_3c_branch_0_1x1"
}
layer {
  name: "Mixed_3c_branch_1_1x1"
  type: "NdConvolution"
  bottom: "Mixed_3b"
  top: "Mixed_3c_branch_1_1x1"
  param {
    lr_mult: 1
    decay_mult: 1
  }
  convolution_param {
    num_output: 128
    bias_term: false
    weight_filler {
      type: "xavier"
    }
    kernel_shape {
      dim: 1
      dim: 1
      dim: 1
    }
    stride_shape {
      dim: 1
      dim: 1
      dim: 1
    }
  }
}
layer {
  name: "bn_Mixed_3c_branch_1_1x1"
  type: "BatchNorm"
  bottom: "Mixed_3c_branch_1_1x1"
  top: "Mixed_3c_branch_1_1x1"
  param {
    lr_mult: 0
    decay_mult: 0
  }
  param {
    lr_mult: 0
    decay_mult: 0
  }
  param {
    lr_mult: 0
    decay_mult: 0
  }
  batch_norm_param {
    use_global_stats: false
  }
}
layer {
  name: "sacle_Mixed_3c_branch_1_1x1"
  type: "Scale"
  bottom: "Mixed_3c_branch_1_1x1"
  top: "Mixed_3c_branch_1_1x1"
  param {
    lr_mult: 1
    decay_mult: 0
  }
  param {
    lr_mult: 1
    decay_mult: 0
  }
  scale_param {
    bias_term: true
  }
}
layer {
  name: "relu3c_branch_1_1x1"
  type: "ReLU"
  bottom: "Mixed_3c_branch_1_1x1"
  top: "Mixed_3c_branch_1_1x1"
}
layer {
  name: "Mixed_3c_branch_1_3x3_dw"
  type: "DepthwiseNdConvolution"
  bottom: "Mixed_3c_branch_1_1x1"
  top: "Mixed_3c_branch_1_3x3_dw"
  param {
    lr_mult: 1
    decay_mult: 1
  }
  convolution_param {
    num_output: 128
    bias_term: false
    weight_filler {
      type: "xavier"
    }
    pad_shape {
      dim: 1
      dim: 1
      dim: 1
    }
    kernel_shape {
      dim: 3
      dim: 3
      dim: 3
    }
    stride_shape {
      dim: 1
      dim: 1
      dim: 1
    }
  }
}
layer {
  name: "relu3c_branch_1_3x3_dw"
  type: "ReLU"
  bottom: "Mixed_3c_branch_1_3x3_dw"
  top: "Mixed_3c_branch_1_3x3_dw"
}
layer {
  name: "Mixed_3c_branch_1_3x3"
  type: "NdConvolution"
  bottom: "Mixed_3c_branch_1_3x3_dw"
  top: "Mixed_3c_branch_1_3x3"
  param {
    lr_mult: 1
    decay_mult: 1
  }
  convolution_param {
    num_output: 192
    bias_term: false
    weight_filler {
      type: "xavier"
    }
    kernel_shape {
      dim: 1
      dim: 1
      dim: 1
    }
    stride_shape {
      dim: 1
      dim: 1
      dim: 1
    }
  }
}
layer {
  name: "bn_Mixed_3c_branch_1_3x3"
  type: "BatchNorm"
  bottom: "Mixed_3c_branch_1_3x3"
  top: "Mixed_3c_branch_1_3x3"
  param {
    lr_mult: 0
    decay_mult: 0
  }
  param {
    lr_mult: 0
    decay_mult: 0
  }
  param {
    lr_mult: 0
    decay_mult: 0
  }
  batch_norm_param {
    use_global_stats: false
  }
}
layer {
  name: "sacle_Mixed_3c_branch_1_3x3"
  type: "Scale"
  bottom: "Mixed_3c_branch_1_3x3"
  top: "Mixed_3c_branch_1_3x3"
  param {
    lr_mult: 1
    decay_mult: 0
  }
  param {
    lr_mult: 1
    decay_mult: 0
  }
  scale_param {
    bias_term: true
  }
}
layer {
  name: "relu3c_branch_1_3x3"
  type: "ReLU"
  bottom: "Mixed_3c_branch_1_3x3"
  top: "Mixed_3c_branch_1_3x3"
}
layer {
  name: "Mixed_3c_branch_2_1x1"
  type: "NdConvolution"
  bottom: "Mixed_3b"
  top: "Mixed_3c_branch_2_1x1"
  param {
    lr_mult: 1
    decay_mult: 1
  }
  convolution_param {
    num_output: 32
    bias_term: false
    weight_filler {
      type: "xavier"
    }
    kernel_shape {
      dim: 1
      dim: 1
      dim: 1
    }
    stride_shape {
      dim: 1
      dim: 1
      dim: 1
    }
  }
}
layer {
  name: "bn_Mixed_3c_branch_2_1x1"
  type: "BatchNorm"
  bottom: "Mixed_3c_branch_2_1x1"
  top: "Mixed_3c_branch_2_1x1"
  param {
    lr_mult: 0
    decay_mult: 0
  }
  param {
    lr_mult: 0
    decay_mult: 0
  }
  param {
    lr_mult: 0
    decay_mult: 0
  }
  batch_norm_param {
    use_global_stats: false
  }
}
layer {
  name: "sacle_Mixed_3c_branch_2_1x1"
  type: "Scale"
  bottom: "Mixed_3c_branch_2_1x1"
  top: "Mixed_3c_branch_2_1x1"
  param {
    lr_mult: 1
    decay_mult: 0
  }
  param {
    lr_mult: 1
    decay_mult: 0
  }
  scale_param {
    bias_term: true
  }
}
layer {
  name: "relu3c_branch_2_1x1"
  type: "ReLU"
  bottom: "Mixed_3c_branch_2_1x1"
  top: "Mixed_3c_branch_2_1x1"
}
layer {
  name: "Mixed_3c_branch_2_5x5_dw"
  type: "DepthwiseNdConvolution"
  bottom: "Mixed_3c_branch_2_1x1"
  top: "Mixed_3c_branch_2_5x5_dw"
  param {
    lr_mult: 1
    decay_mult: 1
  }
  convolution_param {
    num_output: 32
    bias_term: false
    weight_filler {
      type: "xavier"
    }
    pad_shape {
      dim: 2
      dim: 2
      dim: 2
    }
    kernel_shape {
      dim: 5
      dim: 5
      dim: 5
    }
    stride_shape {
      dim: 1
      dim: 1
      dim: 1
    }
  }
}
layer {
  name: "relu3c_branch_2_5x5_dw"
  type: "ReLU"
  bottom: "Mixed_3c_branch_2_5x5_dw"
  top: "Mixed_3c_branch_2_5x5_dw"
}
layer {
  name: "Mixed_3c_branch_2_5x5"
  type: "NdConvolution"
  bottom: "Mixed_3c_branch_2_5x5_dw"
  top: "Mixed_3c_branch_2_5x5"
  param {
    lr_mult: 1
    decay_mult: 1
  }
  convolution_param {
    num_output: 96
    bias_term: false
    weight_filler {
      type: "xavier"
    }
    kernel_shape {
      dim: 1
      dim: 1
      dim: 1
    }
    stride_shape {
      dim: 1
      dim: 1
      dim: 1
    }
  }
}
layer {
  name: "bn_Mixed_3c_branch_2_5x5"
  type: "BatchNorm"
  bottom: "Mixed_3c_branch_2_5x5"
  top: "Mixed_3c_branch_2_5x5"
  param {
    lr_mult: 0
    decay_mult: 0
  }
  param {
    lr_mult: 0
    decay_mult: 0
  }
  param {
    lr_mult: 0
    decay_mult: 0
  }
  batch_norm_param {
    use_global_stats: false
  }
}
layer {
  name: "sacle_Mixed_3c_branch_2_5x5"
  type: "Scale"
  bottom: "Mixed_3c_branch_2_5x5"
  top: "Mixed_3c_branch_2_5x5"
  param {
    lr_mult: 1
    decay_mult: 0
  }
  param {
    lr_mult: 1
    decay_mult: 0
  }
  scale_param {
    bias_term: true
  }
}
layer {
  name: "relu3c_branch_2_5x5"
  type: "ReLU"
  bottom: "Mixed_3c_branch_2_5x5"
  top: "Mixed_3c_branch_2_5x5"
}
layer {
  name: "Mixed_3c_branch_3_Maxpool"
  type: "NdPooling"
  bottom: "Mixed_3b"
  top: "Mixed_3c_branch_3_Maxpool"
  pooling_param {
    pool: MAX
    pad_shape {
      dim: 1
      dim: 1
      dim: 1
    }
    kernel_shape {
      dim: 3
      dim: 3
      dim: 3
    }
    stride_shape {
      dim: 1
      dim: 1
      dim: 1
    }
  }
}
layer {
  name: "Mixed_3c_branch_3_1x1"
  type: "NdConvolution"
  bottom: "Mixed_3c_branch_3_Maxpool"
  top: "Mixed_3c_branch_3_1x1"
  param {
    lr_mult: 1
    decay_mult: 1
  }
  convolution_param {
    num_output: 64
    bias_term: false
    weight_filler {
      type: "xavier"
    }
    kernel_shape {
      dim: 1
      dim: 1
      dim: 1
    }
    stride_shape {
      dim: 1
      dim: 1
      dim: 1
    }
  }
}
layer {
  name: "bn_Mixed_3c_branch_3_1x1"
  type: "BatchNorm"
  bottom: "Mixed_3c_branch_3_1x1"
  top: "Mixed_3c_branch_3_1x1"
  param {
    lr_mult: 0
    decay_mult: 0
  }
  param {
    lr_mult: 0
    decay_mult: 0
  }
  param {
    lr_mult: 0
    decay_mult: 0
  }
  batch_norm_param {
    use_global_stats: false
  }
}
layer {
  name: "sacle_Mixed_3c_branch_3_1x1"
  type: "Scale"
  bottom: "Mixed_3c_branch_3_1x1"
  top: "Mixed_3c_branch_3_1x1"
  param {
    lr_mult: 1
    decay_mult: 0
  }
  param {
    lr_mult: 1
    decay_mult: 0
  }
  scale_param {
    bias_term: true
  }
}
layer {
  name: "relu3c_branch_3_1x1"
  type: "ReLU"
  bottom: "Mixed_3c_branch_3_1x1"
  top: "Mixed_3c_branch_3_1x1"
}
layer {
  name: "Mixed_3c"
  type: "Concat"
  bottom: "Mixed_3c_branch_0_1x1"
  bottom: "Mixed_3c_branch_1_3x3"
  bottom: "Mixed_3c_branch_2_5x5"
  bottom: "Mixed_3c_branch_3_1x1"
  top: "Mixed_3c"
  concat_param {
    axis: 1
  }
}
layer {
  name: "MaxPool3d_4a_3x3"
  type: "NdPooling"
  bottom: "Mixed_3c"
  top: "MaxPool3d_4a_3x3"
  pooling_param {
    pool: MAX
    kernel_shape {
      dim: 3
      dim: 3
      dim: 3
    }
    stride_shape {
      dim: 2
      dim: 2
      dim: 2
    }
  }
}
layer {
  name: "Mixed_4b_branch_0_1x1"
  type: "NdConvolution"
  bottom: "MaxPool3d_4a_3x3"
  top: "Mixed_4b_branch_0_1x1"
  param {
    lr_mult: 1
    decay_mult: 1
  }
  convolution_param {
    num_output: 192
    bias_term: false
    weight_filler {
      type: "xavier"
    }
    kernel_shape {
      dim: 1
      dim: 1
      dim: 1
    }
    stride_shape {
      dim: 1
      dim: 1
      dim: 1
    }
  }
}
layer {
  name: "bn_Mixed_4b_branch_0_1x1"
  type: "BatchNorm"
  bottom: "Mixed_4b_branch_0_1x1"
  top: "Mixed_4b_branch_0_1x1"
  param {
    lr_mult: 0
    decay_mult: 0
  }
  param {
    lr_mult: 0
    decay_mult: 0
  }
  param {
    lr_mult: 0
    decay_mult: 0
  }
  batch_norm_param {
    use_global_stats: false
  }
}
layer {
  name: "sacle_Mixed_4b_branch_0_1x1"
  type: "Scale"
  bottom: "Mixed_4b_branch_0_1x1"
  top: "Mixed_4b_branch_0_1x1"
  param {
    lr_mult: 1
    decay_mult: 0
  }
  param {
    lr_mult: 1
    decay_mult: 0
  }
  scale_param {
    bias_term: true
  }
}
layer {
  name: "relu4b_branch_0_1x1"
  type: "ReLU"
  bottom: "Mixed_4b_branch_0_1x1"
  top: "Mixed_4b_branch_0_1x1"
}
layer {
  name: "Mixed_4b_branch_1_1x1"
  type: "NdConvolution"
  bottom: "MaxPool3d_4a_3x3"
  top: "Mixed_4b_branch_1_1x1"
  param {
    lr_mult: 1
    decay_mult: 1
  }
  convolution_param {
    num_output: 96
    bias_term: false
    weight_filler {
      type: "xavier"
    }
    kernel_shape {
      dim: 1
      dim: 1
      dim: 1
    }
    stride_shape {
      dim: 1
      dim: 1
      dim: 1
    }
  }
}
layer {
  name: "bn_Mixed_4b_branch_1_1x1"
  type: "BatchNorm"
  bottom: "Mixed_4b_branch_1_1x1"
  top: "Mixed_4b_branch_1_1x1"
  param {
    lr_mult: 0
    decay_mult: 0
  }
  param {
    lr_mult: 0
    decay_mult: 0
  }
  param {
    lr_mult: 0
    decay_mult: 0
  }
  batch_norm_param {
    use_global_stats: false
  }
}
layer {
  name: "sacle_Mixed_4b_branch_1_1x1"
  type: "Scale"
  bottom: "Mixed_4b_branch_1_1x1"
  top: "Mixed_4b_branch_1_1x1"
  param {
    lr_mult: 1
    decay_mult: 0
  }
  param {
    lr_mult: 1
    decay_mult: 0
  }
  scale_param {
    bias_term: true
  }
}
layer {
  name: "relu4b_branch_1_1x1"
  type: "ReLU"
  bottom: "Mixed_4b_branch_1_1x1"
  top: "Mixed_4b_branch_1_1x1"
}
layer {
  name: "Mixed_4b_branch_1_3x3_dw"
  type: "DepthwiseNdConvolution"
  bottom: "Mixed_4b_branch_1_1x1"
  top: "Mixed_4b_branch_1_3x3_dw"
  param {
    lr_mult: 1
    decay_mult: 1
  }
  convolution_param {
    num_output: 96
    bias_term: false
    weight_filler {
      type: "xavier"
    }
    pad_shape {
      dim: 1
      dim: 1
      dim: 1
    }
    kernel_shape {
      dim: 3
      dim: 3
      dim: 3
    }
    stride_shape {
      dim: 1
      dim: 1
      dim: 1
    }
  }
}
layer {
  name: "relu4b_branch_1_3x3_dw"
  type: "ReLU"
  bottom: "Mixed_4b_branch_1_3x3_dw"
  top: "Mixed_4b_branch_1_3x3_dw"
}
layer {
  name: "Mixed_4b_branch_1_3x3"
  type: "NdConvolution"
  bottom: "Mixed_4b_branch_1_3x3_dw"
  top: "Mixed_4b_branch_1_3x3"
  param {
    lr_mult: 1
    decay_mult: 1
  }
  convolution_param {
    num_output: 208
    bias_term: false
    weight_filler {
      type: "xavier"
    }
    kernel_shape {
      dim: 1
      dim: 1
      dim: 1
    }
    stride_shape {
      dim: 1
      dim: 1
      dim: 1
    }
  }
}
layer {
  name: "bn_Mixed_4b_branch_1_3x3"
  type: "BatchNorm"
  bottom: "Mixed_4b_branch_1_3x3"
  top: "Mixed_4b_branch_1_3x3"
  param {
    lr_mult: 0
    decay_mult: 0
  }
  param {
    lr_mult: 0
    decay_mult: 0
  }
  param {
    lr_mult: 0
    decay_mult: 0
  }
  batch_norm_param {
    use_global_stats: false
  }
}
layer {
  name: "sacle_Mixed_4b_branch_1_3x3"
  type: "Scale"
  bottom: "Mixed_4b_branch_1_3x3"
  top: "Mixed_4b_branch_1_3x3"
  param {
    lr_mult: 1
    decay_mult: 0
  }
  param {
    lr_mult: 1
    decay_mult: 0
  }
  scale_param {
    bias_term: true
  }
}
layer {
  name: "relu4b_branch_1_3x3"
  type: "ReLU"
  bottom: "Mixed_4b_branch_1_3x3"
  top: "Mixed_4b_branch_1_3x3"
}
layer {
  name: "Mixed_4b_branch_2_1x1"
  type: "NdConvolution"
  bottom: "MaxPool3d_4a_3x3"
  top: "Mixed_4b_branch_2_1x1"
  param {
    lr_mult: 1
    decay_mult: 1
  }
  convolution_param {
    num_output: 16
    bias_term: false
    weight_filler {
      type: "xavier"
    }
    kernel_shape {
      dim: 1
      dim: 1
      dim: 1
    }
    stride_shape {
      dim: 1
      dim: 1
      dim: 1
    }
  }
}
layer {
  name: "bn_Mixed_4b_branch_2_1x1"
  type: "BatchNorm"
  bottom: "Mixed_4b_branch_2_1x1"
  top: "Mixed_4b_branch_2_1x1"
  param {
    lr_mult: 0
    decay_mult: 0
  }
  param {
    lr_mult: 0
    decay_mult: 0
  }
  param {
    lr_mult: 0
    decay_mult: 0
  }
  batch_norm_param {
    use_global_stats: false
  }
}
layer {
  name: "sacle_Mixed_4b_branch_2_1x1"
  type: "Scale"
  bottom: "Mixed_4b_branch_2_1x1"
  top: "Mixed_4b_branch_2_1x1"
  param {
    lr_mult: 1
    decay_mult: 0
  }
  param {
    lr_mult: 1
    decay_mult: 0
  }
  scale_param {
    bias_term: true
  }
}
layer {
  name: "relu4b_branch_2_1x1"
  type: "ReLU"
  bottom: "Mixed_4b_branch_2_1x1"
  top: "Mixed_4b_branch_2_1x1"
}
layer {
  name: "Mixed_4b_branch_2_5x5_dw"
  type: "DepthwiseNdConvolution"
  bottom: "Mixed_4b_branch_2_1x1"
  top: "Mixed_4b_branch_2_5x5_dw"
  param {
    lr_mult: 1
    decay_mult: 1
  }
  convolution_param {
    num_output: 16
    bias_term: false
    weight_filler {
      type: "xavier"
    }
    pad_shape {
      dim: 2
      dim: 2
      dim: 2
    }
    kernel_shape {
      dim: 5
      dim: 5
      dim: 5
    }
    stride_shape {
      dim: 1
      dim: 1
      dim: 1
    }
  }
}
layer {
  name: "relu4b_branch_2_5x5_dw"
  type: "ReLU"
  bottom: "Mixed_4b_branch_2_5x5_dw"
  top: "Mixed_4b_branch_2_5x5_dw"
}
layer {
  name: "Mixed_4b_branch_2_5x5"
  type: "NdConvolution"
  bottom: "Mixed_4b_branch_2_5x5_dw"
  top: "Mixed_4b_branch_2_5x5"
  param {
    lr_mult: 1
    decay_mult: 1
  }
  convolution_param {
    num_output: 48
    bias_term: false
    weight_filler {
      type: "xavier"
    }
    kernel_shape {
      dim: 1
      dim: 1
      dim: 1
    }
    stride_shape {
      dim: 1
      dim: 1
      dim: 1
    }
  }
}
layer {
  name: "bn_Mixed_4b_branch_2_5x5"
  type: "BatchNorm"
  bottom: "Mixed_4b_branch_2_5x5"
  top: "Mixed_4b_branch_2_5x5"
  param {
    lr_mult: 0
    decay_mult: 0
  }
  param {
    lr_mult: 0
    decay_mult: 0
  }
  param {
    lr_mult: 0
    decay_mult: 0
  }
  batch_norm_param {
    use_global_stats: false
  }
}
layer {
  name: "sacle_Mixed_4b_branch_2_5x5"
  type: "Scale"
  bottom: "Mixed_4b_branch_2_5x5"
  top: "Mixed_4b_branch_2_5x5"
  param {
    lr_mult: 1
    decay_mult: 0
  }
  param {
    lr_mult: 1
    decay_mult: 0
  }
  scale_param {
    bias_term: true
  }
}
layer {
  name: "relu4b_branch_2_5x5"
  type: "ReLU"
  bottom: "Mixed_4b_branch_2_5x5"
  top: "Mixed_4b_branch_2_5x5"
}
layer {
  name: "Mixed_4b_branch_3_Maxpool"
  type: "NdPooling"
  bottom: "MaxPool3d_4a_3x3"
  top: "Mixed_4b_branch_3_Maxpool"
  pooling_param {
    pool: MAX
    pad_shape {
      dim: 1
      dim: 1
      dim: 1
    }
    kernel_shape {
      dim: 3
      dim: 3
      dim: 3
    }
    stride_shape {
      dim: 1
      dim: 1
      dim: 1
    }
  }
}
layer {
  name: "Mixed_4b_branch_3_1x1"
  type: "NdConvolution"
  bottom: "Mixed_4b_branch_3_Maxpool"
  top: "Mixed_4b_branch_3_1x1"
  param {
    lr_mult: 1
    decay_mult: 1
  }
  convolution_param {
    num_output: 64
    bias_term: false
    weight_filler {
      type: "xavier"
    }
    kernel_shape {
      dim: 1
      dim: 1
      dim: 1
    }
    stride_shape {
      dim: 1
      dim: 1
      dim: 1
    }
  }
}
layer {
  name: "bn_Mixed_4b_branch_3_1x1"
  type: "BatchNorm"
  bottom: "Mixed_4b_branch_3_1x1"
  top: "Mixed_4b_branch_3_1x1"
  param {
  
I0905 15:21:34.720499 32713 layer_factory.hpp:77] Creating layer data
I0905 15:21:34.720541 32713 net.cpp:84] Creating Layer data
I0905 15:21:34.720551 32713 net.cpp:380] data -> data
I0905 15:21:34.720578 32713 net.cpp:380] data -> label
I0905 15:21:34.720589 32713 net.cpp:380] data -> lstm_flag
I0905 15:21:34.721030 32713 video_lstm_data_layer.cpp:87] Opening file examples/lstm_one_video/train.txt
I0905 15:21:34.722630 32713 video_lstm_data_layer.cpp:103] Shuffling data
I0905 15:21:34.722713 32713 video_lstm_data_layer.cpp:113] A total of 2323 video chunks.
I0905 15:21:34.877590 32713 video_lstm_data_layer.cpp:168] output data size: 4,3,48,224,224
I0905 15:21:35.788872 32713 net.cpp:122] Setting up data
I0905 15:21:35.788923 32713 net.cpp:129] Top shape: 4 3 48 224 224 (28901376)
I0905 15:21:35.788928 32713 net.cpp:129] Top shape: 4 (4)
I0905 15:21:35.788931 32713 net.cpp:129] Top shape: 4 (4)
I0905 15:21:35.788934 32713 net.cpp:137] Memory required for data: 115605536
I0905 15:21:35.788944 32713 layer_factory.hpp:77] Creating layer label_data_1_split
I0905 15:21:35.788959 32713 net.cpp:84] Creating Layer label_data_1_split
I0905 15:21:35.788965 32713 net.cpp:406] label_data_1_split <- label
I0905 15:21:35.788983 32713 net.cpp:380] label_data_1_split -> label_data_1_split_0
I0905 15:21:35.788996 32713 net.cpp:380] label_data_1_split -> label_data_1_split_1
I0905 15:21:35.789197 32713 net.cpp:122] Setting up label_data_1_split
I0905 15:21:35.789238 32713 net.cpp:129] Top shape: 4 (4)
I0905 15:21:35.789247 32713 net.cpp:129] Top shape: 4 (4)
I0905 15:21:35.789254 32713 net.cpp:137] Memory required for data: 115605568
I0905 15:21:35.789264 32713 layer_factory.hpp:77] Creating layer indicator
I0905 15:21:35.789288 32713 net.cpp:84] Creating Layer indicator
I0905 15:21:35.789299 32713 net.cpp:406] indicator <- lstm_flag
I0905 15:21:35.789315 32713 net.cpp:380] indicator -> indicator
I0905 15:21:35.789422 32713 net.cpp:122] Setting up indicator
I0905 15:21:35.789434 32713 net.cpp:129] Top shape: 6 4 (24)
I0905 15:21:35.789439 32713 net.cpp:137] Memory required for data: 115605664
I0905 15:21:35.789448 32713 layer_factory.hpp:77] Creating layer Conv3d_1a
I0905 15:21:35.789469 32713 net.cpp:84] Creating Layer Conv3d_1a
I0905 15:21:35.789476 32713 net.cpp:406] Conv3d_1a <- data
I0905 15:21:35.789489 32713 net.cpp:380] Conv3d_1a -> Conv3d_1a
I0905 15:21:36.176419 32713 net.cpp:122] Setting up Conv3d_1a
I0905 15:21:36.176458 32713 net.cpp:129] Top shape: 4 64 24 112 112 (77070336)
I0905 15:21:36.176463 32713 net.cpp:137] Memory required for data: 423887008
I0905 15:21:36.176496 32713 layer_factory.hpp:77] Creating layer bn_Conv3d_1a
I0905 15:21:36.176515 32713 net.cpp:84] Creating Layer bn_Conv3d_1a
I0905 15:21:36.176520 32713 net.cpp:406] bn_Conv3d_1a <- Conv3d_1a
I0905 15:21:36.176528 32713 net.cpp:367] bn_Conv3d_1a -> Conv3d_1a (in-place)
I0905 15:21:36.177152 32713 net.cpp:122] Setting up bn_Conv3d_1a
I0905 15:21:36.177163 32713 net.cpp:129] Top shape: 4 64 24 112 112 (77070336)
I0905 15:21:36.177166 32713 net.cpp:137] Memory required for data: 732168352
I0905 15:21:36.177178 32713 layer_factory.hpp:77] Creating layer sacle_Conv3d_1a
I0905 15:21:36.177187 32713 net.cpp:84] Creating Layer sacle_Conv3d_1a
I0905 15:21:36.177192 32713 net.cpp:406] sacle_Conv3d_1a <- Conv3d_1a
I0905 15:21:36.177197 32713 net.cpp:367] sacle_Conv3d_1a -> Conv3d_1a (in-place)
I0905 15:21:36.177251 32713 layer_factory.hpp:77] Creating layer sacle_Conv3d_1a
I0905 15:21:36.180254 32713 net.cpp:122] Setting up sacle_Conv3d_1a
I0905 15:21:36.180274 32713 net.cpp:129] Top shape: 4 64 24 112 112 (77070336)
I0905 15:21:36.180277 32713 net.cpp:137] Memory required for data: 1040449696
I0905 15:21:36.180289 32713 layer_factory.hpp:77] Creating layer relu1a
I0905 15:21:36.180296 32713 net.cpp:84] Creating Layer relu1a
I0905 15:21:36.180301 32713 net.cpp:406] relu1a <- Conv3d_1a
I0905 15:21:36.180307 32713 net.cpp:367] relu1a -> Conv3d_1a (in-place)
I0905 15:21:36.180533 32713 net.cpp:122] Setting up relu1a
I0905 15:21:36.180546 32713 net.cpp:129] Top shape: 4 64 24 112 112 (77070336)
I0905 15:21:36.180549 32713 net.cpp:137] Memory required for data: 1348731040
I0905 15:21:36.180553 32713 layer_factory.hpp:77] Creating layer MaxPool3d_2a_3x3
I0905 15:21:36.180570 32713 net.cpp:84] Creating Layer MaxPool3d_2a_3x3
I0905 15:21:36.180574 32713 net.cpp:406] MaxPool3d_2a_3x3 <- Conv3d_1a
I0905 15:21:36.180583 32713 net.cpp:380] MaxPool3d_2a_3x3 -> MaxPool3d_2a_3x3
I0905 15:21:36.180841 32713 net.cpp:122] Setting up MaxPool3d_2a_3x3
I0905 15:21:36.180852 32713 net.cpp:129] Top shape: 4 64 24 56 56 (19267584)
I0905 15:21:36.180855 32713 net.cpp:137] Memory required for data: 1425801376
I0905 15:21:36.180860 32713 layer_factory.hpp:77] Creating layer Conv3d_2b
I0905 15:21:36.180874 32713 net.cpp:84] Creating Layer Conv3d_2b
I0905 15:21:36.180878 32713 net.cpp:406] Conv3d_2b <- MaxPool3d_2a_3x3
I0905 15:21:36.180886 32713 net.cpp:380] Conv3d_2b -> Conv3d_2b
I0905 15:21:36.182963 32713 net.cpp:122] Setting up Conv3d_2b
I0905 15:21:36.182981 32713 net.cpp:129] Top shape: 4 64 24 56 56 (19267584)
I0905 15:21:36.182986 32713 net.cpp:137] Memory required for data: 1502871712
I0905 15:21:36.182991 32713 layer_factory.hpp:77] Creating layer bn_Conv3d_2b
I0905 15:21:36.183001 32713 net.cpp:84] Creating Layer bn_Conv3d_2b
I0905 15:21:36.183006 32713 net.cpp:406] bn_Conv3d_2b <- Conv3d_2b
I0905 15:21:36.183012 32713 net.cpp:367] bn_Conv3d_2b -> Conv3d_2b (in-place)
I0905 15:21:36.183290 32713 net.cpp:122] Setting up bn_Conv3d_2b
I0905 15:21:36.183300 32713 net.cpp:129] Top shape: 4 64 24 56 56 (19267584)
I0905 15:21:36.183305 32713 net.cpp:137] Memory required for data: 1579942048
I0905 15:21:36.183316 32713 layer_factory.hpp:77] Creating layer sacle_Conv3d_2b
I0905 15:21:36.183326 32713 net.cpp:84] Creating Layer sacle_Conv3d_2b
I0905 15:21:36.183329 32713 net.cpp:406] sacle_Conv3d_2b <- Conv3d_2b
I0905 15:21:36.183336 32713 net.cpp:367] sacle_Conv3d_2b -> Conv3d_2b (in-place)
I0905 15:21:36.183437 32713 layer_factory.hpp:77] Creating layer sacle_Conv3d_2b
I0905 15:21:36.183681 32713 net.cpp:122] Setting up sacle_Conv3d_2b
I0905 15:21:36.183691 32713 net.cpp:129] Top shape: 4 64 24 56 56 (19267584)
I0905 15:21:36.183694 32713 net.cpp:137] Memory required for data: 1657012384
I0905 15:21:36.183701 32713 layer_factory.hpp:77] Creating layer relu2b
I0905 15:21:36.183707 32713 net.cpp:84] Creating Layer relu2b
I0905 15:21:36.183712 32713 net.cpp:406] relu2b <- Conv3d_2b
I0905 15:21:36.183717 32713 net.cpp:367] relu2b -> Conv3d_2b (in-place)
I0905 15:21:36.183923 32713 net.cpp:122] Setting up relu2b
I0905 15:21:36.183934 32713 net.cpp:129] Top shape: 4 64 24 56 56 (19267584)
I0905 15:21:36.183938 32713 net.cpp:137] Memory required for data: 1734082720
I0905 15:21:36.183943 32713 layer_factory.hpp:77] Creating layer Conv3d_2c_dw
I0905 15:21:36.183954 32713 net.cpp:84] Creating Layer Conv3d_2c_dw
I0905 15:21:36.183956 32713 net.cpp:406] Conv3d_2c_dw <- Conv3d_2b
I0905 15:21:36.183965 32713 net.cpp:380] Conv3d_2c_dw -> Conv3d_2c_dw
I0905 15:21:36.184844 32713 net.cpp:122] Setting up Conv3d_2c_dw
I0905 15:21:36.184860 32713 net.cpp:129] Top shape: 4 64 24 56 56 (19267584)
I0905 15:21:36.184864 32713 net.cpp:137] Memory required for data: 1811153056
I0905 15:21:36.184871 32713 layer_factory.hpp:77] Creating layer relu2c_dw
I0905 15:21:36.184877 32713 net.cpp:84] Creating Layer relu2c_dw
I0905 15:21:36.184881 32713 net.cpp:406] relu2c_dw <- Conv3d_2c_dw
I0905 15:21:36.184887 32713 net.cpp:367] relu2c_dw -> Conv3d_2c_dw (in-place)
I0905 15:21:36.185292 32713 net.cpp:122] Setting up relu2c_dw
I0905 15:21:36.185305 32713 net.cpp:129] Top shape: 4 64 24 56 56 (19267584)
I0905 15:21:36.185308 32713 net.cpp:137] Memory required for data: 1888223392
I0905 15:21:36.185312 32713 layer_factory.hpp:77] Creating layer Conv3d_2c
I0905 15:21:36.185323 32713 net.cpp:84] Creating Layer Conv3d_2c
I0905 15:21:36.185328 32713 net.cpp:406] Conv3d_2c <- Conv3d_2c_dw
I0905 15:21:36.185335 32713 net.cpp:380] Conv3d_2c -> Conv3d_2c
I0905 15:21:36.187315 32713 net.cpp:122] Setting up Conv3d_2c
I0905 15:21:36.187335 32713 net.cpp:129] Top shape: 4 192 24 56 56 (57802752)
I0905 15:21:36.187338 32713 net.cpp:137] Memory required for data: 2119434400
I0905 15:21:36.187345 32713 layer_factory.hpp:77] Creating layer bn_Conv3d_2c
I0905 15:21:36.187352 32713 net.cpp:84] Creating Layer bn_Conv3d_2c
I0905 15:21:36.187357 32713 net.cpp:406] bn_Conv3d_2c <- Conv3d_2c
I0905 15:21:36.187364 32713 net.cpp:367] bn_Conv3d_2c -> Conv3d_2c (in-place)
I0905 15:21:36.187649 32713 net.cpp:122] Setting up bn_Conv3d_2c
I0905 15:21:36.187659 32713 net.cpp:129] Top shape: 4 192 24 56 56 (57802752)
I0905 15:21:36.187662 32713 net.cpp:137] Memory required for data: 2350645408
I0905 15:21:36.187674 32713 layer_factory.hpp:77] Creating layer sacle_Conv3d_2c
I0905 15:21:36.187685 32713 net.cpp:84] Creating Layer sacle_Conv3d_2c
I0905 15:21:36.187687 32713 net.cpp:406] sacle_Conv3d_2c <- Conv3d_2c
I0905 15:21:36.187695 32713 net.cpp:367] sacle_Conv3d_2c -> Conv3d_2c (in-place)
I0905 15:21:36.187741 32713 layer_factory.hpp:77] Creating layer sacle_Conv3d_2c
I0905 15:21:36.189155 32713 net.cpp:122] Setting up sacle_Conv3d_2c
I0905 15:21:36.189172 32713 net.cpp:129] Top shape: 4 192 24 56 56 (57802752)
I0905 15:21:36.189177 32713 net.cpp:137] Memory required for data: 2581856416
I0905 15:21:36.189184 32713 layer_factory.hpp:77] Creating layer relu2c
I0905 15:21:36.189193 32713 net.cpp:84] Creating Layer relu2c
I0905 15:21:36.189198 32713 net.cpp:406] relu2c <- Conv3d_2c
I0905 15:21:36.189205 32713 net.cpp:367] relu2c -> Conv3d_2c (in-place)
I0905 15:21:36.189625 32713 net.cpp:122] Setting up relu2c
I0905 15:21:36.189642 32713 net.cpp:129] Top shape: 4 192 24 56 56 (57802752)
I0905 15:21:36.189646 32713 net.cpp:137] Memory required for data: 2813067424
I0905 15:21:36.189651 32713 layer_factory.hpp:77] Creating layer MaxPool3d_3a_3x3
I0905 15:21:36.189661 32713 net.cpp:84] Creating Layer MaxPool3d_3a_3x3
I0905 15:21:36.189666 32713 net.cpp:406] MaxPool3d_3a_3x3 <- Conv3d_2c
I0905 15:21:36.189697 32713 net.cpp:380] MaxPool3d_3a_3x3 -> MaxPool3d_3a_3x3
I0905 15:21:36.189955 32713 net.cpp:122] Setting up MaxPool3d_3a_3x3
I0905 15:21:36.189965 32713 net.cpp:129] Top shape: 4 192 24 28 28 (14450688)
I0905 15:21:36.189970 32713 net.cpp:137] Memory required for data: 2870870176
I0905 15:21:36.189972 32713 layer_factory.hpp:77] Creating layer MaxPool3d_3a_3x3_MaxPool3d_3a_3x3_0_split
I0905 15:21:36.189982 32713 net.cpp:84] Creating Layer MaxPool3d_3a_3x3_MaxPool3d_3a_3x3_0_split
I0905 15:21:36.189986 32713 net.cpp:406] MaxPool3d_3a_3x3_MaxPool3d_3a_3x3_0_split <- MaxPool3d_3a_3x3
I0905 15:21:36.189993 32713 net.cpp:380] MaxPool3d_3a_3x3_MaxPool3d_3a_3x3_0_split -> MaxPool3d_3a_3x3_MaxPool3d_3a_3x3_0_split_0
I0905 15:21:36.190001 32713 net.cpp:380] MaxPool3d_3a_3x3_MaxPool3d_3a_3x3_0_split -> MaxPool3d_3a_3x3_MaxPool3d_3a_3x3_0_split_1
I0905 15:21:36.190009 32713 net.cpp:380] MaxPool3d_3a_3x3_MaxPool3d_3a_3x3_0_split -> MaxPool3d_3a_3x3_MaxPool3d_3a_3x3_0_split_2
I0905 15:21:36.190016 32713 net.cpp:380] MaxPool3d_3a_3x3_MaxPool3d_3a_3x3_0_split -> MaxPool3d_3a_3x3_MaxPool3d_3a_3x3_0_split_3
I0905 15:21:36.190085 32713 net.cpp:122] Setting up MaxPool3d_3a_3x3_MaxPool3d_3a_3x3_0_split
I0905 15:21:36.190093 32713 net.cpp:129] Top shape: 4 192 24 28 28 (14450688)
I0905 15:21:36.190099 32713 net.cpp:129] Top shape: 4 192 24 28 28 (14450688)
I0905 15:21:36.190104 32713 net.cpp:129] Top shape: 4 192 24 28 28 (14450688)
I0905 15:21:36.190107 32713 net.cpp:129] Top shape: 4 192 24 28 28 (14450688)
I0905 15:21:36.190110 32713 net.cpp:137] Memory required for data: 3102081184
I0905 15:21:36.190114 32713 layer_factory.hpp:77] Creating layer Mixed_3b_branch_0_1x1
I0905 15:21:36.190124 32713 net.cpp:84] Creating Layer Mixed_3b_branch_0_1x1
I0905 15:21:36.190130 32713 net.cpp:406] Mixed_3b_branch_0_1x1 <- MaxPool3d_3a_3x3_MaxPool3d_3a_3x3_0_split_0
I0905 15:21:36.190138 32713 net.cpp:380] Mixed_3b_branch_0_1x1 -> Mixed_3b_branch_0_1x1
I0905 15:21:36.191133 32713 net.cpp:122] Setting up Mixed_3b_branch_0_1x1
I0905 15:21:36.191151 32713 net.cpp:129] Top shape: 4 64 24 28 28 (4816896)
I0905 15:21:36.191155 32713 net.cpp:137] Memory required for data: 3121348768
I0905 15:21:36.191161 32713 layer_factory.hpp:77] Creating layer bn_Mixed_3b_branch_0_1x1
I0905 15:21:36.191171 32713 net.cpp:84] Creating Layer bn_Mixed_3b_branch_0_1x1
I0905 15:21:36.191176 32713 net.cpp:406] bn_Mixed_3b_branch_0_1x1 <- Mixed_3b_branch_0_1x1
I0905 15:21:36.191184 32713 net.cpp:367] bn_Mixed_3b_branch_0_1x1 -> Mixed_3b_branch_0_1x1 (in-place)
I0905 15:21:36.192615 32713 net.cpp:122] Setting up bn_Mixed_3b_branch_0_1x1
I0905 15:21:36.192631 32713 net.cpp:129] Top shape: 4 64 24 28 28 (4816896)
I0905 15:21:36.192636 32713 net.cpp:137] Memory required for data: 3140616352
I0905 15:21:36.192646 32713 layer_factory.hpp:77] Creating layer sacle_Mixed_3b_branch_0_1x1
I0905 15:21:36.192654 32713 net.cpp:84] Creating Layer sacle_Mixed_3b_branch_0_1x1
I0905 15:21:36.192659 32713 net.cpp:406] sacle_Mixed_3b_branch_0_1x1 <- Mixed_3b_branch_0_1x1
I0905 15:21:36.192667 32713 net.cpp:367] sacle_Mixed_3b_branch_0_1x1 -> Mixed_3b_branch_0_1x1 (in-place)
I0905 15:21:36.192718 32713 layer_factory.hpp:77] Creating layer sacle_Mixed_3b_branch_0_1x1
I0905 15:21:36.192878 32713 net.cpp:122] Setting up sacle_Mixed_3b_branch_0_1x1
I0905 15:21:36.192889 32713 net.cpp:129] Top shape: 4 64 24 28 28 (4816896)
I0905 15:21:36.192893 32713 net.cpp:137] Memory required for data: 3159883936
I0905 15:21:36.192900 32713 layer_factory.hpp:77] Creating layer relu3b_branch_0_1x1
I0905 15:21:36.192907 32713 net.cpp:84] Creating Layer relu3b_branch_0_1x1
I0905 15:21:36.192912 32713 net.cpp:406] relu3b_branch_0_1x1 <- Mixed_3b_branch_0_1x1
I0905 15:21:36.192919 32713 net.cpp:367] relu3b_branch_0_1x1 -> Mixed_3b_branch_0_1x1 (in-place)
I0905 15:21:36.193142 32713 net.cpp:122] Setting up relu3b_branch_0_1x1
I0905 15:21:36.193153 32713 net.cpp:129] Top shape: 4 64 24 28 28 (4816896)
I0905 15:21:36.193157 32713 net.cpp:137] Memory required for data: 3179151520
I0905 15:21:36.193177 32713 layer_factory.hpp:77] Creating layer Mixed_3b_branch_1_1x1
I0905 15:21:36.193189 32713 net.cpp:84] Creating Layer Mixed_3b_branch_1_1x1
I0905 15:21:36.193193 32713 net.cpp:406] Mixed_3b_branch_1_1x1 <- MaxPool3d_3a_3x3_MaxPool3d_3a_3x3_0_split_1
I0905 15:21:36.193203 32713 net.cpp:380] Mixed_3b_branch_1_1x1 -> Mixed_3b_branch_1_1x1
I0905 15:21:36.194257 32713 net.cpp:122] Setting up Mixed_3b_branch_1_1x1
I0905 15:21:36.194272 32713 net.cpp:129] Top shape: 4 96 24 28 28 (7225344)
I0905 15:21:36.194277 32713 net.cpp:137] Memory required for data: 3208052896
I0905 15:21:36.194284 32713 layer_factory.hpp:77] Creating layer bn_Mixed_3b_branch_1_1x1
I0905 15:21:36.194293 32713 net.cpp:84] Creating Layer bn_Mixed_3b_branch_1_1x1
I0905 15:21:36.194298 32713 net.cpp:406] bn_Mixed_3b_branch_1_1x1 <- Mixed_3b_branch_1_1x1
I0905 15:21:36.194306 32713 net.cpp:367] bn_Mixed_3b_branch_1_1x1 -> Mixed_3b_branch_1_1x1 (in-place)
I0905 15:21:36.194564 32713 net.cpp:122] Setting up bn_Mixed_3b_branch_1_1x1
I0905 15:21:36.194574 32713 net.cpp:129] Top shape: 4 96 24 28 28 (7225344)
I0905 15:21:36.194577 32713 net.cpp:137] Memory required for data: 3236954272
I0905 15:21:36.194586 32713 layer_factory.hpp:77] Creating layer sacle_Mixed_3b_branch_1_1x1
I0905 15:21:36.194594 32713 net.cpp:84] Creating Layer sacle_Mixed_3b_branch_1_1x1
I0905 15:21:36.194599 32713 net.cpp:406] sacle_Mixed_3b_branch_1_1x1 <- Mixed_3b_branch_1_1x1
I0905 15:21:36.194605 32713 net.cpp:367] sacle_Mixed_3b_branch_1_1x1 -> Mixed_3b_branch_1_1x1 (in-place)
I0905 15:21:36.194653 32713 layer_factory.hpp:77] Creating layer sacle_Mixed_3b_branch_1_1x1
I0905 15:21:36.194810 32713 net.cpp:122] Setting up sacle_Mixed_3b_branch_1_1x1
I0905 15:21:36.194819 32713 net.cpp:129] Top shape: 4 96 24 28 28 (7225344)
I0905 15:21:36.194823 32713 net.cpp:137] Memory required for data: 3265855648
I0905 15:21:36.194829 32713 layer_factory.hpp:77] Creating layer relu3b_branch_1_1x1
I0905 15:21:36.194839 32713 net.cpp:84] Creating Layer relu3b_branch_1_1x1
I0905 15:21:36.194842 32713 net.cpp:406] relu3b_branch_1_1x1 <- Mixed_3b_branch_1_1x1
I0905 15:21:36.194847 32713 net.cpp:367] relu3b_branch_1_1x1 -> Mixed_3b_branch_1_1x1 (in-place)
I0905 15:21:36.195055 32713 net.cpp:122] Setting up relu3b_branch_1_1x1
I0905 15:21:36.195066 32713 net.cpp:129] Top shape: 4 96 24 28 28 (7225344)
I0905 15:21:36.195070 32713 net.cpp:137] Memory required for data: 3294757024
I0905 15:21:36.195075 32713 layer_factory.hpp:77] Creating layer Mixed_3b_branch_1_3x3_dw
I0905 15:21:36.195084 32713 net.cpp:84] Creating Layer Mixed_3b_branch_1_3x3_dw
I0905 15:21:36.195091 32713 net.cpp:406] Mixed_3b_branch_1_3x3_dw <- Mixed_3b_branch_1_1x1
I0905 15:21:36.195099 32713 net.cpp:380] Mixed_3b_branch_1_3x3_dw -> Mixed_3b_branch_1_3x3_dw
I0905 15:21:36.196038 32713 net.cpp:122] Setting up Mixed_3b_branch_1_3x3_dw
I0905 15:21:36.196053 32713 net.cpp:129] Top shape: 4 96 24 28 28 (7225344)
I0905 15:21:36.196058 32713 net.cpp:137] Memory required for data: 3323658400
I0905 15:21:36.196064 32713 layer_factory.hpp:77] Creating layer relu3b_branch_1_3x3_dw
I0905 15:21:36.196072 32713 net.cpp:84] Creating Layer relu3b_branch_1_3x3_dw
I0905 15:21:36.196076 32713 net.cpp:406] relu3b_branch_1_3x3_dw <- Mixed_3b_branch_1_3x3_dw
I0905 15:21:36.196084 32713 net.cpp:367] relu3b_branch_1_3x3_dw -> Mixed_3b_branch_1_3x3_dw (in-place)
I0905 15:21:36.196291 32713 net.cpp:122] Setting up relu3b_branch_1_3x3_dw
I0905 15:21:36.196301 32713 net.cpp:129] Top shape: 4 96 24 28 28 (7225344)
I0905 15:21:36.196305 32713 net.cpp:137] Memory required for data: 3352559776
I0905 15:21:36.196310 32713 layer_factory.hpp:77] Creating layer Mixed_3b_branch_1_3x3
I0905 15:21:36.196321 32713 net.cpp:84] Creating Layer Mixed_3b_branch_1_3x3
I0905 15:21:36.196328 32713 net.cpp:406] Mixed_3b_branch_1_3x3 <- Mixed_3b_branch_1_3x3_dw
I0905 15:21:36.196336 32713 net.cpp:380] Mixed_3b_branch_1_3x3 -> Mixed_3b_branch_1_3x3
I0905 15:21:36.197306 32713 net.cpp:122] Setting up Mixed_3b_branch_1_3x3
I0905 15:21:36.197322 32713 net.cpp:129] Top shape: 4 128 24 28 28 (9633792)
I0905 15:21:36.197342 32713 net.cpp:137] Memory required for data: 3391094944
I0905 15:21:36.197355 32713 layer_factory.hpp:77] Creating layer bn_Mixed_3b_branch_1_3x3
I0905 15:21:36.197366 32713 net.cpp:84] Creating Layer bn_Mixed_3b_branch_1_3x3
I0905 15:21:36.197371 32713 net.cpp:406] bn_Mixed_3b_branch_1_3x3 <- Mixed_3b_branch_1_3x3
I0905 15:21:36.197378 32713 net.cpp:367] bn_Mixed_3b_branch_1_3x3 -> Mixed_3b_branch_1_3x3 (in-place)
I0905 15:21:36.197610 32713 net.cpp:122] Setting up bn_Mixed_3b_branch_1_3x3
I0905 15:21:36.197620 32713 net.cpp:129] Top shape: 4 128 24 28 28 (9633792)
I0905 15:21:36.197623 32713 net.cpp:137] Memory required for data: 3429630112
I0905 15:21:36.197631 32713 layer_factory.hpp:77] Creating layer sacle_Mixed_3b_branch_1_3x3
I0905 15:21:36.197643 32713 net.cpp:84] Creating Layer sacle_Mixed_3b_branch_1_3x3
I0905 15:21:36.197647 32713 net.cpp:406] sacle_Mixed_3b_branch_1_3x3 <- Mixed_3b_branch_1_3x3
I0905 15:21:36.197652 32713 net.cpp:367] sacle_Mixed_3b_branch_1_3x3 -> Mixed_3b_branch_1_3x3 (in-place)
I0905 15:21:36.197697 32713 layer_factory.hpp:77] Creating layer sacle_Mixed_3b_branch_1_3x3
I0905 15:21:36.197842 32713 net.cpp:122] Setting up sacle_Mixed_3b_branch_1_3x3
I0905 15:21:36.197852 32713 net.cpp:129] Top shape: 4 128 24 28 28 (9633792)
I0905 15:21:36.197855 32713 net.cpp:137] Memory required for data: 3468165280
I0905 15:21:36.197862 32713 layer_factory.hpp:77] Creating layer relu3b_branch_1_3x3
I0905 15:21:36.197870 32713 net.cpp:84] Creating Layer relu3b_branch_1_3x3
I0905 15:21:36.197875 32713 net.cpp:406] relu3b_branch_1_3x3 <- Mixed_3b_branch_1_3x3
I0905 15:21:36.197880 32713 net.cpp:367] relu3b_branch_1_3x3 -> Mixed_3b_branch_1_3x3 (in-place)
I0905 15:21:36.198299 32713 net.cpp:122] Setting up relu3b_branch_1_3x3
I0905 15:21:36.198313 32713 net.cpp:129] Top shape: 4 128 24 28 28 (9633792)
I0905 15:21:36.198318 32713 net.cpp:137] Memory required for data: 3506700448
I0905 15:21:36.198321 32713 layer_factory.hpp:77] Creating layer Mixed_3b_branch_2_1x1
I0905 15:21:36.198333 32713 net.cpp:84] Creating Layer Mixed_3b_branch_2_1x1
I0905 15:21:36.198338 32713 net.cpp:406] Mixed_3b_branch_2_1x1 <- MaxPool3d_3a_3x3_MaxPool3d_3a_3x3_0_split_2
I0905 15:21:36.198348 32713 net.cpp:380] Mixed_3b_branch_2_1x1 -> Mixed_3b_branch_2_1x1
I0905 15:21:36.199280 32713 net.cpp:122] Setting up Mixed_3b_branch_2_1x1
I0905 15:21:36.199296 32713 net.cpp:129] Top shape: 4 16 24 28 28 (1204224)
I0905 15:21:36.199301 32713 net.cpp:137] Memory required for data: 3511517344
I0905 15:21:36.199307 32713 layer_factory.hpp:77] Creating layer bn_Mixed_3b_branch_2_1x1
I0905 15:21:36.199316 32713 net.cpp:84] Creating Layer bn_Mixed_3b_branch_2_1x1
I0905 15:21:36.199321 32713 net.cpp:406] bn_Mixed_3b_branch_2_1x1 <- Mixed_3b_branch_2_1x1
I0905 15:21:36.199329 32713 net.cpp:367] bn_Mixed_3b_branch_2_1x1 -> Mixed_3b_branch_2_1x1 (in-place)
I0905 15:21:36.199579 32713 net.cpp:122] Setting up bn_Mixed_3b_branch_2_1x1
I0905 15:21:36.199586 32713 net.cpp:129] Top shape: 4 16 24 28 28 (1204224)
I0905 15:21:36.199589 32713 net.cpp:137] Memory required for data: 3516334240
I0905 15:21:36.199597 32713 layer_factory.hpp:77] Creating layer sacle_Mixed_3b_branch_2_1x1
I0905 15:21:36.199606 32713 net.cpp:84] Creating Layer sacle_Mixed_3b_branch_2_1x1
I0905 15:21:36.199610 32713 net.cpp:406] sacle_Mixed_3b_branch_2_1x1 <- Mixed_3b_branch_2_1x1
I0905 15:21:36.199617 32713 net.cpp:367] sacle_Mixed_3b_branch_2_1x1 -> Mixed_3b_branch_2_1x1 (in-place)
I0905 15:21:36.199664 32713 layer_factory.hpp:77] Creating layer sacle_Mixed_3b_branch_2_1x1
I0905 15:21:36.199820 32713 net.cpp:122] Setting up sacle_Mixed_3b_branch_2_1x1
I0905 15:21:36.199829 32713 net.cpp:129] Top shape: 4 16 24 28 28 (1204224)
I0905 15:21:36.199833 32713 net.cpp:137] Memory required for data: 3521151136
I0905 15:21:36.199839 32713 layer_factory.hpp:77] Creating layer relu3b_branch_2_1x1
I0905 15:21:36.199848 32713 net.cpp:84] Creating Layer relu3b_branch_2_1x1
I0905 15:21:36.199854 32713 net.cpp:406] relu3b_branch_2_1x1 <- Mixed_3b_branch_2_1x1
I0905 15:21:36.199879 32713 net.cpp:367] relu3b_branch_2_1x1 -> Mixed_3b_branch_2_1x1 (in-place)
I0905 15:21:36.200096 32713 net.cpp:122] Setting up relu3b_branch_2_1x1
I0905 15:21:36.200109 32713 net.cpp:129] Top shape: 4 16 24 28 28 (1204224)
I0905 15:21:36.200111 32713 net.cpp:137] Memory required for data: 3525968032
I0905 15:21:36.200114 32713 layer_factory.hpp:77] Creating layer Mixed_3b_branch_2_5x5_dw
I0905 15:21:36.200125 32713 net.cpp:84] Creating Layer Mixed_3b_branch_2_5x5_dw
I0905 15:21:36.200130 32713 net.cpp:406] Mixed_3b_branch_2_5x5_dw <- Mixed_3b_branch_2_1x1
I0905 15:21:36.200139 32713 net.cpp:380] Mixed_3b_branch_2_5x5_dw -> Mixed_3b_branch_2_5x5_dw
I0905 15:21:36.201058 32713 net.cpp:122] Setting up Mixed_3b_branch_2_5x5_dw
I0905 15:21:36.201074 32713 net.cpp:129] Top shape: 4 16 24 28 28 (1204224)
I0905 15:21:36.201079 32713 net.cpp:137] Memory required for data: 3530784928
I0905 15:21:36.201086 32713 layer_factory.hpp:77] Creating layer relu3b_branch_2_5x5_dw
I0905 15:21:36.201093 32713 net.cpp:84] Creating Layer relu3b_branch_2_5x5_dw
I0905 15:21:36.201097 32713 net.cpp:406] relu3b_branch_2_5x5_dw <- Mixed_3b_branch_2_5x5_dw
I0905 15:21:36.201105 32713 net.cpp:367] relu3b_branch_2_5x5_dw -> Mixed_3b_branch_2_5x5_dw (in-place)
I0905 15:21:36.201314 32713 net.cpp:122] Setting up relu3b_branch_2_5x5_dw
I0905 15:21:36.201325 32713 net.cpp:129] Top shape: 4 16 24 28 28 (1204224)
I0905 15:21:36.201328 32713 net.cpp:137] Memory required for data: 3535601824
I0905 15:21:36.201333 32713 layer_factory.hpp:77] Creating layer Mixed_3b_branch_2_5x5
I0905 15:21:36.201344 32713 net.cpp:84] Creating Layer Mixed_3b_branch_2_5x5
I0905 15:21:36.201350 32713 net.cpp:406] Mixed_3b_branch_2_5x5 <- Mixed_3b_branch_2_5x5_dw
I0905 15:21:36.201357 32713 net.cpp:380] Mixed_3b_branch_2_5x5 -> Mixed_3b_branch_2_5x5
I0905 15:21:36.203481 32713 net.cpp:122] Setting up Mixed_3b_branch_2_5x5
I0905 15:21:36.203500 32713 net.cpp:129] Top shape: 4 32 24 28 28 (2408448)
I0905 15:21:36.203505 32713 net.cpp:137] Memory required for data: 3545235616
I0905 15:21:36.203511 32713 layer_factory.hpp:77] Creating layer bn_Mixed_3b_branch_2_5x5
I0905 15:21:36.203521 32713 net.cpp:84] Creating Layer bn_Mixed_3b_branch_2_5x5
I0905 15:21:36.203526 32713 net.cpp:406] bn_Mixed_3b_branch_2_5x5 <- Mixed_3b_branch_2_5x5
I0905 15:21:36.203534 32713 net.cpp:367] bn_Mixed_3b_branch_2_5x5 -> Mixed_3b_branch_2_5x5 (in-place)
I0905 15:21:36.203791 32713 net.cpp:122] Setting up bn_Mixed_3b_branch_2_5x5
I0905 15:21:36.203801 32713 net.cpp:129] Top shape: 4 32 24 28 28 (2408448)
I0905 15:21:36.203804 32713 net.cpp:137] Memory required for data: 3554869408
I0905 15:21:36.203812 32713 layer_factory.hpp:77] Creating layer sacle_Mixed_3b_branch_2_5x5
I0905 15:21:36.203821 32713 net.cpp:84] Creating Layer sacle_Mixed_3b_branch_2_5x5
I0905 15:21:36.203825 32713 net.cpp:406] sacle_Mixed_3b_branch_2_5x5 <- Mixed_3b_branch_2_5x5
I0905 15:21:36.203831 32713 net.cpp:367] sacle_Mixed_3b_branch_2_5x5 -> Mixed_3b_branch_2_5x5 (in-place)
I0905 15:21:36.203878 32713 layer_factory.hpp:77] Creating layer sacle_Mixed_3b_branch_2_5x5
I0905 15:21:36.204042 32713 net.cpp:122] Setting up sacle_Mixed_3b_branch_2_5x5
I0905 15:21:36.204052 32713 net.cpp:129] Top shape: 4 32 24 28 28 (2408448)
I0905 15:21:36.204056 32713 net.cpp:137] Memory required for data: 3564503200
I0905 15:21:36.204061 32713 layer_factory.hpp:77] Creating layer relu3b_branch_2_5x5
I0905 15:21:36.204069 32713 net.cpp:84] Creating Layer relu3b_branch_2_5x5
I0905 15:21:36.204074 32713 net.cpp:406] relu3b_branch_2_5x5 <- Mixed_3b_branch_2_5x5
I0905 15:21:36.204080 32713 net.cpp:367] relu3b_branch_2_5x5 -> Mixed_3b_branch_2_5x5 (in-place)
I0905 15:21:36.204311 32713 net.cpp:122] Setting up relu3b_branch_2_5x5
I0905 15:21:36.204321 32713 net.cpp:129] Top shape: 4 32 24 28 28 (2408448)
I0905 15:21:36.204325 32713 net.cpp:137] Memory required for data: 3574136992
I0905 15:21:36.204329 32713 layer_factory.hpp:77] Creating layer Mixed_3b_branch_3_Maxpool
I0905 15:21:36.204339 32713 net.cpp:84] Creating Layer Mixed_3b_branch_3_Maxpool
I0905 15:21:36.204360 32713 net.cpp:406] Mixed_3b_branch_3_Maxpool <- MaxPool3d_3a_3x3_MaxPool3d_3a_3x3_0_split_3
I0905 15:21:36.204370 32713 net.cpp:380] Mixed_3b_branch_3_Maxpool -> Mixed_3b_branch_3_Maxpool
I0905 15:21:36.204633 32713 net.cpp:122] Setting up Mixed_3b_branch_3_Maxpool
I0905 15:21:36.204643 32713 net.cpp:129] Top shape: 4 192 24 28 28 (14450688)
I0905 15:21:36.204648 32713 net.cpp:137] Memory required for data: 3631939744
I0905 15:21:36.204651 32713 layer_factory.hpp:77] Creating layer Mixed_3b_branch_3_1x1
I0905 15:21:36.204663 32713 net.cpp:84] Creating Layer Mixed_3b_branch_3_1x1
I0905 15:21:36.204666 32713 net.cpp:406] Mixed_3b_branch_3_1x1 <- Mixed_3b_branch_3_Maxpool
I0905 15:21:36.204675 32713 net.cpp:380] Mixed_3b_branch_3_1x1 -> Mixed_3b_branch_3_1x1
I0905 15:21:36.205685 32713 net.cpp:122] Setting up Mixed_3b_branch_3_1x1
I0905 15:21:36.205701 32713 net.cpp:129] Top shape: 4 32 24 28 28 (2408448)
I0905 15:21:36.205705 32713 net.cpp:137] Memory required for data: 3641573536
I0905 15:21:36.205711 32713 layer_factory.hpp:77] Creating layer bn_Mixed_3b_branch_3_1x1
I0905 15:21:36.205723 32713 net.cpp:84] Creating Layer bn_Mixed_3b_branch_3_1x1
I0905 15:21:36.205726 32713 net.cpp:406] bn_Mixed_3b_branch_3_1x1 <- Mixed_3b_branch_3_1x1
I0905 15:21:36.205734 32713 net.cpp:367] bn_Mixed_3b_branch_3_1x1 -> Mixed_3b_branch_3_1x1 (in-place)
I0905 15:21:36.205996 32713 net.cpp:122] Setting up bn_Mixed_3b_branch_3_1x1
I0905 15:21:36.206005 32713 net.cpp:129] Top shape: 4 32 24 28 28 (2408448)
I0905 15:21:36.206008 32713 net.cpp:137] Memory required for data: 3651207328
I0905 15:21:36.206017 32713 layer_factory.hpp:77] Creating layer sacle_Mixed_3b_branch_3_1x1
I0905 15:21:36.206027 32713 net.cpp:84] Creating Layer sacle_Mixed_3b_branch_3_1x1
I0905 15:21:36.206032 32713 net.cpp:406] sacle_Mixed_3b_branch_3_1x1 <- Mixed_3b_branch_3_1x1
I0905 15:21:36.206038 32713 net.cpp:367] sacle_Mixed_3b_branch_3_1x1 -> Mixed_3b_branch_3_1x1 (in-place)
I0905 15:21:36.206087 32713 layer_factory.hpp:77] Creating layer sacle_Mixed_3b_branch_3_1x1
I0905 15:21:36.206254 32713 net.cpp:122] Setting up sacle_Mixed_3b_branch_3_1x1
I0905 15:21:36.206265 32713 net.cpp:129] Top shape: 4 32 24 28 28 (2408448)
I0905 15:21:36.206269 32713 net.cpp:137] Memory required for data: 3660841120
I0905 15:21:36.206274 32713 layer_factory.hpp:77] Creating layer relu3b_branch_3_1x1
I0905 15:21:36.206287 32713 net.cpp:84] Creating Layer relu3b_branch_3_1x1
I0905 15:21:36.206295 32713 net.cpp:406] relu3b_branch_3_1x1 <- Mixed_3b_branch_3_1x1
I0905 15:21:36.206300 32713 net.cpp:367] relu3b_branch_3_1x1 -> Mixed_3b_branch_3_1x1 (in-place)
I0905 15:21:36.206742 32713 net.cpp:122] Setting up relu3b_branch_3_1x1
I0905 15:21:36.206758 32713 net.cpp:129] Top shape: 4 32 24 28 28 (2408448)
I0905 15:21:36.206761 32713 net.cpp:137] Memory required for data: 3670474912
I0905 15:21:36.206765 32713 layer_factory.hpp:77] Creating layer Mixed_3b
I0905 15:21:36.206777 32713 net.cpp:84] Creating Layer Mixed_3b
I0905 15:21:36.206781 32713 net.cpp:406] Mixed_3b <- Mixed_3b_branch_0_1x1
I0905 15:21:36.206787 32713 net.cpp:406] Mixed_3b <- Mixed_3b_branch_1_3x3
I0905 15:21:36.206791 32713 net.cpp:406] Mixed_3b <- Mixed_3b_branch_2_5x5
I0905 15:21:36.206795 32713 net.cpp:406] Mixed_3b <- Mixed_3b_branch_3_1x1
I0905 15:21:36.206800 32713 net.cpp:380] Mixed_3b -> Mixed_3b
I0905 15:21:36.206843 32713 net.cpp:122] Setting up Mixed_3b
I0905 15:21:36.206851 32713 net.cpp:129] Top shape: 4 256 24 28 28 (19267584)
I0905 15:21:36.206854 32713 net.cpp:137] Memory required for data: 3747545248
I0905 15:21:36.206858 32713 layer_factory.hpp:77] Creating layer Mixed_3b_Mixed_3b_0_split
I0905 15:21:36.206866 32713 net.cpp:84] Creating Layer Mixed_3b_Mixed_3b_0_split
I0905 15:21:36.206871 32713 net.cpp:406] Mixed_3b_Mixed_3b_0_split <- Mixed_3b
I0905 15:21:36.206878 32713 net.cpp:380] Mixed_3b_Mixed_3b_0_split -> Mixed_3b_Mixed_3b_0_split_0
I0905 15:21:36.206887 32713 net.cpp:380] Mixed_3b_Mixed_3b_0_split -> Mixed_3b_Mixed_3b_0_split_1
I0905 15:21:36.206915 32713 net.cpp:380] Mixed_3b_Mixed_3b_0_split -> Mixed_3b_Mixed_3b_0_split_2
I0905 15:21:36.206925 32713 net.cpp:380] Mixed_3b_Mixed_3b_0_split -> Mixed_3b_Mixed_3b_0_split_3
I0905 15:21:36.207006 32713 net.cpp:122] Setting up Mixed_3b_Mixed_3b_0_split
I0905 15:21:36.207015 32713 net.cpp:129] Top shape: 4 256 24 28 28 (19267584)
I0905 15:21:36.207020 32713 net.cpp:129] Top shape: 4 256 24 28 28 (19267584)
I0905 15:21:36.207023 32713 net.cpp:129] Top shape: 4 256 24 28 28 (19267584)
I0905 15:21:36.207028 32713 net.cpp:129] Top shape: 4 256 24 28 28 (19267584)
I0905 15:21:36.207031 32713 net.cpp:137] Memory required for data: 4055826592
I0905 15:21:36.207036 32713 layer_factory.hpp:77] Creating layer Mixed_3c_branch_0_1x1
I0905 15:21:36.207047 32713 net.cpp:84] Creating Layer Mixed_3c_branch_0_1x1
I0905 15:21:36.207051 32713 net.cpp:406] Mixed_3c_branch_0_1x1 <- Mixed_3b_Mixed_3b_0_split_0
I0905 15:21:36.207060 32713 net.cpp:380] Mixed_3c_branch_0_1x1 -> Mixed_3c_branch_0_1x1
I0905 15:21:36.208055 32713 net.cpp:122] Setting up Mixed_3c_branch_0_1x1
I0905 15:21:36.208065 32713 net.cpp:129] Top shape: 4 128 24 28 28 (9633792)
I0905 15:21:36.208070 32713 net.cpp:137] Memory required for data: 4094361760
I0905 15:21:36.208076 32713 layer_factory.hpp:77] Creating layer bn_Mixed_3c_branch_0_1x1
I0905 15:21:36.208086 32713 net.cpp:84] Creating Layer bn_Mixed_3c_branch_0_1x1
I0905 15:21:36.208091 32713 net.cpp:406] bn_Mixed_3c_branch_0_1x1 <- Mixed_3c_branch_0_1x1
I0905 15:21:36.208096 32713 net.cpp:367] bn_Mixed_3c_branch_0_1x1 -> Mixed_3c_branch_0_1x1 (in-place)
I0905 15:21:36.208349 32713 net.cpp:122] Setting up bn_Mixed_3c_branch_0_1x1
I0905 15:21:36.208359 32713 net.cpp:129] Top shape: 4 128 24 28 28 (9633792)
I0905 15:21:36.208362 32713 net.cpp:137] Memory required for data: 4132896928
I0905 15:21:36.208370 32713 layer_factory.hpp:77] Creating layer sacle_Mixed_3c_branch_0_1x1
I0905 15:21:36.208380 32713 net.cpp:84] Creating Layer sacle_Mixed_3c_branch_0_1x1
I0905 15:21:36.208385 32713 net.cpp:406] sacle_Mixed_3c_branch_0_1x1 <- Mixed_3c_branch_0_1x1
I0905 15:21:36.208390 32713 net.cpp:367] sacle_Mixed_3c_branch_0_1x1 -> Mixed_3c_branch_0_1x1 (in-place)
I0905 15:21:36.208439 32713 layer_factory.hpp:77] Creating layer sacle_Mixed_3c_branch_0_1x1
I0905 15:21:36.208596 32713 net.cpp:122] Setting up sacle_Mixed_3c_branch_0_1x1
I0905 15:21:36.208606 32713 net.cpp:129] Top shape: 4 128 24 28 28 (9633792)
I0905 15:21:36.208609 32713 net.cpp:137] Memory required for data: 4171432096
I0905 15:21:36.208616 32713 layer_factory.hpp:77] Creating layer relu3c_branch_0_1x1
I0905 15:21:36.208622 32713 net.cpp:84] Creating Layer relu3c_branch_0_1x1
I0905 15:21:36.208627 32713 net.cpp:406] relu3c_branch_0_1x1 <- Mixed_3c_branch_0_1x1
I0905 15:21:36.208634 32713 net.cpp:367] relu3c_branch_0_1x1 -> Mixed_3c_branch_0_1x1 (in-place)
I0905 15:21:36.209074 32713 net.cpp:122] Setting up relu3c_branch_0_1x1
I0905 15:21:36.209089 32713 net.cpp:129] Top shape: 4 128 24 28 28 (9633792)
I0905 15:21:36.209094 32713 net.cpp:137] Memory required for data: 4209967264
I0905 15:21:36.209096 32713 layer_factory.hpp:77] Creating layer Mixed_3c_branch_1_1x1
I0905 15:21:36.209110 32713 net.cpp:84] Creating Layer Mixed_3c_branch_1_1x1
I0905 15:21:36.209113 32713 net.cpp:406] Mixed_3c_branch_1_1x1 <- Mixed_3b_Mixed_3b_0_split_1
I0905 15:21:36.209123 32713 net.cpp:380] Mixed_3c_branch_1_1x1 -> Mixed_3c_branch_1_1x1
I0905 15:21:36.210346 32713 net.cpp:122] Setting up Mixed_3c_branch_1_1x1
I0905 15:21:36.210361 32713 net.cpp:129] Top shape: 4 128 24 28 28 (9633792)
I0905 15:21:36.210366 32713 net.cpp:137] Memory required for data: 4248502432
I0905 15:21:36.210372 32713 layer_factory.hpp:77] Creating layer bn_Mixed_3c_branch_1_1x1
I0905 15:21:36.210382 32713 net.cpp:84] Creating Layer bn_Mixed_3c_branch_1_1x1
I0905 15:21:36.210387 32713 net.cpp:406] bn_Mixed_3c_branch_1_1x1 <- Mixed_3c_branch_1_1x1
I0905 15:21:36.210395 32713 net.cpp:367] bn_Mixed_3c_branch_1_1x1 -> Mixed_3c_branch_1_1x1 (in-place)
I0905 15:21:36.210665 32713 net.cpp:122] Setting up bn_Mixed_3c_branch_1_1x1
I0905 15:21:36.210690 32713 net.cpp:129] Top shape: 4 128 24 28 28 (9633792)
I0905 15:21:36.210692 32713 net.cpp:137] Memory required for data: 4287037600
I0905 15:21:36.210708 32713 layer_factory.hpp:77] Creating layer sacle_Mixed_3c_branch_1_1x1
I0905 15:21:36.210721 32713 net.cpp:84] Creating Layer sacle_Mixed_3c_branch_1_1x1
I0905 15:21:36.210723 32713 net.cpp:406] sacle_Mixed_3c_branch_1_1x1 <- Mixed_3c_branch_1_1x1
I0905 15:21:36.210731 32713 net.cpp:367] sacle_Mixed_3c_branch_1_1x1 -> Mixed_3c_branch_1_1x1 (in-place)
I0905 15:21:36.210785 32713 layer_factory.hpp:77] Creating layer sacle_Mixed_3c_branch_1_1x1
I0905 15:21:36.212137 32713 net.cpp:122] Setting up sacle_Mixed_3c_branch_1_1x1
I0905 15:21:36.212152 32713 net.cpp:129] Top shape: 4 128 24 28 28 (9633792)
I0905 15:21:36.212157 32713 net.cpp:137] Memory required for data: 4325572768
I0905 15:21:36.212164 32713 layer_factory.hpp:77] Creating layer relu3c_branch_1_1x1
I0905 15:21:36.212172 32713 net.cpp:84] Creating Layer relu3c_branch_1_1x1
I0905 15:21:36.212177 32713 net.cpp:406] relu3c_branch_1_1x1 <- Mixed_3c_branch_1_1x1
I0905 15:21:36.212183 32713 net.cpp:367] relu3c_branch_1_1x1 -> Mixed_3c_branch_1_1x1 (in-place)
I0905 15:21:36.212429 32713 net.cpp:122] Setting up relu3c_branch_1_1x1
I0905 15:21:36.212440 32713 net.cpp:129] Top shape: 4 128 24 28 28 (9633792)
I0905 15:21:36.212443 32713 net.cpp:137] Memory required for data: 4364107936
I0905 15:21:36.212447 32713 layer_factory.hpp:77] Creating layer Mixed_3c_branch_1_3x3_dw
I0905 15:21:36.212460 32713 net.cpp:84] Creating Layer Mixed_3c_branch_1_3x3_dw
I0905 15:21:36.212465 32713 net.cpp:406] Mixed_3c_branch_1_3x3_dw <- Mixed_3c_branch_1_1x1
I0905 15:21:36.212473 32713 net.cpp:380] Mixed_3c_branch_1_3x3_dw -> Mixed_3c_branch_1_3x3_dw
I0905 15:21:36.213503 32713 net.cpp:122] Setting up Mixed_3c_branch_1_3x3_dw
I0905 15:21:36.213519 32713 net.cpp:129] Top shape: 4 128 24 28 28 (9633792)
I0905 15:21:36.213524 32713 net.cpp:137] Memory required for data: 4402643104
I0905 15:21:36.213531 32713 layer_factory.hpp:77] Creating layer relu3c_branch_1_3x3_dw
I0905 15:21:36.213538 32713 net.cpp:84] Creating Layer relu3c_branch_1_3x3_dw
I0905 15:21:36.213542 32713 net.cpp:406] relu3c_branch_1_3x3_dw <- Mixed_3c_branch_1_3x3_dw
I0905 15:21:36.213552 32713 net.cpp:367] relu3c_branch_1_3x3_dw -> Mixed_3c_branch_1_3x3_dw (in-place)
I0905 15:21:36.213976 32713 net.cpp:122] Setting up relu3c_branch_1_3x3_dw
I0905 15:21:36.213990 32713 net.cpp:129] Top shape: 4 128 24 28 28 (9633792)
I0905 15:21:36.213994 32713 net.cpp:137] Memory required for data: 4441178272
I0905 15:21:36.213999 32713 layer_factory.hpp:77] Creating layer Mixed_3c_branch_1_3x3
I0905 15:21:36.214010 32713 net.cpp:84] Creating Layer Mixed_3c_branch_1_3x3
I0905 15:21:36.214015 32713 net.cpp:406] Mixed_3c_branch_1_3x3 <- Mixed_3c_branch_1_3x3_dw
I0905 15:21:36.214025 32713 net.cpp:380] Mixed_3c_branch_1_3x3 -> Mixed_3c_branch_1_3x3
I0905 15:21:36.215201 32713 net.cpp:122] Setting up Mixed_3c_branch_1_3x3
I0905 15:21:36.215217 32713 net.cpp:129] Top shape: 4 192 24 28 28 (14450688)
I0905 15:21:36.215221 32713 net.cpp:137] Memory required for data: 4498981024
I0905 15:21:36.215227 32713 layer_factory.hpp:77] Creating layer bn_Mixed_3c_branch_1_3x3
I0905 15:21:36.215240 32713 net.cpp:84] Creating Layer bn_Mixed_3c_branch_1_3x3
I0905 15:21:36.215243 32713 net.cpp:406] bn_Mixed_3c_branch_1_3x3 <- Mixed_3c_branch_1_3x3
I0905 15:21:36.215250 32713 net.cpp:367] bn_Mixed_3c_branch_1_3x3 -> Mixed_3c_branch_1_3x3 (in-place)
I0905 15:21:36.215523 32713 net.cpp:122] Setting up bn_Mixed_3c_branch_1_3x3
I0905 15:21:36.215533 32713 net.cpp:129] Top shape: 4 192 24 28 28 (14450688)
I0905 15:21:36.215536 32713 net.cpp:137] Memory required for data: 4556783776
I0905 15:21:36.215544 32713 layer_factory.hpp:77] Creating layer sacle_Mixed_3c_branch_1_3x3
I0905 15:21:36.215551 32713 net.cpp:84] Creating Layer sacle_Mixed_3c_branch_1_3x3
I0905 15:21:36.215556 32713 net.cpp:406] sacle_Mixed_3c_branch_1_3x3 <- Mixed_3c_branch_1_3x3
I0905 15:21:36.215561 32713 net.cpp:367] sacle_Mixed_3c_branch_1_3x3 -> Mixed_3c_branch_1_3x3 (in-place)
I0905 15:21:36.215636 32713 layer_factory.hpp:77] Creating layer sacle_Mixed_3c_branch_1_3x3
I0905 15:21:36.215807 32713 net.cpp:122] Setting up sacle_Mixed_3c_branch_1_3x3
I0905 15:21:36.215817 32713 net.cpp:129] Top shape: 4 192 24 28 28 (14450688)
I0905 15:21:36.215821 32713 net.cpp:137] Memory required for data: 4614586528
I0905 15:21:36.215827 32713 layer_factory.hpp:77] Creating layer relu3c_branch_1_3x3
I0905 15:21:36.215840 32713 net.cpp:84] Creating Layer relu3c_branch_1_3x3
I0905 15:21:36.215847 32713 net.cpp:406] relu3c_branch_1_3x3 <- Mixed_3c_branch_1_3x3
I0905 15:21:36.215852 32713 net.cpp:367] relu3c_branch_1_3x3 -> Mixed_3c_branch_1_3x3 (in-place)
I0905 15:21:36.216084 32713 net.cpp:122] Setting up relu3c_branch_1_3x3
I0905 15:21:36.216097 32713 net.cpp:129] Top shape: 4 192 24 28 28 (14450688)
I0905 15:21:36.216101 32713 net.cpp:137] Memory required for data: 4672389280
I0905 15:21:36.216105 32713 layer_factory.hpp:77] Creating layer Mixed_3c_branch_2_1x1
I0905 15:21:36.216114 32713 net.cpp:84] Creating Layer Mixed_3c_branch_2_1x1
I0905 15:21:36.216118 32713 net.cpp:406] Mixed_3c_branch_2_1x1 <- Mixed_3b_Mixed_3b_0_split_2
I0905 15:21:36.216130 32713 net.cpp:380] Mixed_3c_branch_2_1x1 -> Mixed_3c_branch_2_1x1
I0905 15:21:36.217164 32713 net.cpp:122] Setting up Mixed_3c_branch_2_1x1
I0905 15:21:36.217180 32713 net.cpp:129] Top shape: 4 32 24 28 28 (2408448)
I0905 15:21:36.217183 32713 net.cpp:137] Memory required for data: 4682023072
I0905 15:21:36.217190 32713 layer_factory.hpp:77] Creating layer bn_Mixed_3c_branch_2_1x1
I0905 15:21:36.217203 32713 net.cpp:84] Creating Layer bn_Mixed_3c_branch_2_1x1
I0905 15:21:36.217208 32713 net.cpp:406] bn_Mixed_3c_branch_2_1x1 <- Mixed_3c_branch_2_1x1
I0905 15:21:36.217216 32713 net.cpp:367] bn_Mixed_3c_branch_2_1x1 -> Mixed_3c_branch_2_1x1 (in-place)
I0905 15:21:36.217489 32713 net.cpp:122] Setting up bn_Mixed_3c_branch_2_1x1
I0905 15:21:36.217499 32713 net.cpp:129] Top shape: 4 32 24 28 28 (2408448)
I0905 15:21:36.217501 32713 net.cpp:137] Memory required for data: 4691656864
I0905 15:21:36.217509 32713 layer_factory.hpp:77] Creating layer sacle_Mixed_3c_branch_2_1x1
I0905 15:21:36.217519 32713 net.cpp:84] Creating Layer sacle_Mixed_3c_branch_2_1x1
I0905 15:21:36.217523 32713 net.cpp:406] sacle_Mixed_3c_branch_2_1x1 <- Mixed_3c_branch_2_1x1
I0905 15:21:36.217530 32713 net.cpp:367] sacle_Mixed_3c_branch_2_1x1 -> Mixed_3c_branch_2_1x1 (in-place)
I0905 15:21:36.217581 32713 layer_factory.hpp:77] Creating layer sacle_Mixed_3c_branch_2_1x1
I0905 15:21:36.217756 32713 net.cpp:122] Setting up sacle_Mixed_3c_branch_2_1x1
I0905 15:21:36.217766 32713 net.cpp:129] Top shape: 4 32 24 28 28 (2408448)
I0905 15:21:36.217769 32713 net.cpp:137] Memory required for data: 4701290656
I0905 15:21:36.217775 32713 layer_factory.hpp:77] Creating layer relu3c_branch_2_1x1
I0905 15:21:36.217785 32713 net.cpp:84] Creating Layer relu3c_branch_2_1x1
I0905 15:21:36.217790 32713 net.cpp:406] relu3c_branch_2_1x1 <- Mixed_3c_branch_2_1x1
I0905 15:21:36.217795 32713 net.cpp:367] relu3c_branch_2_1x1 -> Mixed_3c_branch_2_1x1 (in-place)
I0905 15:21:36.218016 32713 net.cpp:122] Setting up relu3c_branch_2_1x1
I0905 15:21:36.218027 32713 net.cpp:129] Top shape: 4 32 24 28 28 (2408448)
I0905 15:21:36.218030 32713 net.cpp:137] Memory required for data: 4710924448
I0905 15:21:36.218034 32713 layer_factory.hpp:77] Creating layer Mixed_3c_branch_2_5x5_dw
I0905 15:21:36.218045 32713 net.cpp:84] Creating Layer Mixed_3c_branch_2_5x5_dw
I0905 15:21:36.218050 32713 net.cpp:406] Mixed_3c_branch_2_5x5_dw <- Mixed_3c_branch_2_1x1
I0905 15:21:36.218060 32713 net.cpp:380] Mixed_3c_branch_2_5x5_dw -> Mixed_3c_branch_2_5x5_dw
I0905 15:21:36.219080 32713 net.cpp:122] Setting up Mixed_3c_branch_2_5x5_dw
I0905 15:21:36.219094 32713 net.cpp:129] Top shape: 4 32 24 28 28 (2408448)
I0905 15:21:36.219099 32713 net.cpp:137] Memory required for data: 4720558240
I0905 15:21:36.219105 32713 layer_factory.hpp:77] Creating layer relu3c_branch_2_5x5_dw
I0905 15:21:36.219127 32713 net.cpp:84] Creating Layer relu3c_branch_2_5x5_dw
I0905 15:21:36.219132 32713 net.cpp:406] relu3c_branch_2_5x5_dw <- Mixed_3c_branch_2_5x5_dw
I0905 15:21:36.219142 32713 net.cpp:367] relu3c_branch_2_5x5_dw -> Mixed_3c_branch_2_5x5_dw (in-place)
I0905 15:21:36.219574 32713 net.cpp:122] Setting up relu3c_branch_2_5x5_dw
I0905 15:21:36.219586 32713 net.cpp:129] Top shape: 4 32 24 28 28 (2408448)
I0905 15:21:36.219589 32713 net.cpp:137] Memory required for data: 4730192032
I0905 15:21:36.219594 32713 layer_factory.hpp:77] Creating layer Mixed_3c_branch_2_5x5
I0905 15:21:36.219606 32713 net.cpp:84] Creating Layer Mixed_3c_branch_2_5x5
I0905 15:21:36.219611 32713 net.cpp:406] Mixed_3c_branch_2_5x5 <- Mixed_3c_branch_2_5x5_dw
I0905 15:21:36.219620 32713 net.cpp:380] Mixed_3c_branch_2_5x5 -> Mixed_3c_branch_2_5x5
I0905 15:21:36.220412 32713 net.cpp:122] Setting up Mixed_3c_branch_2_5x5
I0905 15:21:36.220422 32713 net.cpp:129] Top shape: 4 96 24 28 28 (7225344)
I0905 15:21:36.220425 32713 net.cpp:137] Memory required for data: 4759093408
I0905 15:21:36.220432 32713 layer_factory.hpp:77] Creating layer bn_Mixed_3c_branch_2_5x5
I0905 15:21:36.220441 32713 net.cpp:84] Creating Layer bn_Mixed_3c_branch_2_5x5
I0905 15:21:36.220445 32713 net.cpp:406] bn_Mixed_3c_branch_2_5x5 <- Mixed_3c_branch_2_5x5
I0905 15:21:36.220453 32713 net.cpp:367] bn_Mixed_3c_branch_2_5x5 -> Mixed_3c_branch_2_5x5 (in-place)
I0905 15:21:36.220737 32713 net.cpp:122] Setting up bn_Mixed_3c_branch_2_5x5
I0905 15:21:36.220746 32713 net.cpp:129] Top shape: 4 96 24 28 28 (7225344)
I0905 15:21:36.220748 32713 net.cpp:137] Memory required for data: 4787994784
I0905 15:21:36.220757 32713 layer_factory.hpp:77] Creating layer sacle_Mixed_3c_branch_2_5x5
I0905 15:21:36.220765 32713 net.cpp:84] Creating Layer sacle_Mixed_3c_branch_2_5x5
I0905 15:21:36.220770 32713 net.cpp:406] sacle_Mixed_3c_branch_2_5x5 <- Mixed_3c_branch_2_5x5
I0905 15:21:36.220775 32713 net.cpp:367] sacle_Mixed_3c_branch_2_5x5 -> Mixed_3c_branch_2_5x5 (in-place)
I0905 15:21:36.220827 32713 layer_factory.hpp:77] Creating layer sacle_Mixed_3c_branch_2_5x5
I0905 15:21:36.220999 32713 net.cpp:122] Setting up sacle_Mixed_3c_branch_2_5x5
I0905 15:21:36.221007 32713 net.cpp:129] Top shape: 4 96 24 28 28 (7225344)
I0905 15:21:36.221010 32713 net.cpp:137] Memory required for data: 4816896160
I0905 15:21:36.221017 32713 layer_factory.hpp:77] Creating layer relu3c_branch_2_5x5
I0905 15:21:36.221025 32713 net.cpp:84] Creating Layer relu3c_branch_2_5x5
I0905 15:21:36.221030 32713 net.cpp:406] relu3c_branch_2_5x5 <- Mixed_3c_branch_2_5x5
I0905 15:21:36.221035 32713 net.cpp:367] relu3c_branch_2_5x5 -> Mixed_3c_branch_2_5x5 (in-place)
I0905 15:21:36.221472 32713 net.cpp:122] Setting up relu3c_branch_2_5x5
I0905 15:21:36.221484 32713 net.cpp:129] Top shape: 4 96 24 28 28 (7225344)
I0905 15:21:36.221488 32713 net.cpp:137] Memory required for data: 4845797536
I0905 15:21:36.221493 32713 layer_factory.hpp:77] Creating layer Mixed_3c_branch_3_Maxpool
I0905 15:21:36.221504 32713 net.cpp:84] Creating Layer Mixed_3c_branch_3_Maxpool
I0905 15:21:36.221508 32713 net.cpp:406] Mixed_3c_branch_3_Maxpool <- Mixed_3b_Mixed_3b_0_split_3
I0905 15:21:36.221518 32713 net.cpp:380] Mixed_3c_branch_3_Maxpool -> Mixed_3c_branch_3_Maxpool
I0905 15:21:36.221791 32713 net.cpp:122] Setting up Mixed_3c_branch_3_Maxpool
I0905 15:21:36.221802 32713 net.cpp:129] Top shape: 4 256 24 28 28 (19267584)
I0905 15:21:36.221805 32713 net.cpp:137] Memory required for data: 4922867872
I0905 15:21:36.221810 32713 layer_factory.hpp:77] Creating layer Mixed_3c_branch_3_1x1
I0905 15:21:36.221819 32713 net.cpp:84] Creating Layer Mixed_3c_branch_3_1x1
I0905 15:21:36.221824 32713 net.cpp:406] Mixed_3c_branch_3_1x1 <- Mixed_3c_branch_3_Maxpool
I0905 15:21:36.221833 32713 net.cpp:380] Mixed_3c_branch_3_1x1 -> Mixed_3c_branch_3_1x1
I0905 15:21:36.222949 32713 net.cpp:122] Setting up Mixed_3c_branch_3_1x1
I0905 15:21:36.222962 32713 net.cpp:129] Top shape: 4 64 24 28 28 (4816896)
I0905 15:21:36.222965 32713 net.cpp:137] Memory required for data: 4942135456
I0905 15:21:36.222990 32713 layer_factory.hpp:77] Creating layer bn_Mixed_3c_branch_3_1x1
I0905 15:21:36.223002 32713 net.cpp:84] Creating Layer bn_Mixed_3c_branch_3_1x1
I0905 15:21:36.223006 32713 net.cpp:406] bn_Mixed_3c_branch_3_1x1 <- Mixed_3c_branch_3_1x1
I0905 15:21:36.223016 32713 net.cpp:367] bn_Mixed_3c_branch_3_1x1 -> Mixed_3c_branch_3_1x1 (in-place)
I0905 15:21:36.223295 32713 net.cpp:122] Setting up bn_Mixed_3c_branch_3_1x1
I0905 15:21:36.223304 32713 net.cpp:129] Top shape: 4 64 24 28 28 (4816896)
I0905 15:21:36.223306 32713 net.cpp:137] Memory required for data: 4961403040
I0905 15:21:36.223315 32713 layer_factory.hpp:77] Creating layer sacle_Mixed_3c_branch_3_1x1
I0905 15:21:36.223325 32713 net.cpp:84] Creating Layer sacle_Mixed_3c_branch_3_1x1
I0905 15:21:36.223328 32713 net.cpp:406] sacle_Mixed_3c_branch_3_1x1 <- Mixed_3c_branch_3_1x1
I0905 15:21:36.223335 32713 net.cpp:367] sacle_Mixed_3c_branch_3_1x1 -> Mixed_3c_branch_3_1x1 (in-place)
I0905 15:21:36.223387 32713 layer_factory.hpp:77] Creating layer sacle_Mixed_3c_branch_3_1x1
I0905 15:21:36.223560 32713 net.cpp:122] Setting up sacle_Mixed_3c_branch_3_1x1
I0905 15:21:36.223568 32713 net.cpp:129] Top shape: 4 64 24 28 28 (4816896)
I0905 15:21:36.223572 32713 net.cpp:137] Memory required for data: 4980670624
I0905 15:21:36.223578 32713 layer_factory.hpp:77] Creating layer relu3c_branch_3_1x1
I0905 15:21:36.223587 32713 net.cpp:84] Creating Layer relu3c_branch_3_1x1
I0905 15:21:36.223592 32713 net.cpp:406] relu3c_branch_3_1x1 <- Mixed_3c_branch_3_1x1
I0905 15:21:36.223598 32713 net.cpp:367] relu3c_branch_3_1x1 -> Mixed_3c_branch_3_1x1 (in-place)
I0905 15:21:36.223827 32713 net.cpp:122] Setting up relu3c_branch_3_1x1
I0905 15:21:36.223835 32713 net.cpp:129] Top shape: 4 64 24 28 28 (4816896)
I0905 15:21:36.223839 32713 net.cpp:137] Memory required for data: 4999938208
I0905 15:21:36.223843 32713 layer_factory.hpp:77] Creating layer Mixed_3c
I0905 15:21:36.223853 32713 net.cpp:84] Creating Layer Mixed_3c
I0905 15:21:36.223857 32713 net.cpp:406] Mixed_3c <- Mixed_3c_branch_0_1x1
I0905 15:21:36.223863 32713 net.cpp:406] Mixed_3c <- Mixed_3c_branch_1_3x3
I0905 15:21:36.223867 32713 net.cpp:406] Mixed_3c <- Mixed_3c_branch_2_5x5
I0905 15:21:36.223871 32713 net.cpp:406] Mixed_3c <- Mixed_3c_branch_3_1x1
I0905 15:21:36.223877 32713 net.cpp:380] Mixed_3c -> Mixed_3c
I0905 15:21:36.223914 32713 net.cpp:122] Setting up Mixed_3c
I0905 15:21:36.223920 32713 net.cpp:129] Top shape: 4 480 24 28 28 (36126720)
I0905 15:21:36.223923 32713 net.cpp:137] Memory required for data: 5144445088
I0905 15:21:36.223927 32713 layer_factory.hpp:77] Creating layer MaxPool3d_4a_3x3
I0905 15:21:36.223937 32713 net.cpp:84] Creating Layer MaxPool3d_4a_3x3
I0905 15:21:36.223942 32713 net.cpp:406] MaxPool3d_4a_3x3 <- Mixed_3c
I0905 15:21:36.223948 32713 net.cpp:380] MaxPool3d_4a_3x3 -> MaxPool3d_4a_3x3
I0905 15:21:36.224218 32713 net.cpp:122] Setting up MaxPool3d_4a_3x3
I0905 15:21:36.224227 32713 net.cpp:129] Top shape: 4 480 12 14 14 (4515840)
I0905 15:21:36.224231 32713 net.cpp:137] Memory required for data: 5162508448
I0905 15:21:36.224234 32713 layer_factory.hpp:77] Creating layer MaxPool3d_4a_3x3_MaxPool3d_4a_3x3_0_split
I0905 15:21:36.224243 32713 net.cpp:84] Creating Layer MaxPool3d_4a_3x3_MaxPool3d_4a_3x3_0_split
I0905 15:21:36.224248 32713 net.cpp:406] MaxPool3d_4a_3x3_MaxPool3d_4a_3x3_0_split <- MaxPool3d_4a_3x3
I0905 15:21:36.224256 32713 net.cpp:380] MaxPool3d_4a_3x3_MaxPool3d_4a_3x3_0_split -> MaxPool3d_4a_3x3_MaxPool3d_4a_3x3_0_split_0
I0905 15:21:36.224265 32713 net.cpp:380] MaxPool3d_4a_3x3_MaxPool3d_4a_3x3_0_split -> MaxPool3d_4a_3x3_MaxPool3d_4a_3x3_0_split_1
I0905 15:21:36.224272 32713 net.cpp:380] MaxPool3d_4a_3x3_MaxPool3d_4a_3x3_0_split -> MaxPool3d_4a_3x3_MaxPool3d_4a_3x3_0_split_2
I0905 15:21:36.224282 32713 net.cpp:380] MaxPool3d_4a_3x3_MaxPool3d_4a_3x3_0_split -> MaxPool3d_4a_3x3_MaxPool3d_4a_3x3_0_split_3
I0905 15:21:36.224364 32713 net.cpp:122] Setting up MaxPool3d_4a_3x3_MaxPool3d_4a_3x3_0_split
I0905 15:21:36.224370 32713 net.cpp:129] Top shape: 4 480 12 14 14 (4515840)
I0905 15:21:36.224388 32713 net.cpp:129] Top shape: 4 480 12 14 14 (4515840)
I0905 15:21:36.224395 32713 net.cpp:129] Top shape: 4 480 12 14 14 (4515840)
I0905 15:21:36.224398 32713 net.cpp:129] Top shape: 4 480 12 14 14 (4515840)
I0905 15:21:36.224401 32713 net.cpp:137] Memory required for data: 5234761888
I0905 15:21:36.224404 32713 layer_factory.hpp:77] Creating layer Mixed_4b_branch_0_1x1
I0905 15:21:36.224414 32713 net.cpp:84] Creating Layer Mixed_4b_branch_0_1x1
I0905 15:21:36.224418 32713 net.cpp:406] Mixed_4b_branch_0_1x1 <- MaxPool3d_4a_3x3_MaxPool3d_4a_3x3_0_split_0
I0905 15:21:36.224427 32713 net.cpp:380] Mixed_4b_branch_0_1x1 -> Mixed_4b_branch_0_1x1
I0905 15:21:36.226080 32713 net.cpp:122] Setting up Mixed_4b_branch_0_1x1
I0905 15:21:36.226094 32713 net.cpp:129] Top shape: 4 192 12 14 14 (1806336)
I0905 15:21:36.226097 32713 net.cpp:137] Memory required for data: 5241987232
I0905 15:21:36.226104 32713 layer_factory.hpp:77] Creating layer bn_Mixed_4b_branch_0_1x1
I0905 15:21:36.226114 32713 net.cpp:84] Creating Layer bn_Mixed_4b_branch_0_1x1
I0905 15:21:36.226119 32713 net.cpp:406] bn_Mixed_4b_branch_0_1x1 <- Mixed_4b_branch_0_1x1
I0905 15:21:36.226128 32713 net.cpp:367] bn_Mixed_4b_branch_0_1x1 -> Mixed_4b_branch_0_1x1 (in-place)
I0905 15:21:36.226394 32713 net.cpp:122] Setting up bn_Mixed_4b_branch_0_1x1
I0905 15:21:36.226402 32713 net.cpp:129] Top shape: 4 192 12 14 14 (1806336)
I0905 15:21:36.226405 32713 net.cpp:137] Memory required for data: 5249212576
I0905 15:21:36.226413 32713 layer_factory.hpp:77] Creating layer sacle_Mixed_4b_branch_0_1x1
I0905 15:21:36.226424 32713 net.cpp:84] Creating Layer sacle_Mixed_4b_branch_0_1x1
I0905 15:21:36.226428 32713 net.cpp:406] sacle_Mixed_4b_branch_0_1x1 <- Mixed_4b_branch_0_1x1
I0905 15:21:36.226435 32713 net.cpp:367] sacle_Mixed_4b_branch_0_1x1 -> Mixed_4b_branch_0_1x1 (in-place)
I0905 15:21:36.226496 32713 layer_factory.hpp:77] Creating layer sacle_Mixed_4b_branch_0_1x1
I0905 15:21:36.226660 32713 net.cpp:122] Setting up sacle_Mixed_4b_branch_0_1x1
I0905 15:21:36.226666 32713 net.cpp:129] Top shape: 4 192 12 14 14 (1806336)
I0905 15:21:36.226670 32713 net.cpp:137] Memory required for data: 5256437920
I0905 15:21:36.226676 32713 layer_factory.hpp:77] Creating layer relu4b_branch_0_1x1
I0905 15:21:36.226686 32713 net.cpp:84] Creating Layer relu4b_branch_0_1x1
I0905 15:21:36.226688 32713 net.cpp:406] relu4b_branch_0_1x1 <- Mixed_4b_branch_0_1x1
I0905 15:21:36.226694 32713 net.cpp:367] relu4b_branch_0_1x1 -> Mixed_4b_branch_0_1x1 (in-place)
I0905 15:21:36.227133 32713 net.cpp:122] Setting up relu4b_branch_0_1x1
I0905 15:21:36.227144 32713 net.cpp:129] Top shape: 4 192 12 14 14 (1806336)
I0905 15:21:36.227149 32713 net.cpp:137] Memory required for data: 5263663264
I0905 15:21:36.227152 32713 layer_factory.hpp:77] Creating layer Mixed_4b_branch_1_1x1
I0905 15:21:36.227165 32713 net.cpp:84] Creating Layer Mixed_4b_branch_1_1x1
I0905 15:21:36.227170 32713 net.cpp:406] Mixed_4b_branch_1_1x1 <- MaxPool3d_4a_3x3_MaxPool3d_4a_3x3_0_split_1
I0905 15:21:36.227180 32713 net.cpp:380] Mixed_4b_branch_1_1x1 -> Mixed_4b_branch_1_1x1
I0905 15:21:36.228282 32713 net.cpp:122] Setting up Mixed_4b_branch_1_1x1
I0905 15:21:36.228292 32713 net.cpp:129] Top shape: 4 96 12 14 14 (903168)
I0905 15:21:36.228296 32713 net.cpp:137] Memory required for data: 5267275936
I0905 15:21:36.228302 32713 layer_factory.hpp:77] Creating layer bn_Mixed_4b_branch_1_1x1
I0905 15:21:36.228313 32713 net.cpp:84] Creating Layer bn_Mixed_4b_branch_1_1x1
I0905 15:21:36.228318 32713 net.cpp:406] bn_Mixed_4b_branch_1_1x1 <- Mixed_4b_branch_1_1x1
I0905 15:21:36.228323 32713 net.cpp:367] bn_Mixed_4b_branch_1_1x1 -> Mixed_4b_branch_1_1x1 (in-place)
I0905 15:21:36.228598 32713 net.cpp:122] Setting up bn_Mixed_4b_branch_1_1x1
I0905 15:21:36.228606 32713 net.cpp:129] Top shape: 4 96 12 14 14 (903168)
I0905 15:21:36.228610 32713 net.cpp:137] Memory required for data: 5270888608
I0905 15:21:36.228617 32713 layer_factory.hpp:77] Creating layer sacle_Mixed_4b_branch_1_1x1
I0905 15:21:36.228624 32713 net.cpp:84] Creating Layer sacle_Mixed_4b_branch_1_1x1
I0905 15:21:36.228644 32713 net.cpp:406] sacle_Mixed_4b_branch_1_1x1 <- Mixed_4b_branch_1_1x1
I0905 15:21:36.228652 32713 net.cpp:367] sacle_Mixed_4b_branch_1_1x1 -> Mixed_4b_branch_1_1x1 (in-place)
I0905 15:21:36.228709 32713 layer_factory.hpp:77] Creating layer sacle_Mixed_4b_branch_1_1x1
I0905 15:21:36.228869 32713 net.cpp:122] Setting up sacle_Mixed_4b_branch_1_1x1
I0905 15:21:36.228878 32713 net.cpp:129] Top shape: 4 96 12 14 14 (903168)
I0905 15:21:36.228880 32713 net.cpp:137] Memory required for data: 5274501280
I0905 15:21:36.228888 32713 layer_factory.hpp:77] Creating layer relu4b_branch_1_1x1
I0905 15:21:36.228893 32713 net.cpp:84] Creating Layer relu4b_branch_1_1x1
I0905 15:21:36.228899 32713 net.cpp:406] relu4b_branch_1_1x1 <- Mixed_4b_branch_1_1x1
I0905 15:21:36.228905 32713 net.cpp:367] relu4b_branch_1_1x1 -> Mixed_4b_branch_1_1x1 (in-place)
I0905 15:21:36.229352 32713 net.cpp:122] Setting up relu4b_branch_1_1x1
I0905 15:21:36.229364 32713 net.cpp:129] Top shape: 4 96 12 14 14 (903168)
I0905 15:21:36.229368 32713 net.cpp:137] Memory required for data: 5278113952
I0905 15:21:36.229372 32713 layer_factory.hpp:77] Creating layer Mixed_4b_branch_1_3x3_dw
I0905 15:21:36.229383 32713 net.cpp:84] Creating Layer Mixed_4b_branch_1_3x3_dw
I0905 15:21:36.229387 32713 net.cpp:406] Mixed_4b_branch_1_3x3_dw <- Mixed_4b_branch_1_1x1
I0905 15:21:36.229398 32713 net.cpp:380] Mixed_4b_branch_1_3x3_dw -> Mixed_4b_branch_1_3x3_dw
I0905 15:21:36.230428 32713 net.cpp:122] Setting up Mixed_4b_branch_1_3x3_dw
I0905 15:21:36.230442 32713 net.cpp:129] Top shape: 4 96 12 14 14 (903168)
I0905 15:21:36.230444 32713 net.cpp:137] Memory required for data: 5281726624
I0905 15:21:36.230453 32713 layer_factory.hpp:77] Creating layer relu4b_branch_1_3x3_dw
I0905 15:21:36.230459 32713 net.cpp:84] Creating Layer relu4b_branch_1_3x3_dw
I0905 15:21:36.230464 32713 net.cpp:406] relu4b_branch_1_3x3_dw <- Mixed_4b_branch_1_3x3_dw
I0905 15:21:36.230481 32713 net.cpp:367] relu4b_branch_1_3x3_dw -> Mixed_4b_branch_1_3x3_dw (in-place)
I0905 15:21:36.230717 32713 net.cpp:122] Setting up relu4b_branch_1_3x3_dw
I0905 15:21:36.230727 32713 net.cpp:129] Top shape: 4 96 12 14 14 (903168)
I0905 15:21:36.230731 32713 net.cpp:137] Memory required for data: 5285339296
I0905 15:21:36.230734 32713 layer_factory.hpp:77] Creating layer Mixed_4b_branch_1_3x3
I0905 15:21:36.230744 32713 net.cpp:84] Creating Layer Mixed_4b_branch_1_3x3
I0905 15:21:36.230749 32713 net.cpp:406] Mixed_4b_branch_1_3x3 <- Mixed_4b_branch_1_3x3_dw
I0905 15:21:36.230758 32713 net.cpp:380] Mixed_4b_branch_1_3x3 -> Mixed_4b_branch_1_3x3
I0905 15:21:36.231900 32713 net.cpp:122] Setting up Mixed_4b_branch_1_3x3
I0905 15:21:36.231914 32713 net.cpp:129] Top shape: 4 208 12 14 14 (1956864)
I0905 15:21:36.231918 32713 net.cpp:137] Memory required for data: 5293166752
I0905 15:21:36.231925 32713 layer_factory.hpp:77] Creating layer bn_Mixed_4b_branch_1_3x3
I0905 15:21:36.231935 32713 net.cpp:84] Creating Layer bn_Mixed_4b_branch_1_3x3
I0905 15:21:36.231940 32713 net.cpp:406] bn_Mixed_4b_branch_1_3x3 <- Mixed_4b_branch_1_3x3
I0905 15:21:36.231948 32713 net.cpp:367] bn_Mixed_4b_branch_1_3x3 -> Mixed_4b_branch_1_3x3 (in-place)
I0905 15:21:36.232234 32713 net.cpp:122] Setting up bn_Mixed_4b_branch_1_3x3
I0905 15:21:36.232241 32713 net.cpp:129] Top shape: 4 208 12 14 14 (1956864)
I0905 15:21:36.232245 32713 net.cpp:137] Memory required for data: 5300994208
I0905 15:21:36.232254 32713 layer_factory.hpp:77] Creating layer sacle_Mixed_4b_branch_1_3x3
I0905 15:21:36.232260 32713 net.cpp:84] Creating Layer sacle_Mixed_4b_branch_1_3x3
I0905 15:21:36.232265 32713 net.cpp:406] sacle_Mixed_4b_branch_1_3x3 <- Mixed_4b_branch_1_3x3
I0905 15:21:36.232271 32713 net.cpp:367] sacle_Mixed_4b_branch_1_3x3 -> Mixed_4b_branch_1_3x3 (in-place)
I0905 15:21:36.232327 32713 layer_factory.hpp:77] Creating layer sacle_Mixed_4b_branch_1_3x3
I0905 15:21:36.232491 32713 net.cpp:122] Setting up sacle_Mixed_4b_branch_1_3x3
I0905 15:21:36.232501 32713 net.cpp:129] Top shape: 4 208 12 14 14 (1956864)
I0905 15:21:36.232519 32713 net.cpp:137] Memory required for data: 5308821664
I0905 15:21:36.232527 32713 layer_factory.hpp:77] Creating layer relu4b_branch_1_3x3
I0905 15:21:36.232535 32713 net.cpp:84] Creating Layer relu4b_branch_1_3x3
I0905 15:21:36.232538 32713 net.cpp:406] relu4b_branch_1_3x3 <- Mixed_4b_branch_1_3x3
I0905 15:21:36.232544 32713 net.cpp:367] relu4b_branch_1_3x3 -> Mixed_4b_branch_1_3x3 (in-place)
I0905 15:21:36.232782 32713 net.cpp:122] Setting up relu4b_branch_1_3x3
I0905 15:21:36.232791 32713 net.cpp:129] Top shape: 4 208 12 14 14 (1956864)
I0905 15:21:36.232795 32713 net.cpp:137] Memory required for data: 5316649120
I0905 15:21:36.232798 32713 layer_factory.hpp:77] Creating layer Mixed_4b_branch_2_1x1
I0905 15:21:36.232811 32713 net.cpp:84] Creating Layer Mixed_4b_branch_2_1x1
I0905 15:21:36.232817 32713 net.cpp:406] Mixed_4b_branch_2_1x1 <- MaxPool3d_4a_3x3_MaxPool3d_4a_3x3_0_split_2
I0905 15:21:36.232826 32713 net.cpp:380] Mixed_4b_branch_2_1x1 -> Mixed_4b_branch_2_1x1
I0905 15:21:36.233891 32713 net.cpp:122] Setting up Mixed_4b_branch_2_1x1
I0905 15:21:36.233904 32713 net.cpp:129] Top shape: 4 16 12 14 14 (150528)
I0905 15:21:36.233907 32713 net.cpp:137] Memory required for data: 5317251232
I0905 15:21:36.233913 32713 layer_factory.hpp:77] Creating layer bn_Mixed_4b_branch_2_1x1
I0905 15:21:36.233924 32713 net.cpp:84] Creating Layer bn_Mixed_4b_branch_2_1x1
I0905 15:21:36.233929 32713 net.cpp:406] bn_Mixed_4b_branch_2_1x1 <- Mixed_4b_branch_2_1x1
I0905 15:21:36.233935 32713 net.cpp:367] bn_Mixed_4b_branch_2_1x1 -> Mixed_4b_branch_2_1x1 (in-place)
I0905 15:21:36.234215 32713 net.cpp:122] Setting up bn_Mixed_4b_branch_2_1x1
I0905 15:21:36.234222 32713 net.cpp:129] Top shape: 4 16 12 14 14 (150528)
I0905 15:21:36.234225 32713 net.cpp:137] Memory required for data: 5317853344
I0905 15:21:36.234233 32713 layer_factory.hpp:77] Creating layer sacle_Mixed_4b_branch_2_1x1
I0905 15:21:36.234241 32713 net.cpp:84] Creating Layer sacle_Mixed_4b_branch_2_1x1
I0905 15:21:36.234246 32713 net.cpp:406] sacle_Mixed_4b_branch_2_1x1 <- Mixed_4b_branch_2_1x1
I0905 15:21:36.234252 32713 net.cpp:367] sacle_Mixed_4b_branch_2_1x1 -> Mixed_4b_branch_2_1x1 (in-place)
I0905 15:21:36.234308 32713 layer_factory.hpp:77] Creating layer sacle_Mixed_4b_branch_2_1x1
I0905 15:21:36.234491 32713 net.cpp:122] Setting up sacle_Mixed_4b_branch_2_1x1
I0905 15:21:36.234500 32713 net.cpp:129] Top shape: 4 16 12 14 14 (150528)
I0905 15:21:36.234504 32713 net.cpp:137] Memory required for data: 5318455456
I0905 15:21:36.234510 32713 layer_factory.hpp:77] Creating layer relu4b_branch_2_1x1
I0905 15:21:36.234517 32713 net.cpp:84] Creating Layer relu4b_branch_2_1x1
I0905 15:21:36.234521 32713 net.cpp:406] relu4b_branch_2_1x1 <- Mixed_4b_branch_2_1x1
I0905 15:21:36.234529 32713 net.cpp:367] relu4b_branch_2_1x1 -> Mixed_4b_branch_2_1x1 (in-place)
I0905 15:21:36.234764 32713 net.cpp:122] Setting up relu4b_branch_2_1x1
I0905 15:21:36.234773 32713 net.cpp:129] Top shape: 4 16 12 14 14 (150528)
I0905 15:21:36.234777 32713 net.cpp:137] Memory required for data: 5319057568
I0905 15:21:36.234781 32713 layer_factory.hpp:77] Creating layer Mixed_4b_branch_2_5x5_dw
I0905 15:21:36.234792 32713 net.cpp:84] Creating Layer Mixed_4b_branch_2_5x5_dw
I0905 15:21:36.234797 32713 net.cpp:406] Mixed_4b_branch_2_5x5_dw <- Mixed_4b_branch_2_1x1
I0905 15:21:36.234807 32713 net.cpp:380] Mixed_4b_branch_2_5x5_dw -> Mixed_4b_branch_2_5x5_dw
I0905 15:21:36.235826 32713 net.cpp:122] Setting up Mixed_4b_branch_2_5x5_dw
I0905 15:21:36.235838 32713 net.cpp:129] Top shape: 4 16 12 14 14 (150528)
I0905 15:21:36.235842 32713 net.cpp:137] Memory required for data: 5319659680
I0905 15:21:36.235849 32713 layer_factory.hpp:77] Creating layer relu4b_branch_2_5x5_dw
I0905 15:21:36.235857 32713 net.cpp:84] Creating Layer relu4b_branch_2_5x5_dw
I0905 15:21:36.235860 32713 net.cpp:406] relu4b_branch_2_5x5_dw <- Mixed_4b_branch_2_5x5_dw
I0905 15:21:36.235868 32713 net.cpp:367] relu4b_branch_2_5x5_dw -> Mixed_4b_branch_2_5x5_dw (in-place)
I0905 15:21:36.236102 32713 net.cpp:122] Setting up relu4b_branch_2_5x5_dw
I0905 15:21:36.236125 32713 net.cpp:129] Top shape: 4 16 12 14 14 (150528)
I0905 15:21:36.236129 32713 net.cpp:137] Memory required for data: 5320261792
I0905 15:21:36.236132 32713 layer_factory.hpp:77] Creating layer Mixed_4b_branch_2_5x5
I0905 15:21:36.236145 32713 net.cpp:84] Creating Layer Mixed_4b_branch_2_5x5
I0905 15:21:36.236150 32713 net.cpp:406] Mixed_4b_branch_2_5x5 <- Mixed_4b_branch_2_5x5_dw
I0905 15:21:36.236158 32713 net.cpp:380] Mixed_4b_branch_2_5x5 -> Mixed_4b_branch_2_5x5
I0905 15:21:36.237164 32713 net.cpp:122] Setting up Mixed_4b_branch_2_5x5
I0905 15:21:36.237179 32713 net.cpp:129] Top shape: 4 48 12 14 14 (451584)
I0905 15:21:36.237182 32713 net.cpp:137] Memory required for data: 5322068128
I0905 15:21:36.237188 32713 layer_factory.hpp:77] Creating layer bn_Mixed_4b_branch_2_5x5
I0905 15:21:36.237196 32713 net.cpp:84] Creating Layer bn_Mixed_4b_branch_2_5x5
I0905 15:21:36.237203 32713 net.cpp:406] bn_Mixed_4b_branch_2_5x5 <- Mixed_4b_branch_2_5x5
I0905 15:21:36.237212 32713 net.cpp:367] bn_Mixed_4b_branch_2_5x5 -> Mixed_4b_branch_2_5x5 (in-place)
I0905 15:21:36.237498 32713 net.cpp:122] Setting up bn_Mixed_4b_branch_2_5x5
I0905 15:21:36.237504 32713 net.cpp:129] Top shape: 4 48 12 14 14 (451584)
I0905 15:21:36.237507 32713 net.cpp:137] Memory required for data: 5323874464
I0905 15:21:36.237515 32713 layer_factory.hpp:77] Creating layer sacle_Mixed_4b_branch_2_5x5
I0905 15:21:36.237524 32713 net.cpp:84] Creating Layer sacle_Mixed_4b_branch_2_5x5
I0905 15:21:36.237529 32713 net.cpp:406] sacle_Mixed_4b_branch_2_5x5 <- Mixed_4b_branch_2_5x5
I0905 15:21:36.237534 32713 net.cpp:367] sacle_Mixed_4b_branch_2_5x5 -> Mixed_4b_branch_2_5x5 (in-place)
I0905 15:21:36.237587 32713 layer_factory.hpp:77] Creating layer sacle_Mixed_4b_branch_2_5x5
I0905 15:21:36.237752 32713 net.cpp:122] Setting up sacle_Mixed_4b_branch_2_5x5
I0905 15:21:36.237759 32713 net.cpp:129] Top shape: 4 48 12 14 14 (451584)
I0905 15:21:36.237763 32713 net.cpp:137] Memory required for data: 5325680800
I0905 15:21:36.237769 32713 layer_factory.hpp:77] Creating layer relu4b_branch_2_5x5
I0905 15:21:36.237776 32713 net.cpp:84] Creating Layer relu4b_branch_2_5x5
I0905 15:21:36.237781 32713 net.cpp:406] relu4b_branch_2_5x5 <- Mixed_4b_branch_2_5x5
I0905 15:21:36.237788 32713 net.cpp:367] relu4b_branch_2_5x5 -> Mixed_4b_branch_2_5x5 (in-place)
I0905 15:21:36.238229 32713 net.cpp:122] Setting up relu4b_branch_2_5x5
I0905 15:21:36.238241 32713 net.cpp:129] Top shape: 4 48 12 14 14 (451584)
I0905 15:21:36.238245 32713 net.cpp:137] Memory required for data: 5327487136
I0905 15:21:36.238250 32713 layer_factory.hpp:77] Creating layer Mixed_4b_branch_3_Maxpool
I0905 15:21:36.238261 32713 net.cpp:84] Creating Layer Mixed_4b_branch_3_Maxpool
I0905 15:21:36.238266 32713 net.cpp:406] Mixed_4b_branch_3_Maxpool <- MaxPool3d_4a_3x3_MaxPool3d_4a_3x3_0_split_3
I0905 15:21:36.238276 32713 net.cpp:380] Mixed_4b_branch_3_Maxpool -> Mixed_4b_branch_3_Maxpool
I0905 15:21:36.238569 32713 net.cpp:122] Setting up Mixed_4b_branch_3_Maxpool
I0905 15:21:36.238580 32713 net.cpp:129] Top shape: 4 480 12 14 14 (4515840)
I0905 15:21:36.238584 32713 net.cpp:137] Memory required for data: 5345550496
I0905 15:21:36.238586 32713 layer_factory.hpp:77] Creating layer Mixed_4b_branch_3_1x1
I0905 15:21:36.238600 32713 net.cpp:84] Creating Layer Mixed_4b_branch_3_1x1
I0905 15:21:36.238605 32713 net.cpp:406] Mixed_4b_branch_3_1x1 <- Mixed_4b_branch_3_Maxpool
I0905 15:21:36.238612 32713 net.cpp:380] Mixed_4b_branch_3_1x1 -> Mixed_4b_branch_3_1x1
I0905 15:21:36.239872 32713 net.cpp:122] Setting up Mixed_4b_branch_3_1x1
I0905 15:21:36.239887 32713 net.cpp:129] Top shape: 4 64 12 14 14 (602112)
I0905 15:21:36.239890 32713 net.cpp:137] Memory required for data: 5347958944
I0905 15:21:36.239897 32713 layer_factory.hpp:77] Creating layer bn_Mixed_4b_branch_3_1x1
I0905 15:21:36.239907 32713 net.cpp:84] Creating Layer bn_Mixed_4b_branch_3_1x1
I0905 15:21:36.239912 32713 net.cpp:406] bn_Mixed_4b_branch_3_1x1 <- Mixed_4b_branch_3_1x1
I0905 15:21:36.239918 32713 net.cpp:367] bn_Mixed_4b_branch_3_1x1 -> Mixed_4b_branch_3_1x1 (in-place)
I0905 15:21:36.240213 32713 net.cpp:122] Setting up bn_Mixed_4b_branch_3_1x1
I0905 15:21:36.240221 32713 net.cpp:129] Top shape: 4 64 12 14 14 (602112)
I0905 15:21:36.240226 32713 net.cpp:137] Memory required for data: 5350367392
I0905 15:21:36.240245 32713 layer_factory.hpp:77] Creating layer sacle_Mixed_4b_branch_3_1x1
I0905 15:21:36.240255 32713 net.cpp:84] Creating Layer sacle_Mixed_4b_branch_3_1x1
I0905 15:21:36.240259 32713 net.cpp:406] sacle_Mixed_4b_branch_3_1x1 <- Mixed_4b_branch_3_1x1
I0905 15:21:36.240267 32713 net.cpp:367] sacle_Mixed_4b_branch_3_1x1 -> Mixed_4b_branch_3_1x1 (in-place)
I0905 15:21:36.240322 32713 layer_factory.hpp:77] Creating layer sacle_Mixed_4b_branch_3_1x1
I0905 15:21:36.240486 32713 net.cpp:122] Setting up sacle_Mixed_4b_branch_3_1x1
I0905 15:21:36.240494 32713 net.cpp:129] Top shape: 4 64 12 14 14 (602112)
I0905 15:21:36.240497 32713 net.cpp:137] Memory required for data: 5352775840
I0905 15:21:36.240504 32713 layer_factory.hpp:77] Creating layer relu4b_branch_3_1x1
I0905 15:21:36.240509 32713 net.cpp:84] Creating Layer relu4b_branch_3_1x1
I0905 15:21:36.240514 32713 net.cpp:406] relu4b_branch_3_1x1 <- Mixed_4b_branch_3_1x1
I0905 15:21:36.240521 32713 net.cpp:367] relu4b_branch_3_1x1 -> Mixed_4b_branch_3_1x1 (in-place)
I0905 15:21:36.240756 32713 net.cpp:122] Setting up relu4b_branch_3_1x1
I0905 15:21:36.240763 32713 net.cpp:129] Top shape: 4 64 12 14 14 (602112)
I0905 15:21:36.240767 32713 net.cpp:137] Memory required for data: 5355184288
I0905 15:21:36.240772 32713 layer_factory.hpp:77] Creating layer Mixed_4b
I0905 15:21:36.240778 32713 net.cpp:84] Creating Layer Mixed_4b
I0905 15:21:36.240782 32713 net.cpp:406] Mixed_4b <- Mixed_4b_branch_0_1x1
I0905 15:21:36.240787 32713 net.cpp:406] Mixed_4b <- Mixed_4b_branch_1_3x3
I0905 15:21:36.240792 32713 net.cpp:406] Mixed_4b <- Mixed_4b_branch_2_5x5
I0905 15:21:36.240797 32713 net.cpp:406] Mixed_4b <- Mixed_4b_branch_3_1x1
I0905 15:21:36.240804 32713 net.cpp:380] Mixed_4b -> Mixed_4b
I0905 15:21:36.240839 32713 net.cpp:122] Setting up Mixed_4b
I0905 15:21:36.240852 32713 net.cpp:129] Top shape: 4 512 12 14 14 (4816896)
I0905 15:21:36.240855 32713 net.cpp:137] Memory required for data: 5374451872
I0905 15:21:36.240859 32713 layer_factory.hpp:77] Creating layer Mixed_4b_Mixed_4b_0_split
I0905 15:21:36.240866 32713 net.cpp:84] Creating Layer Mixed_4b_Mixed_4b_0_split
I0905 15:21:36.240871 32713 net.cpp:406] Mixed_4b_Mixed_4b_0_split <- Mixed_4b
I0905 15:21:36.240877 32713 net.cpp:380] Mixed_4b_Mixed_4b_0_split -> Mixed_4b_Mixed_4b_0_split_0
I0905 15:21:36.240886 32713 net.cpp:380] Mixed_4b_Mixed_4b_0_split -> Mixed_4b_Mixed_4b_0_split_1
I0905 15:21:36.240895 32713 net.cpp:380] Mixed_4b_Mixed_4b_0_split -> Mixed_4b_Mixed_4b_0_split_2
I0905 15:21:36.240901 32713 net.cpp:380] Mixed_4b_Mixed_4b_0_split -> Mixed_4b_Mixed_4b_0_split_3
I0905 15:21:36.240984 32713 net.cpp:122] Setting up Mixed_4b_Mixed_4b_0_split
I0905 15:21:36.240990 32713 net.cpp:129] Top shape: 4 512 12 14 14 (4816896)
I0905 15:21:36.240994 32713 net.cpp:129] Top shape: 4 512 12 14 14 (4816896)
I0905 15:21:36.240999 32713 net.cpp:129] Top shape: 4 512 12 14 14 (4816896)
I0905 15:21:36.241003 32713 net.cpp:129] Top shape: 4 512 12 14 14 (4816896)
I0905 15:21:36.241006 32713 net.cpp:137] Memory required for data: 5451522208
I0905 15:21:36.241009 32713 layer_factory.hpp:77] Creating layer Mixed_4c_branch_0_1x1
I0905 15:21:36.241024 32713 net.cpp:84] Creating Layer Mixed_4c_branch_0_1x1
I0905 15:21:36.241030 32713 net.cpp:406] Mixed_4c_branch_0_1x1 <- Mixed_4b_Mixed_4b_0_split_0
I0905 15:21:36.241036 32713 net.cpp:380] Mixed_4c_branch_0_1x1 -> Mixed_4c_branch_0_1x1
I0905 15:21:36.242641 32713 net.cpp:122] Setting up Mixed_4c_branch_0_1x1
I0905 15:21:36.242657 32713 net.cpp:129] Top shape: 4 160 12 14 14 (1505280)
I0905 15:21:36.242661 32713 net.cpp:137] Memory required for data: 5457543328
I0905 15:21:36.242667 32713 layer_factory.hpp:77] Creating layer bn_Mixed_4c_branch_0_1x1
I0905 15:21:36.242676 32713 net.cpp:84] Creating Layer bn_Mixed_4c_branch_0_1x1
I0905 15:21:36.242697 32713 net.cpp:406] bn_Mixed_4c_branch_0_1x1 <- Mixed_4c_branch_0_1x1
I0905 15:21:36.242707 32713 net.cpp:367] bn_Mixed_4c_branch_0_1x1 -> Mixed_4c_branch_0_1x1 (in-place)
I0905 15:21:36.242991 32713 net.cpp:122] Setting up bn_Mixed_4c_branch_0_1x1
I0905 15:21:36.243000 32713 net.cpp:129] Top shape: 4 160 12 14 14 (1505280)
I0905 15:21:36.243003 32713 net.cpp:137] Memory required for data: 5463564448
I0905 15:21:36.243011 32713 layer_factory.hpp:77] Creating layer sacle_Mixed_4c_branch_0_1x1
I0905 15:21:36.243019 32713 net.cpp:84] Creating Layer sacle_Mixed_4c_branch_0_1x1
I0905 15:21:36.243023 32713 net.cpp:406] sacle_Mixed_4c_branch_0_1x1 <- Mixed_4c_branch_0_1x1
I0905 15:21:36.243032 32713 net.cpp:367] sacle_Mixed_4c_branch_0_1x1 -> Mixed_4c_branch_0_1x1 (in-place)
I0905 15:21:36.243085 32713 layer_factory.hpp:77] Creating layer sacle_Mixed_4c_branch_0_1x1
I0905 15:21:36.243250 32713 net.cpp:122] Setting up sacle_Mixed_4c_branch_0_1x1
I0905 15:21:36.243257 32713 net.cpp:129] Top shape: 4 160 12 14 14 (1505280)
I0905 15:21:36.243260 32713 net.cpp:137] Memory required for data: 5469585568
I0905 15:21:36.243268 32713 layer_factory.hpp:77] Creating layer relu4c_branch_0_1x1
I0905 15:21:36.243276 32713 net.cpp:84] Creating Layer relu4c_branch_0_1x1
I0905 15:21:36.243279 32713 net.cpp:406] relu4c_branch_0_1x1 <- Mixed_4c_branch_0_1x1
I0905 15:21:36.243285 32713 net.cpp:367] relu4c_branch_0_1x1 -> Mixed_4c_branch_0_1x1 (in-place)
I0905 15:21:36.243518 32713 net.cpp:122] Setting up relu4c_branch_0_1x1
I0905 15:21:36.243526 32713 net.cpp:129] Top shape: 4 160 12 14 14 (1505280)
I0905 15:21:36.243530 32713 net.cpp:137] Memory required for data: 5475606688
I0905 15:21:36.243535 32713 layer_factory.hpp:77] Creating layer Mixed_4c_branch_1_1x1
I0905 15:21:36.243546 32713 net.cpp:84] Creating Layer Mixed_4c_branch_1_1x1
I0905 15:21:36.243551 32713 net.cpp:406] Mixed_4c_branch_1_1x1 <- Mixed_4b_Mixed_4b_0_split_1
I0905 15:21:36.243558 32713 net.cpp:380] Mixed_4c_branch_1_1x1 -> Mixed_4c_branch_1_1x1
I0905 15:21:36.244972 32713 net.cpp:122] Setting up Mixed_4c_branch_1_1x1
I0905 15:21:36.244985 32713 net.cpp:129] Top shape: 4 112 12 14 14 (1053696)
I0905 15:21:36.244988 32713 net.cpp:137] Memory required for data: 5479821472
I0905 15:21:36.244995 32713 layer_factory.hpp:77] Creating layer bn_Mixed_4c_branch_1_1x1
I0905 15:21:36.245005 32713 net.cpp:84] Creating Layer bn_Mixed_4c_branch_1_1x1
I0905 15:21:36.245010 32713 net.cpp:406] bn_Mixed_4c_branch_1_1x1 <- Mixed_4c_branch_1_1x1
I0905 15:21:36.245018 32713 net.cpp:367] bn_Mixed_4c_branch_1_1x1 -> Mixed_4c_branch_1_1x1 (in-place)
I0905 15:21:36.245302 32713 net.cpp:122] Setting up bn_Mixed_4c_branch_1_1x1
I0905 15:21:36.245311 32713 net.cpp:129] Top shape: 4 112 12 14 14 (1053696)
I0905 15:21:36.245313 32713 net.cpp:137] Memory required for data: 5484036256
I0905 15:21:36.245321 32713 layer_factory.hpp:77] Creating layer sacle_Mixed_4c_branch_1_1x1
I0905 15:21:36.245330 32713 net.cpp:84] Creating Layer sacle_Mixed_4c_branch_1_1x1
I0905 15:21:36.245335 32713 net.cpp:406] sacle_Mixed_4c_branch_1_1x1 <- Mixed_4c_branch_1_1x1
I0905 15:21:36.245342 32713 net.cpp:367] sacle_Mixed_4c_branch_1_1x1 -> Mixed_4c_branch_1_1x1 (in-place)
I0905 15:21:36.245394 32713 layer_factory.hpp:77] Creating layer sacle_Mixed_4c_branch_1_1x1
I0905 15:21:36.245559 32713 net.cpp:122] Setting up sacle_Mixed_4c_branch_1_1x1
I0905 15:21:36.245566 32713 net.cpp:129] Top shape: 4 112 12 14 14 (1053696)
I0905 15:21:36.245570 32713 net.cpp:137] Memory required for data: 5488251040
I0905 15:21:36.245576 32713 layer_factory.hpp:77] Creating layer relu4c_branch_1_1x1
I0905 15:21:36.245584 32713 net.cpp:84] Creating Layer relu4c_branch_1_1x1
I0905 15:21:36.245589 32713 net.cpp:406] relu4c_branch_1_1x1 <- Mixed_4c_branch_1_1x1
I0905 15:21:36.245594 32713 net.cpp:367] relu4c_branch_1_1x1 -> Mixed_4c_branch_1_1x1 (in-place)
I0905 15:21:36.245824 32713 net.cpp:122] Setting up relu4c_branch_1_1x1
I0905 15:21:36.245832 32713 net.cpp:129] Top shape: 4 112 12 14 14 (1053696)
I0905 15:21:36.245851 32713 net.cpp:137] Memory required for data: 5492465824
I0905 15:21:36.245856 32713 layer_factory.hpp:77] Creating layer Mixed_4c_branch_1_3x3_dw
I0905 15:21:36.245867 32713 net.cpp:84] Creating Layer Mixed_4c_branch_1_3x3_dw
I0905 15:21:36.245872 32713 net.cpp:406] Mixed_4c_branch_1_3x3_dw <- Mixed_4c_branch_1_1x1
I0905 15:21:36.245882 32713 net.cpp:380] Mixed_4c_branch_1_3x3_dw -> Mixed_4c_branch_1_3x3_dw
I0905 15:21:36.247109 32713 net.cpp:122] Setting up Mixed_4c_branch_1_3x3_dw
I0905 15:21:36.247123 32713 net.cpp:129] Top shape: 4 112 12 14 14 (1053696)
I0905 15:21:36.247128 32713 net.cpp:137] Memory required for data: 5496680608
I0905 15:21:36.247134 32713 layer_factory.hpp:77] Creating layer relu4c_branch_1_3x3_dw
I0905 15:21:36.247141 32713 net.cpp:84] Creating Layer relu4c_branch_1_3x3_dw
I0905 15:21:36.247145 32713 net.cpp:406] relu4c_branch_1_3x3_dw <- Mixed_4c_branch_1_3x3_dw
I0905 15:21:36.247156 32713 net.cpp:367] relu4c_branch_1_3x3_dw -> Mixed_4c_branch_1_3x3_dw (in-place)
I0905 15:21:36.247593 32713 net.cpp:122] Setting up relu4c_branch_1_3x3_dw
I0905 15:21:36.247606 32713 net.cpp:129] Top shape: 4 112 12 14 14 (1053696)
I0905 15:21:36.247609 32713 net.cpp:137] Memory required for data: 5500895392
I0905 15:21:36.247613 32713 layer_factory.hpp:77] Creating layer Mixed_4c_branch_1_3x3
I0905 15:21:36.247627 32713 net.cpp:84] Creating Layer Mixed_4c_branch_1_3x3
I0905 15:21:36.247630 32713 net.cpp:406] Mixed_4c_branch_1_3x3 <- Mixed_4c_branch_1_3x3_dw
I0905 15:21:36.247643 32713 net.cpp:380] Mixed_4c_branch_1_3x3 -> Mixed_4c_branch_1_3x3
I0905 15:21:36.248597 32713 net.cpp:122] Setting up Mixed_4c_branch_1_3x3
I0905 15:21:36.248608 32713 net.cpp:129] Top shape: 4 224 12 14 14 (2107392)
I0905 15:21:36.248611 32713 net.cpp:137] Memory required for data: 5509324960
I0905 15:21:36.248617 32713 layer_factory.hpp:77] Creating layer bn_Mixed_4c_branch_1_3x3
I0905 15:21:36.248625 32713 net.cpp:84] Creating Layer bn_Mixed_4c_branch_1_3x3
I0905 15:21:36.248630 32713 net.cpp:406] bn_Mixed_4c_branch_1_3x3 <- Mixed_4c_branch_1_3x3
I0905 15:21:36.248637 32713 net.cpp:367] bn_Mixed_4c_branch_1_3x3 -> Mixed_4c_branch_1_3x3 (in-place)
I0905 15:21:36.248920 32713 net.cpp:122] Setting up bn_Mixed_4c_branch_1_3x3
I0905 15:21:36.248926 32713 net.cpp:129] Top shape: 4 224 12 14 14 (2107392)
I0905 15:21:36.248930 32713 net.cpp:137] Memory required for data: 5517754528
I0905 15:21:36.248939 32713 layer_factory.hpp:77] Creating layer sacle_Mixed_4c_branch_1_3x3
I0905 15:21:36.248948 32713 net.cpp:84] Creating Layer sacle_Mixed_4c_branch_1_3x3
I0905 15:21:36.248952 32713 net.cpp:406] sacle_Mixed_4c_branch_1_3x3 <- Mixed_4c_branch_1_3x3
I0905 15:21:36.248958 32713 net.cpp:367] sacle_Mixed_4c_branch_1_3x3 -> Mixed_4c_branch_1_3x3 (in-place)
I0905 15:21:36.249011 32713 layer_factory.hpp:77] Creating layer sacle_Mixed_4c_branch_1_3x3
I0905 15:21:36.249178 32713 net.cpp:122] Setting up sacle_Mixed_4c_branch_1_3x3
I0905 15:21:36.249186 32713 net.cpp:129] Top shape: 4 224 12 14 14 (2107392)
I0905 15:21:36.249188 32713 net.cpp:137] Memory required for data: 5526184096
I0905 15:21:36.249195 32713 layer_factory.hpp:77] Creating layer relu4c_branch_1_3x3
I0905 15:21:36.249202 32713 net.cpp:84] Creating Layer relu4c_branch_1_3x3
I0905 15:21:36.249205 32713 net.cpp:406] relu4c_branch_1_3x3 <- Mixed_4c_branch_1_3x3
I0905 15:21:36.249213 32713 net.cpp:367] relu4c_branch_1_3x3 -> Mixed_4c_branch_1_3x3 (in-place)
I0905 15:21:36.249652 32713 net.cpp:122] Setting up relu4c_branch_1_3x3
I0905 15:21:36.249665 32713 net.cpp:129] Top shape: 4 224 12 14 14 (2107392)
I0905 15:21:36.249667 32713 net.cpp:137] Memory required for data: 5534613664
I0905 15:21:36.249672 32713 layer_factory.hpp:77] Creating layer Mixed_4c_branch_2_1x1
I0905 15:21:36.249696 32713 net.cpp:84] Creating Layer Mixed_4c_branch_2_1x1
I0905 15:21:36.249701 32713 net.cpp:406] Mixed_4c_branch_2_1x1 <- Mixed_4b_Mixed_4b_0_split_2
I0905 15:21:36.249709 32713 net.cpp:380] Mixed_4c_branch_2_1x1 -> Mixed_4c_branch_2_1x1
I0905 15:21:36.250813 32713 net.cpp:122] Setting up Mixed_4c_branch_2_1x1
I0905 15:21:36.250841 32713 net.cpp:129] Top shape: 4 24 12 14 14 (225792)
I0905 15:21:36.250845 32713 net.cpp:137] Memory required for data: 5535516832
I0905 15:21:36.250852 32713 layer_factory.hpp:77] Creating layer bn_Mixed_4c_branch_2_1x1
I0905 15:21:36.250864 32713 net.cpp:84] Creating Layer bn_Mixed_4c_branch_2_1x1
I0905 15:21:36.250869 32713 net.cpp:406] bn_Mixed_4c_branch_2_1x1 <- Mixed_4c_branch_2_1x1
I0905 15:21:36.250876 32713 net.cpp:367] bn_Mixed_4c_branch_2_1x1 -> Mixed_4c_branch_2_1x1 (in-place)
I0905 15:21:36.251171 32713 net.cpp:122] Setting up bn_Mixed_4c_branch_2_1x1
I0905 15:21:36.251179 32713 net.cpp:129] Top shape: 4 24 12 14 14 (225792)
I0905 15:21:36.251183 32713 net.cpp:137] Memory required for data: 5536420000
I0905 15:21:36.251190 32713 layer_factory.hpp:77] Creating layer sacle_Mixed_4c_branch_2_1x1
I0905 15:21:36.251200 32713 net.cpp:84] Creating Layer sacle_Mixed_4c_branch_2_1x1
I0905 15:21:36.251205 32713 net.cpp:406] sacle_Mixed_4c_branch_2_1x1 <- Mixed_4c_branch_2_1x1
I0905 15:21:36.251210 32713 net.cpp:367] sacle_Mixed_4c_branch_2_1x1 -> Mixed_4c_branch_2_1x1 (in-place)
I0905 15:21:36.251266 32713 layer_factory.hpp:77] Creating layer sacle_Mixed_4c_branch_2_1x1
I0905 15:21:36.251431 32713 net.cpp:122] Setting up sacle_Mixed_4c_branch_2_1x1
I0905 15:21:36.251441 32713 net.cpp:129] Top shape: 4 24 12 14 14 (225792)
I0905 15:21:36.251444 32713 net.cpp:137] Memory required for data: 5537323168
I0905 15:21:36.251451 32713 layer_factory.hpp:77] Creating layer relu4c_branch_2_1x1
I0905 15:21:36.251457 32713 net.cpp:84] Creating Layer relu4c_branch_2_1x1
I0905 15:21:36.251462 32713 net.cpp:406] relu4c_branch_2_1x1 <- Mixed_4c_branch_2_1x1
I0905 15:21:36.251467 32713 net.cpp:367] relu4c_branch_2_1x1 -> Mixed_4c_branch_2_1x1 (in-place)
I0905 15:21:36.251705 32713 net.cpp:122] Setting up relu4c_branch_2_1x1
I0905 15:21:36.251713 32713 net.cpp:129] Top shape: 4 24 12 14 14 (225792)
I0905 15:21:36.251718 32713 net.cpp:137] Memory required for data: 5538226336
I0905 15:21:36.251721 32713 layer_factory.hpp:77] Creating layer Mixed_4c_branch_2_5x5_dw
I0905 15:21:36.251734 32713 net.cpp:84] Creating Layer Mixed_4c_branch_2_5x5_dw
I0905 15:21:36.251737 32713 net.cpp:406] Mixed_4c_branch_2_5x5_dw <- Mixed_4c_branch_2_1x1
I0905 15:21:36.251747 32713 net.cpp:380] Mixed_4c_branch_2_5x5_dw -> Mixed_4c_branch_2_5x5_dw
I0905 15:21:36.252789 32713 net.cpp:122] Setting up Mixed_4c_branch_2_5x5_dw
I0905 15:21:36.252804 32713 net.cpp:129] Top shape: 4 24 12 14 14 (225792)
I0905 15:21:36.252806 32713 net.cpp:137] Memory required for data: 5539129504
I0905 15:21:36.252815 32713 layer_factory.hpp:77] Creating layer relu4c_branch_2_5x5_dw
I0905 15:21:36.252821 32713 net.cpp:84] Creating Layer relu4c_branch_2_5x5_dw
I0905 15:21:36.252830 32713 net.cpp:406] relu4c_branch_2_5x5_dw <- Mixed_4c_branch_2_5x5_dw
I0905 15:21:36.252835 32713 net.cpp:367] relu4c_branch_2_5x5_dw -> Mixed_4c_branch_2_5x5_dw (in-place)
I0905 15:21:36.253068 32713 net.cpp:122] Setting up relu4c_branch_2_5x5_dw
I0905 15:21:36.253077 32713 net.cpp:129] Top shape: 4 24 12 14 14 (225792)
I0905 15:21:36.253079 32713 net.cpp:137] Memory required for data: 5540032672
I0905 15:21:36.253083 32713 layer_factory.hpp:77] Creating layer Mixed_4c_branch_2_5x5
I0905 15:21:36.253095 32713 net.cpp:84] Creating Layer Mixed_4c_branch_2_5x5
I0905 15:21:36.253100 32713 net.cpp:406] Mixed_4c_branch_2_5x5 <- Mixed_4c_branch_2_5x5_dw
I0905 15:21:36.253109 32713 net.cpp:380] Mixed_4c_branch_2_5x5 -> Mixed_4c_branch_2_5x5
I0905 15:21:36.254129 32713 net.cpp:122] Setting up Mixed_4c_branch_2_5x5
I0905 15:21:36.254143 32713 net.cpp:129] Top shape: 4 64 12 14 14 (602112)
I0905 15:21:36.254146 32713 net.cpp:137] Memory required for data: 5542441120
I0905 15:21:36.254153 32713 layer_factory.hpp:77] Creating layer bn_Mixed_4c_branch_2_5x5
I0905 15:21:36.254163 32713 net.cpp:84] Creating Layer bn_Mixed_4c_branch_2_5x5
I0905 15:21:36.254168 32713 net.cpp:406] bn_Mixed_4c_branch_2_5x5 <- Mixed_4c_branch_2_5x5
I0905 15:21:36.254174 32713 net.cpp:367] bn_Mixed_4c_branch_2_5x5 -> Mixed_4c_branch_2_5x5 (in-place)
I0905 15:21:36.254477 32713 net.cpp:122] Setting up bn_Mixed_4c_branch_2_5x5
I0905 15:21:36.254485 32713 net.cpp:129] Top shape: 4 64 12 14 14 (602112)
I0905 15:21:36.254489 32713 net.cpp:137] Memory required for data: 5544849568
I0905 15:21:36.254498 32713 layer_factory.hpp:77] Creating layer sacle_Mixed_4c_branch_2_5x5
I0905 15:21:36.254505 32713 net.cpp:84] Creating Layer sacle_Mixed_4c_branch_2_5x5
I0905 15:21:36.254509 32713 net.cpp:406] sacle_Mixed_4c_branch_2_5x5 <- Mixed_4c_branch_2_5x5
I0905 15:21:36.254516 32713 net.cpp:367] sacle_Mixed_4c_branch_2_5x5 -> Mixed_4c_branch_2_5x5 (in-place)
I0905 15:21:36.254573 32713 layer_factory.hpp:77] Creating layer sacle_Mixed_4c_branch_2_5x5
I0905 15:21:36.254745 32713 net.cpp:122] Setting up sacle_Mixed_4c_branch_2_5x5
I0905 15:21:36.254751 32713 net.cpp:129] Top shape: 4 64 12 14 14 (602112)
I0905 15:21:36.254755 32713 net.cpp:137] Memory required for data: 5547258016
I0905 15:21:36.254761 32713 layer_factory.hpp:77] Creating layer relu4c_branch_2_5x5
I0905 15:21:36.254768 32713 net.cpp:84] Creating Layer relu4c_branch_2_5x5
I0905 15:21:36.254772 32713 net.cpp:406] relu4c_branch_2_5x5 <- Mixed_4c_branch_2_5x5
I0905 15:21:36.254781 32713 net.cpp:367] relu4c_branch_2_5x5 -> Mixed_4c_branch_2_5x5 (in-place)
I0905 15:21:36.255018 32713 net.cpp:122] Setting up relu4c_branch_2_5x5
I0905 15:21:36.255026 32713 net.cpp:129] Top shape: 4 64 12 14 14 (602112)
I0905 15:21:36.255029 32713 net.cpp:137] Memory required for data: 5549666464
I0905 15:21:36.255034 32713 layer_factory.hpp:77] Creating layer Mixed_4c_branch_3_Maxpool
I0905 15:21:36.255044 32713 net.cpp:84] Creating Layer Mixed_4c_branch_3_Maxpool
I0905 15:21:36.255048 32713 net.cpp:406] Mixed_4c_branch_3_Maxpool <- Mixed_4b_Mixed_4b_0_split_3
I0905 15:21:36.255059 32713 net.cpp:380] Mixed_4c_branch_3_Maxpool -> Mixed_4c_branch_3_Maxpool
I0905 15:21:36.255337 32713 net.cpp:122] Setting up Mixed_4c_branch_3_Maxpool
I0905 15:21:36.255347 32713 net.cpp:129] Top shape: 4 512 12 14 14 (4816896)
I0905 15:21:36.255349 32713 net.cpp:137] Memory required for data: 5568934048
I0905 15:21:36.255352 32713 layer_factory.hpp:77] Creating layer Mixed_4c_branch_3_1x1
I0905 15:21:36.255368 32713 net.cpp:84] Creating Layer Mixed_4c_branch_3_1x1
I0905 15:21:36.255373 32713 net.cpp:406] Mixed_4c_branch_3_1x1 <- Mixed_4c_branch_3_Maxpool
I0905 15:21:36.255381 32713 net.cpp:380] Mixed_4c_branch_3_1x1 -> Mixed_4c_branch_3_1x1
I0905 15:21:36.256613 32713 net.cpp:122] Setting up Mixed_4c_branch_3_1x1
I0905 15:21:36.256628 32713 net.cpp:129] Top shape: 4 64 12 14 14 (602112)
I0905 15:21:36.256631 32713 net.cpp:137] Memory required for data: 5571342496
I0905 15:21:36.256637 32713 layer_factory.hpp:77] Creating layer bn_Mixed_4c_branch_3_1x1
I0905 15:21:36.256652 32713 net.cpp:84] Creating Layer bn_Mixed_4c_branch_3_1x1
I0905 15:21:36.256660 32713 net.cpp:406] bn_Mixed_4c_branch_3_1x1 <- Mixed_4c_branch_3_1x1
I0905 15:21:36.256666 32713 net.cpp:367] bn_Mixed_4c_branch_3_1x1 -> Mixed_4c_branch_3_1x1 (in-place)
I0905 15:21:36.256953 32713 net.cpp:122] Setting up bn_Mixed_4c_branch_3_1x1
I0905 15:21:36.256960 32713 net.cpp:129] Top shape: 4 64 12 14 14 (602112)
I0905 15:21:36.256964 32713 net.cpp:137] Memory required for data: 5573750944
I0905 15:21:36.256973 32713 layer_factory.hpp:77] Creating layer sacle_Mixed_4c_branch_3_1x1
I0905 15:21:36.256980 32713 net.cpp:84] Creating Layer sacle_Mixed_4c_branch_3_1x1
I0905 15:21:36.256984 32713 net.cpp:406] sacle_Mixed_4c_branch_3_1x1 <- Mixed_4c_branch_3_1x1
I0905 15:21:36.256990 32713 net.cpp:367] sacle_Mixed_4c_branch_3_1x1 -> Mixed_4c_branch_3_1x1 (in-place)
I0905 15:21:36.257046 32713 layer_factory.hpp:77] Creating layer sacle_Mixed_4c_branch_3_1x1
I0905 15:21:36.257218 32713 net.cpp:122] Setting up sacle_Mixed_4c_branch_3_1x1
I0905 15:21:36.257225 32713 net.cpp:129] Top shape: 4 64 12 14 14 (602112)
I0905 15:21:36.257230 32713 net.cpp:137] Memory required for data: 5576159392
I0905 15:21:36.257236 32713 layer_factory.hpp:77] Creating layer relu4c_branch_3_1x1
I0905 15:21:36.257258 32713 net.cpp:84] Creating Layer relu4c_branch_3_1x1
I0905 15:21:36.257262 32713 net.cpp:406] relu4c_branch_3_1x1 <- Mixed_4c_branch_3_1x1
I0905 15:21:36.257272 32713 net.cpp:367] relu4c_branch_3_1x1 -> Mixed_4c_branch_3_1x1 (in-place)
I0905 15:21:36.257725 32713 net.cpp:122] Setting up relu4c_branch_3_1x1
I0905 15:21:36.257738 32713 net.cpp:129] Top shape: 4 64 12 14 14 (602112)
I0905 15:21:36.257742 32713 net.cpp:137] Memory required for data: 5578567840
I0905 15:21:36.257746 32713 layer_factory.hpp:77] Creating layer Mixed_4c
I0905 15:21:36.257755 32713 net.cpp:84] Creating Layer Mixed_4c
I0905 15:21:36.257758 32713 net.cpp:406] Mixed_4c <- Mixed_4c_branch_0_1x1
I0905 15:21:36.257764 32713 net.cpp:406] Mixed_4c <- Mixed_4c_branch_1_3x3
I0905 15:21:36.257769 32713 net.cpp:406] Mixed_4c <- Mixed_4c_branch_2_5x5
I0905 15:21:36.257773 32713 net.cpp:406] Mixed_4c <- Mixed_4c_branch_3_1x1
I0905 15:21:36.257779 32713 net.cpp:380] Mixed_4c -> Mixed_4c
I0905 15:21:36.257820 32713 net.cpp:122] Setting up Mixed_4c
I0905 15:21:36.257828 32713 net.cpp:129] Top shape: 4 512 12 14 14 (4816896)
I0905 15:21:36.257830 32713 net.cpp:137] Memory required for data: 5597835424
I0905 15:21:36.257834 32713 layer_factory.hpp:77] Creating layer Mixed_4c_Mixed_4c_0_split
I0905 15:21:36.257843 32713 net.cpp:84] Creating Layer Mixed_4c_Mixed_4c_0_split
I0905 15:21:36.257848 32713 net.cpp:406] Mixed_4c_Mixed_4c_0_split <- Mixed_4c
I0905 15:21:36.257854 32713 net.cpp:380] Mixed_4c_Mixed_4c_0_split -> Mixed_4c_Mixed_4c_0_split_0
I0905 15:21:36.257861 32713 net.cpp:380] Mixed_4c_Mixed_4c_0_split -> Mixed_4c_Mixed_4c_0_split_1
I0905 15:21:36.257870 32713 net.cpp:380] Mixed_4c_Mixed_4c_0_split -> Mixed_4c_Mixed_4c_0_split_2
I0905 15:21:36.257879 32713 net.cpp:380] Mixed_4c_Mixed_4c_0_split -> Mixed_4c_Mixed_4c_0_split_3
I0905 15:21:36.257966 32713 net.cpp:122] Setting up Mixed_4c_Mixed_4c_0_split
I0905 15:21:36.257972 32713 net.cpp:129] Top shape: 4 512 12 14 14 (4816896)
I0905 15:21:36.257975 32713 net.cpp:129] Top shape: 4 512 12 14 14 (4816896)
I0905 15:21:36.257980 32713 net.cpp:129] Top shape: 4 512 12 14 14 (4816896)
I0905 15:21:36.257984 32713 net.cpp:129] Top shape: 4 512 12 14 14 (4816896)
I0905 15:21:36.257987 32713 net.cpp:137] Memory required for data: 5674905760
I0905 15:21:36.257990 32713 layer_factory.hpp:77] Creating layer Mixed_4d_branch_0_1x1
I0905 15:21:36.258002 32713 net.cpp:84] Creating Layer Mixed_4d_branch_0_1x1
I0905 15:21:36.258005 32713 net.cpp:406] Mixed_4d_branch_0_1x1 <- Mixed_4c_Mixed_4c_0_split_0
I0905 15:21:36.258018 32713 net.cpp:380] Mixed_4d_branch_0_1x1 -> Mixed_4d_branch_0_1x1
I0905 15:21:36.260720 32713 net.cpp:122] Setting up Mixed_4d_branch_0_1x1
I0905 15:21:36.260735 32713 net.cpp:129] Top shape: 4 128 12 14 14 (1204224)
I0905 15:21:36.260740 32713 net.cpp:137] Memory required for data: 5679722656
I0905 15:21:36.260746 32713 layer_factory.hpp:77] Creating layer bn_Mixed_4d_branch_0_1x1
I0905 15:21:36.260756 32713 net.cpp:84] Creating Layer bn_Mixed_4d_branch_0_1x1
I0905 15:21:36.260762 32713 net.cpp:406] bn_Mixed_4d_branch_0_1x1 <- Mixed_4d_branch_0_1x1
I0905 15:21:36.260771 32713 net.cpp:367] bn_Mixed_4d_branch_0_1x1 -> Mixed_4d_branch_0_1x1 (in-place)
I0905 15:21:36.261049 32713 net.cpp:122] Setting up bn_Mixed_4d_branch_0_1x1
I0905 15:21:36.261057 32713 net.cpp:129] Top shape: 4 128 12 14 14 (1204224)
I0905 15:21:36.261060 32713 net.cpp:137] Memory required for data: 5684539552
I0905 15:21:36.261070 32713 layer_factory.hpp:77] Creating layer sacle_Mixed_4d_branch_0_1x1
I0905 15:21:36.261080 32713 net.cpp:84] Creating Layer sacle_Mixed_4d_branch_0_1x1
I0905 15:21:36.261083 32713 net.cpp:406] sacle_Mixed_4d_branch_0_1x1 <- Mixed_4d_branch_0_1x1
I0905 15:21:36.261090 32713 net.cpp:367] sacle_Mixed_4d_branch_0_1x1 -> Mixed_4d_branch_0_1x1 (in-place)
I0905 15:21:36.261143 32713 layer_factory.hpp:77] Creating layer sacle_Mixed_4d_branch_0_1x1
I0905 15:21:36.261304 32713 net.cpp:122] Setting up sacle_Mixed_4d_branch_0_1x1
I0905 15:21:36.261312 32713 net.cpp:129] Top shape: 4 128 12 14 14 (1204224)
I0905 15:21:36.261330 32713 net.cpp:137] Memory required for data: 5689356448
I0905 15:21:36.261338 32713 layer_factory.hpp:77] Creating layer relu4d_branch_0_1x1
I0905 15:21:36.261348 32713 net.cpp:84] Creating Layer relu4d_branch_0_1x1
I0905 15:21:36.261350 32713 net.cpp:406] relu4d_branch_0_1x1 <- Mixed_4d_branch_0_1x1
I0905 15:21:36.261358 32713 net.cpp:367] relu4d_branch_0_1x1 -> Mixed_4d_branch_0_1x1 (in-place)
I0905 15:21:36.261605 32713 net.cpp:122] Setting up relu4d_branch_0_1x1
I0905 15:21:36.261613 32713 net.cpp:129] Top shape: 4 128 12 14 14 (1204224)
I0905 15:21:36.261616 32713 net.cpp:137] Memory required for data: 5694173344
I0905 15:21:36.261621 32713 layer_factory.hpp:77] Creating layer Mixed_4d_branch_1_1x1
I0905 15:21:36.261633 32713 net.cpp:84] Creating Layer Mixed_4d_branch_1_1x1
I0905 15:21:36.261637 32713 net.cpp:406] Mixed_4d_branch_1_1x1 <- Mixed_4c_Mixed_4c_0_split_1
I0905 15:21:36.261649 32713 net.cpp:380] Mixed_4d_branch_1_1x1 -> Mixed_4d_branch_1_1x1
I0905 15:21:36.263147 32713 net.cpp:122] Setting up Mixed_4d_branch_1_1x1
I0905 15:21:36.263161 32713 net.cpp:129] Top shape: 4 128 12 14 14 (1204224)
I0905 15:21:36.263164 32713 net.cpp:137] Memory required for data: 5698990240
I0905 15:21:36.263171 32713 layer_factory.hpp:77] Creating layer bn_Mixed_4d_branch_1_1x1
I0905 15:21:36.263182 32713 net.cpp:84] Creating Layer bn_Mixed_4d_branch_1_1x1
I0905 15:21:36.263186 32713 net.cpp:406] bn_Mixed_4d_branch_1_1x1 <- Mixed_4d_branch_1_1x1
I0905 15:21:36.263195 32713 net.cpp:367] bn_Mixed_4d_branch_1_1x1 -> Mixed_4d_branch_1_1x1 (in-place)
I0905 15:21:36.263481 32713 net.cpp:122] Setting up bn_Mixed_4d_branch_1_1x1
I0905 15:21:36.263489 32713 net.cpp:129] Top shape: 4 128 12 14 14 (1204224)
I0905 15:21:36.263492 32713 net.cpp:137] Memory required for data: 5703807136
I0905 15:21:36.263500 32713 layer_factory.hpp:77] Creating layer sacle_Mixed_4d_branch_1_1x1
I0905 15:21:36.263507 32713 net.cpp:84] Creating Layer sacle_Mixed_4d_branch_1_1x1
I0905 15:21:36.263512 32713 net.cpp:406] sacle_Mixed_4d_branch_1_1x1 <- Mixed_4d_branch_1_1x1
I0905 15:21:36.263520 32713 net.cpp:367] sacle_Mixed_4d_branch_1_1x1 -> Mixed_4d_branch_1_1x1 (in-place)
I0905 15:21:36.263573 32713 layer_factory.hpp:77] Creating layer sacle_Mixed_4d_branch_1_1x1
I0905 15:21:36.263736 32713 net.cpp:122] Setting up sacle_Mixed_4d_branch_1_1x1
I0905 15:21:36.263743 32713 net.cpp:129] Top shape: 4 128 12 14 14 (1204224)
I0905 15:21:36.263746 32713 net.cpp:137] Memory required for data: 5708624032
I0905 15:21:36.263753 32713 layer_factory.hpp:77] Creating layer relu4d_branch_1_1x1
I0905 15:21:36.263759 32713 net.cpp:84] Creating Layer relu4d_branch_1_1x1
I0905 15:21:36.263764 32713 net.cpp:406] relu4d_branch_1_1x1 <- Mixed_4d_branch_1_1x1
I0905 15:21:36.263772 32713 net.cpp:367] relu4d_branch_1_1x1 -> Mixed_4d_branch_1_1x1 (in-place)
I0905 15:21:36.264014 32713 net.cpp:122] Setting up relu4d_branch_1_1x1
I0905 15:21:36.264022 32713 net.cpp:129] Top shape: 4 128 12 14 14 (1204224)
I0905 15:21:36.264026 32713 net.cpp:137] Memory required for data: 5713440928
I0905 15:21:36.264030 32713 layer_factory.hpp:77] Creating layer Mixed_4d_branch_1_3x3_dw
I0905 15:21:36.264042 32713 net.cpp:84] Creating Layer Mixed_4d_branch_1_3x3_dw
I0905 15:21:36.264046 32713 net.cpp:406] Mixed_4d_branch_1_3x3_dw <- Mixed_4d_branch_1_1x1
I0905 15:21:36.264056 32713 net.cpp:380] Mixed_4d_branch_1_3x3_dw -> Mixed_4d_branch_1_3x3_dw
I0905 15:21:36.265118 32713 net.cpp:122] Setting up Mixed_4d_branch_1_3x3_dw
I0905 15:21:36.265131 32713 net.cpp:129] Top shape: 4 128 12 14 14 (1204224)
I0905 15:21:36.265134 32713 net.cpp:137] Memory required for data: 5718257824
I0905 15:21:36.265142 32713 layer_factory.hpp:77] Creating layer relu4d_branch_1_3x3_dw
I0905 15:21:36.265149 32713 net.cpp:84] Creating Layer relu4d_branch_1_3x3_dw
I0905 15:21:36.265154 32713 net.cpp:406] relu4d_branch_1_3x3_dw <- Mixed_4d_branch_1_3x3_dw
I0905 15:21:36.265162 32713 net.cpp:367] relu4d_branch_1_3x3_dw -> Mixed_4d_branch_1_3x3_dw (in-place)
I0905 15:21:36.265410 32713 net.cpp:122] Setting up relu4d_branch_1_3x3_dw
I0905 15:21:36.265434 32713 net.cpp:129] Top shape: 4 128 12 14 14 (1204224)
I0905 15:21:36.265437 32713 net.cpp:137] Memory required for data: 5723074720
I0905 15:21:36.265441 32713 layer_factory.hpp:77] Creating layer Mixed_4d_branch_1_3x3
I0905 15:21:36.265453 32713 net.cpp:84] Creating Layer Mixed_4d_branch_1_3x3
I0905 15:21:36.265458 32713 net.cpp:406] Mixed_4d_branch_1_3x3 <- Mixed_4d_branch_1_3x3_dw
I0905 15:21:36.265465 32713 net.cpp:380] Mixed_4d_branch_1_3x3 -> Mixed_4d_branch_1_3x3
I0905 15:21:36.266732 32713 net.cpp:122] Setting up Mixed_4d_branch_1_3x3
I0905 15:21:36.266747 32713 net.cpp:129] Top shape: 4 256 12 14 14 (2408448)
I0905 15:21:36.266750 32713 net.cpp:137] Memory required for data: 5732708512
I0905 15:21:36.266757 32713 layer_factory.hpp:77] Creating layer bn_Mixed_4d_branch_1_3x3
I0905 15:21:36.266765 32713 net.cpp:84] Creating Layer bn_Mixed_4d_branch_1_3x3
I0905 15:21:36.266770 32713 net.cpp:406] bn_Mixed_4d_branch_1_3x3 <- Mixed_4d_branch_1_3x3
I0905 15:21:36.266778 32713 net.cpp:367] bn_Mixed_4d_branch_1_3x3 -> Mixed_4d_branch_1_3x3 (in-place)
I0905 15:21:36.267055 32713 net.cpp:122] Setting up bn_Mixed_4d_branch_1_3x3
I0905 15:21:36.267061 32713 net.cpp:129] Top shape: 4 256 12 14 14 (2408448)
I0905 15:21:36.267066 32713 net.cpp:137] Memory required for data: 5742342304
I0905 15:21:36.267073 32713 layer_factory.hpp:77] Creating layer sacle_Mixed_4d_branch_1_3x3
I0905 15:21:36.267081 32713 net.cpp:84] Creating Layer sacle_Mixed_4d_branch_1_3x3
I0905 15:21:36.267084 32713 net.cpp:406] sacle_Mixed_4d_branch_1_3x3 <- Mixed_4d_branch_1_3x3
I0905 15:21:36.267092 32713 net.cpp:367] sacle_Mixed_4d_branch_1_3x3 -> Mixed_4d_branch_1_3x3 (in-place)
I0905 15:21:36.267143 32713 layer_factory.hpp:77] Creating layer sacle_Mixed_4d_branch_1_3x3
I0905 15:21:36.267308 32713 net.cpp:122] Setting up sacle_Mixed_4d_branch_1_3x3
I0905 15:21:36.267318 32713 net.cpp:129] Top shape: 4 256 12 14 14 (2408448)
I0905 15:21:36.267321 32713 net.cpp:137] Memory required for data: 5751976096
I0905 15:21:36.267328 32713 layer_factory.hpp:77] Creating layer relu4d_branch_1_3x3
I0905 15:21:36.267334 32713 net.cpp:84] Creating Layer relu4d_branch_1_3x3
I0905 15:21:36.267338 32713 net.cpp:406] relu4d_branch_1_3x3 <- Mixed_4d_branch_1_3x3
I0905 15:21:36.267344 32713 net.cpp:367] relu4d_branch_1_3x3 -> Mixed_4d_branch_1_3x3 (in-place)
I0905 15:21:36.267581 32713 net.cpp:122] Setting up relu4d_branch_1_3x3
I0905 15:21:36.267590 32713 net.cpp:129] Top shape: 4 256 12 14 14 (2408448)
I0905 15:21:36.267593 32713 net.cpp:137] Memory required for data: 5761609888
I0905 15:21:36.267597 32713 layer_factory.hpp:77] Creating layer Mixed_4d_branch_2_1x1
I0905 15:21:36.267609 32713 net.cpp:84] Creating Layer Mixed_4d_branch_2_1x1
I0905 15:21:36.267613 32713 net.cpp:406] Mixed_4d_branch_2_1x1 <- Mixed_4c_Mixed_4c_0_split_2
I0905 15:21:36.267622 32713 net.cpp:380] Mixed_4d_branch_2_1x1 -> Mixed_4d_branch_2_1x1
I0905 15:21:36.268744 32713 net.cpp:122] Setting up Mixed_4d_branch_2_1x1
I0905 15:21:36.268757 32713 net.cpp:129] Top shape: 4 24 12 14 14 (225792)
I0905 15:21:36.268761 32713 net.cpp:137] Memory required for data: 5762513056
I0905 15:21:36.268769 32713 layer_factory.hpp:77] Creating layer bn_Mixed_4d_branch_2_1x1
I0905 15:21:36.268784 32713 net.cpp:84] Creating Layer bn_Mixed_4d_branch_2_1x1
I0905 15:21:36.268787 32713 net.cpp:406] bn_Mixed_4d_branch_2_1x1 <- Mixed_4d_branch_2_1x1
I0905 15:21:36.268793 32713 net.cpp:367] bn_Mixed_4d_branch_2_1x1 -> Mixed_4d_branch_2_1x1 (in-place)
I0905 15:21:36.269088 32713 net.cpp:122] Setting up bn_Mixed_4d_branch_2_1x1
I0905 15:21:36.269096 32713 net.cpp:129] Top shape: 4 24 12 14 14 (225792)
I0905 15:21:36.269099 32713 net.cpp:137] Memory required for data: 5763416224
I0905 15:21:36.269107 32713 layer_factory.hpp:77] Creating layer sacle_Mixed_4d_branch_2_1x1
I0905 15:21:36.269114 32713 net.cpp:84] Creating Layer sacle_Mixed_4d_branch_2_1x1
I0905 15:21:36.269119 32713 net.cpp:406] sacle_Mixed_4d_branch_2_1x1 <- Mixed_4d_branch_2_1x1
I0905 15:21:36.269126 32713 net.cpp:367] sacle_Mixed_4d_branch_2_1x1 -> Mixed_4d_branch_2_1x1 (in-place)
I0905 15:21:36.269201 32713 layer_factory.hpp:77] Creating layer sacle_Mixed_4d_branch_2_1x1
I0905 15:21:36.269374 32713 net.cpp:122] Setting up sacle_Mixed_4d_branch_2_1x1
I0905 15:21:36.269382 32713 net.cpp:129] Top shape: 4 24 12 14 14 (225792)
I0905 15:21:36.269385 32713 net.cpp:137] Memory required for data: 5764319392
I0905 15:21:36.269392 32713 layer_factory.hpp:77] Creating layer relu4d_branch_2_1x1
I0905 15:21:36.269398 32713 net.cpp:84] Creating Layer relu4d_branch_2_1x1
I0905 15:21:36.269402 32713 net.cpp:406] relu4d_branch_2_1x1 <- Mixed_4d_branch_2_1x1
I0905 15:21:36.269410 32713 net.cpp:367] relu4d_branch_2_1x1 -> Mixed_4d_branch_2_1x1 (in-place)
I0905 15:21:36.269656 32713 net.cpp:122] Setting up relu4d_branch_2_1x1
I0905 15:21:36.269665 32713 net.cpp:129] Top shape: 4 24 12 14 14 (225792)
I0905 15:21:36.269670 32713 net.cpp:137] Memory required for data: 5765222560
I0905 15:21:36.269672 32713 layer_factory.hpp:77] Creating layer Mixed_4d_branch_2_5x5_dw
I0905 15:21:36.269683 32713 net.cpp:84] Creating Layer Mixed_4d_branch_2_5x5_dw
I0905 15:21:36.269687 32713 net.cpp:406] Mixed_4d_branch_2_5x5_dw <- Mixed_4d_branch_2_1x1
I0905 15:21:36.269697 32713 net.cpp:380] Mixed_4d_branch_2_5x5_dw -> Mixed_4d_branch_2_5x5_dw
I0905 15:21:36.270771 32713 net.cpp:122] Setting up Mixed_4d_branch_2_5x5_dw
I0905 15:21:36.270783 32713 net.cpp:129] Top shape: 4 24 12 14 14 (225792)
I0905 15:21:36.270787 32713 net.cpp:137] Memory required for data: 5766125728
I0905 15:21:36.270794 32713 layer_factory.hpp:77] Creating layer relu4d_branch_2_5x5_dw
I0905 15:21:36.270802 32713 net.cpp:84] Creating Layer relu4d_branch_2_5x5_dw
I0905 15:21:36.270807 32713 net.cpp:406] relu4d_branch_2_5x5_dw <- Mixed_4d_branch_2_5x5_dw
I0905 15:21:36.270815 32713 net.cpp:367] relu4d_branch_2_5x5_dw -> Mixed_4d_branch_2_5x5_dw (in-place)
I0905 15:21:36.271272 32713 net.cpp:122] Setting up relu4d_branch_2_5x5_dw
I0905 15:21:36.271286 32713 net.cpp:129] Top shape: 4 24 12 14 14 (225792)
I0905 15:21:36.271288 32713 net.cpp:137] Memory required for data: 5767028896
I0905 15:21:36.271292 32713 layer_factory.hpp:77] Creating layer Mixed_4d_branch_2_5x5
I0905 15:21:36.271306 32713 net.cpp:84] Creating Layer Mixed_4d_branch_2_5x5
I0905 15:21:36.271311 32713 net.cpp:406] Mixed_4d_branch_2_5x5 <- Mixed_4d_branch_2_5x5_dw
I0905 15:21:36.271319 32713 net.cpp:380] Mixed_4d_branch_2_5x5 -> Mixed_4d_branch_2_5x5
I0905 15:21:36.272369 32713 net.cpp:122] Setting up Mixed_4d_branch_2_5x5
I0905 15:21:36.272382 32713 net.cpp:129] Top shape: 4 64 12 14 14 (602112)
I0905 15:21:36.272387 32713 net.cpp:137] Memory required for data: 5769437344
I0905 15:21:36.272392 32713 layer_factory.hpp:77] Creating layer bn_Mixed_4d_branch_2_5x5
I0905 15:21:36.272403 32713 net.cpp:84] Creating Layer bn_Mixed_4d_branch_2_5x5
I0905 15:21:36.272408 32713 net.cpp:406] bn_Mixed_4d_branch_2_5x5 <- Mixed_4d_branch_2_5x5
I0905 15:21:36.272414 32713 net.cpp:367] bn_Mixed_4d_branch_2_5x5 -> Mixed_4d_branch_2_5x5 (in-place)
I0905 15:21:36.272706 32713 net.cpp:122] Setting up bn_Mixed_4d_branch_2_5x5
I0905 15:21:36.272713 32713 net.cpp:129] Top shape: 4 64 12 14 14 (602112)
I0905 15:21:36.272717 32713 net.cpp:137] Memory required for data: 5771845792
I0905 15:21:36.272725 32713 layer_factory.hpp:77] Creating layer sacle_Mixed_4d_branch_2_5x5
I0905 15:21:36.272733 32713 net.cpp:84] Creating Layer sacle_Mixed_4d_branch_2_5x5
I0905 15:21:36.272737 32713 net.cpp:406] sacle_Mixed_4d_branch_2_5x5 <- Mixed_4d_branch_2_5x5
I0905 15:21:36.272743 32713 net.cpp:367] sacle_Mixed_4d_branch_2_5x5 -> Mixed_4d_branch_2_5x5 (in-place)
I0905 15:21:36.272802 32713 layer_factory.hpp:77] Creating layer sacle_Mixed_4d_branch_2_5x5
I0905 15:21:36.272979 32713 net.cpp:122] Setting up sacle_Mixed_4d_branch_2_5x5
I0905 15:21:36.272985 32713 net.cpp:129] Top shape: 4 64 12 14 14 (602112)
I0905 15:21:36.272989 32713 net.cpp:137] Memory required for data: 5774254240
I0905 15:21:36.272995 32713 layer_factory.hpp:77] Creating layer relu4d_branch_2_5x5
I0905 15:21:36.273020 32713 net.cpp:84] Creating Layer relu4d_branch_2_5x5
I0905 15:21:36.273025 32713 net.cpp:406] relu4d_branch_2_5x5 <- Mixed_4d_branch_2_5x5
I0905 15:21:36.273032 32713 net.cpp:367] relu4d_branch_2_5x5 -> Mixed_4d_branch_2_5x5 (in-place)
I0905 15:21:36.273274 32713 net.cpp:122] Setting up relu4d_branch_2_5x5
I0905 15:21:36.273283 32713 net.cpp:129] Top shape: 4 64 12 14 14 (602112)
I0905 15:21:36.273286 32713 net.cpp:137] Memory required for data: 5776662688
I0905 15:21:36.273291 32713 layer_factory.hpp:77] Creating layer Mixed_4d_branch_3_Maxpool
I0905 15:21:36.273303 32713 net.cpp:84] Creating Layer Mixed_4d_branch_3_Maxpool
I0905 15:21:36.273308 32713 net.cpp:406] Mixed_4d_branch_3_Maxpool <- Mixed_4c_Mixed_4c_0_split_3
I0905 15:21:36.273316 32713 net.cpp:380] Mixed_4d_branch_3_Maxpool -> Mixed_4d_branch_3_Maxpool
I0905 15:21:36.273615 32713 net.cpp:122] Setting up Mixed_4d_branch_3_Maxpool
I0905 15:21:36.273623 32713 net.cpp:129] Top shape: 4 512 12 14 14 (4816896)
I0905 15:21:36.273627 32713 net.cpp:137] Memory required for data: 5795930272
I0905 15:21:36.273630 32713 layer_factory.hpp:77] Creating layer Mixed_4d_branch_3_1x1
I0905 15:21:36.273645 32713 net.cpp:84] Creating Layer Mixed_4d_branch_3_1x1
I0905 15:21:36.273650 32713 net.cpp:406] Mixed_4d_branch_3_1x1 <- Mixed_4d_branch_3_Maxpool
I0905 15:21:36.273659 32713 net.cpp:380] Mixed_4d_branch_3_1x1 -> Mixed_4d_branch_3_1x1
I0905 15:21:36.274941 32713 net.cpp:122] Setting up Mixed_4d_branch_3_1x1
I0905 15:21:36.274955 32713 net.cpp:129] Top shape: 4 64 12 14 14 (602112)
I0905 15:21:36.274960 32713 net.cpp:137] Memory required for data: 5798338720
I0905 15:21:36.274966 32713 layer_factory.hpp:77] Creating layer bn_Mixed_4d_branch_3_1x1
I0905 15:21:36.274976 32713 net.cpp:84] Creating Layer bn_Mixed_4d_branch_3_1x1
I0905 15:21:36.274981 32713 net.cpp:406] bn_Mixed_4d_branch_3_1x1 <- Mixed_4d_branch_3_1x1
I0905 15:21:36.274989 32713 net.cpp:367] bn_Mixed_4d_branch_3_1x1 -> Mixed_4d_branch_3_1x1 (in-place)
I0905 15:21:36.275292 32713 net.cpp:122] Setting up bn_Mixed_4d_branch_3_1x1
I0905 15:21:36.275300 32713 net.cpp:129] Top shape: 4 64 12 14 14 (602112)
I0905 15:21:36.275303 32713 net.cpp:137] Memory required for data: 5800747168
I0905 15:21:36.275311 32713 layer_factory.hpp:77] Creating layer sacle_Mixed_4d_branch_3_1x1
I0905 15:21:36.275319 32713 net.cpp:84] Creating Layer sacle_Mixed_4d_branch_3_1x1
I0905 15:21:36.275323 32713 net.cpp:406] sacle_Mixed_4d_branch_3_1x1 <- Mixed_4d_branch_3_1x1
I0905 15:21:36.275329 32713 net.cpp:367] sacle_Mixed_4d_branch_3_1x1 -> Mixed_4d_branch_3_1x1 (in-place)
I0905 15:21:36.275389 32713 layer_factory.hpp:77] Creating layer sacle_Mixed_4d_branch_3_1x1
I0905 15:21:36.275565 32713 net.cpp:122] Setting up sacle_Mixed_4d_branch_3_1x1
I0905 15:21:36.275573 32713 net.cpp:129] Top shape: 4 64 12 14 14 (602112)
I0905 15:21:36.275576 32713 net.cpp:137] Memory required for data: 5803155616
I0905 15:21:36.275583 32713 layer_factory.hpp:77] Creating layer relu4d_branch_3_1x1
I0905 15:21:36.275589 32713 net.cpp:84] Creating Layer relu4d_branch_3_1x1
I0905 15:21:36.275593 32713 net.cpp:406] relu4d_branch_3_1x1 <- Mixed_4d_branch_3_1x1
I0905 15:21:36.275601 32713 net.cpp:367] relu4d_branch_3_1x1 -> Mixed_4d_branch_3_1x1 (in-place)
I0905 15:21:36.275840 32713 net.cpp:122] Setting up relu4d_branch_3_1x1
I0905 15:21:36.275849 32713 net.cpp:129] Top shape: 4 64 12 14 14 (602112)
I0905 15:21:36.275852 32713 net.cpp:137] Memory required for data: 5805564064
I0905 15:21:36.275856 32713 layer_factory.hpp:77] Creating layer Mixed_4d
I0905 15:21:36.275866 32713 net.cpp:84] Creating Layer Mixed_4d
I0905 15:21:36.275871 32713 net.cpp:406] Mixed_4d <- Mixed_4d_branch_0_1x1
I0905 15:21:36.275876 32713 net.cpp:406] Mixed_4d <- Mixed_4d_branch_1_3x3
I0905 15:21:36.275880 32713 net.cpp:406] Mixed_4d <- Mixed_4d_branch_2_5x5
I0905 15:21:36.275884 32713 net.cpp:406] Mixed_4d <- Mixed_4d_branch_3_1x1
I0905 15:21:36.275889 32713 net.cpp:380] Mixed_4d -> Mixed_4d
I0905 15:21:36.275929 32713 net.cpp:122] Setting up Mixed_4d
I0905 15:21:36.275936 32713 net.cpp:129] Top shape: 4 512 12 14 14 (4816896)
I0905 15:21:36.275954 32713 net.cpp:137] Memory required for data: 5824831648
I0905 15:21:36.275959 32713 layer_factory.hpp:77] Creating layer Mixed_4d_Mixed_4d_0_split
I0905 15:21:36.275972 32713 net.cpp:84] Creating Layer Mixed_4d_Mixed_4d_0_split
I0905 15:21:36.275977 32713 net.cpp:406] Mixed_4d_Mixed_4d_0_split <- Mixed_4d
I0905 15:21:36.275983 32713 net.cpp:380] Mixed_4d_Mixed_4d_0_split -> Mixed_4d_Mixed_4d_0_split_0
I0905 15:21:36.275992 32713 net.cpp:380] Mixed_4d_Mixed_4d_0_split -> Mixed_4d_Mixed_4d_0_split_1
I0905 15:21:36.276000 32713 net.cpp:380] Mixed_4d_Mixed_4d_0_split -> Mixed_4d_Mixed_4d_0_split_2
I0905 15:21:36.276006 32713 net.cpp:380] Mixed_4d_Mixed_4d_0_split -> Mixed_4d_Mixed_4d_0_split_3
I0905 15:21:36.276096 32713 net.cpp:122] Setting up Mixed_4d_Mixed_4d_0_split
I0905 15:21:36.276103 32713 net.cpp:129] Top shape: 4 512 12 14 14 (4816896)
I0905 15:21:36.276106 32713 net.cpp:129] Top shape: 4 512 12 14 14 (4816896)
I0905 15:21:36.276110 32713 net.cpp:129] Top shape: 4 512 12 14 14 (4816896)
I0905 15:21:36.276114 32713 net.cpp:129] Top shape: 4 512 12 14 14 (4816896)
I0905 15:21:36.276118 32713 net.cpp:137] Memory required for data: 5901901984
I0905 15:21:36.276120 32713 layer_factory.hpp:77] Creating layer Mixed_4e_branch_0_1x1
I0905 15:21:36.276132 32713 net.cpp:84] Creating Layer Mixed_4e_branch_0_1x1
I0905 15:21:36.276136 32713 net.cpp:406] Mixed_4e_branch_0_1x1 <- Mixed_4d_Mixed_4d_0_split_0
I0905 15:21:36.276144 32713 net.cpp:380] Mixed_4e_branch_0_1x1 -> Mixed_4e_branch_0_1x1
I0905 15:21:36.277568 32713 net.cpp:122] Setting up Mixed_4e_branch_0_1x1
I0905 15:21:36.277582 32713 net.cpp:129] Top shape: 4 112 12 14 14 (1053696)
I0905 15:21:36.277586 32713 net.cpp:137] Memory required for data: 5906116768
I0905 15:21:36.277592 32713 layer_factory.hpp:77] Creating layer bn_Mixed_4e_branch_0_1x1
I0905 15:21:36.277602 32713 net.cpp:84] Creating Layer bn_Mixed_4e_branch_0_1x1
I0905 15:21:36.277608 32713 net.cpp:406] bn_Mixed_4e_branch_0_1x1 <- Mixed_4e_branch_0_1x1
I0905 15:21:36.277616 32713 net.cpp:367] bn_Mixed_4e_branch_0_1x1 -> Mixed_4e_branch_0_1x1 (in-place)
I0905 15:21:36.277917 32713 net.cpp:122] Setting up bn_Mixed_4e_branch_0_1x1
I0905 15:21:36.277925 32713 net.cpp:129] Top shape: 4 112 12 14 14 (1053696)
I0905 15:21:36.277928 32713 net.cpp:137] Memory required for data: 5910331552
I0905 15:21:36.277936 32713 layer_factory.hpp:77] Creating layer sacle_Mixed_4e_branch_0_1x1
I0905 15:21:36.277945 32713 net.cpp:84] Creating Layer sacle_Mixed_4e_branch_0_1x1
I0905 15:21:36.277949 32713 net.cpp:406] sacle_Mixed_4e_branch_0_1x1 <- Mixed_4e_branch_0_1x1
I0905 15:21:36.277956 32713 net.cpp:367] sacle_Mixed_4e_branch_0_1x1 -> Mixed_4e_branch_0_1x1 (in-place)
I0905 15:21:36.278012 32713 layer_factory.hpp:77] Creating layer sacle_Mixed_4e_branch_0_1x1
I0905 15:21:36.278187 32713 net.cpp:122] Setting up sacle_Mixed_4e_branch_0_1x1
I0905 15:21:36.278198 32713 net.cpp:129] Top shape: 4 112 12 14 14 (1053696)
I0905 15:21:36.278201 32713 net.cpp:137] Memory required for data: 5914546336
I0905 15:21:36.278208 32713 layer_factory.hpp:77] Creating layer relu4e_branch_0_1x1
I0905 15:21:36.278213 32713 net.cpp:84] Creating Layer relu4e_branch_0_1x1
I0905 15:21:36.278218 32713 net.cpp:406] relu4e_branch_0_1x1 <- Mixed_4e_branch_0_1x1
I0905 15:21:36.278223 32713 net.cpp:367] relu4e_branch_0_1x1 -> Mixed_4e_branch_0_1x1 (in-place)
I0905 15:21:36.278466 32713 net.cpp:122] Setting up relu4e_branch_0_1x1
I0905 15:21:36.278484 32713 net.cpp:129] Top shape: 4 112 12 14 14 (1053696)
I0905 15:21:36.278488 32713 net.cpp:137] Memory required for data: 5918761120
I0905 15:21:36.278492 32713 layer_factory.hpp:77] Creating layer Mixed_4e_branch_1_1x1
I0905 15:21:36.278504 32713 net.cpp:84] Creating Layer Mixed_4e_branch_1_1x1
I0905 15:21:36.278508 32713 net.cpp:406] Mixed_4e_branch_1_1x1 <- Mixed_4d_Mixed_4d_0_split_1
I0905 15:21:36.278517 32713 net.cpp:380] Mixed_4e_branch_1_1x1 -> Mixed_4e_branch_1_1x1
I0905 15:21:36.280297 32713 net.cpp:122] Setting up Mixed_4e_branch_1_1x1
I0905 15:21:36.280325 32713 net.cpp:129] Top shape: 4 144 12 14 14 (1354752)
I0905 15:21:36.280329 32713 net.cpp:137] Memory required for data: 5924180128
I0905 15:21:36.280336 32713 layer_factory.hpp:77] Creating layer bn_Mixed_4e_branch_1_1x1
I0905 15:21:36.280345 32713 net.cpp:84] Creating Layer bn_Mixed_4e_branch_1_1x1
I0905 15:21:36.280350 32713 net.cpp:406] bn_Mixed_4e_branch_1_1x1 <- Mixed_4e_branch_1_1x1
I0905 15:21:36.280359 32713 net.cpp:367] bn_Mixed_4e_branch_1_1x1 -> Mixed_4e_branch_1_1x1 (in-place)
I0905 15:21:36.280666 32713 net.cpp:122] Setting up bn_Mixed_4e_branch_1_1x1
I0905 15:21:36.280674 32713 net.cpp:129] Top shape: 4 144 12 14 14 (1354752)
I0905 15:21:36.280678 32713 net.cpp:137] Memory required for data: 5929599136
I0905 15:21:36.280685 32713 layer_factory.hpp:77] Creating layer sacle_Mixed_4e_branch_1_1x1
I0905 15:21:36.280695 32713 net.cpp:84] Creating Layer sacle_Mixed_4e_branch_1_1x1
I0905 15:21:36.280700 32713 net.cpp:406] sacle_Mixed_4e_branch_1_1x1 <- Mixed_4e_branch_1_1x1
I0905 15:21:36.280705 32713 net.cpp:367] sacle_Mixed_4e_branch_1_1x1 -> Mixed_4e_branch_1_1x1 (in-place)
I0905 15:21:36.280761 32713 layer_factory.hpp:77] Creating layer sacle_Mixed_4e_branch_1_1x1
I0905 15:21:36.280937 32713 net.cpp:122] Setting up sacle_Mixed_4e_branch_1_1x1
I0905 15:21:36.280946 32713 net.cpp:129] Top shape: 4 144 12 14 14 (1354752)
I0905 15:21:36.280948 32713 net.cpp:137] Memory required for data: 5935018144
I0905 15:21:36.280954 32713 layer_factory.hpp:77] Creating layer relu4e_branch_1_1x1
I0905 15:21:36.280961 32713 net.cpp:84] Creating Layer relu4e_branch_1_1x1
I0905 15:21:36.280966 32713 net.cpp:406] relu4e_branch_1_1x1 <- Mixed_4e_branch_1_1x1
I0905 15:21:36.280973 32713 net.cpp:367] relu4e_branch_1_1x1 -> Mixed_4e_branch_1_1x1 (in-place)
I0905 15:21:36.281417 32713 net.cpp:122] Setting up relu4e_branch_1_1x1
I0905 15:21:36.281430 32713 net.cpp:129] Top shape: 4 144 12 14 14 (1354752)
I0905 15:21:36.281435 32713 net.cpp:137] Memory required for data: 5940437152
I0905 15:21:36.281438 32713 layer_factory.hpp:77] Creating layer Mixed_4e_branch_1_3x3_dw
I0905 15:21:36.281452 32713 net.cpp:84] Creating Layer Mixed_4e_branch_1_3x3_dw
I0905 15:21:36.281456 32713 net.cpp:406] Mixed_4e_branch_1_3x3_dw <- Mixed_4e_branch_1_1x1
I0905 15:21:36.281466 32713 net.cpp:380] Mixed_4e_branch_1_3x3_dw -> Mixed_4e_branch_1_3x3_dw
I0905 15:21:36.282313 32713 net.cpp:122] Setting up Mixed_4e_branch_1_3x3_dw
I0905 15:21:36.282323 32713 net.cpp:129] Top shape: 4 144 12 14 14 (1354752)
I0905 15:21:36.282326 32713 net.cpp:137] Memory required for data: 5945856160
I0905 15:21:36.282333 32713 layer_factory.hpp:77] Creating layer relu4e_branch_1_3x3_dw
I0905 15:21:36.282341 32713 net.cpp:84] Creating Layer relu4e_branch_1_3x3_dw
I0905 15:21:36.282344 32713 net.cpp:406] relu4e_branch_1_3x3_dw <- Mixed_4e_branch_1_3x3_dw
I0905 15:21:36.282352 32713 net.cpp:367] relu4e_branch_1_3x3_dw -> Mixed_4e_branch_1_3x3_dw (in-place)
I0905 15:21:36.282820 32713 net.cpp:122] Setting up relu4e_branch_1_3x3_dw
I0905 15:21:36.282832 32713 net.cpp:129] Top shape: 4 144 12 14 14 (1354752)
I0905 15:21:36.282835 32713 net.cpp:137] Memory required for data: 5951275168
I0905 15:21:36.282840 32713 layer_factory.hpp:77] Creating layer Mixed_4e_branch_1_3x3
I0905 15:21:36.282853 32713 net.cpp:84] Creating Layer Mixed_4e_branch_1_3x3
I0905 15:21:36.282857 32713 net.cpp:406] Mixed_4e_branch_1_3x3 <- Mixed_4e_branch_1_3x3_dw
I0905 15:21:36.282866 32713 net.cpp:380] Mixed_4e_branch_1_3x3 -> Mixed_4e_branch_1_3x3
I0905 15:21:36.284183 32713 net.cpp:122] Setting up Mixed_4e_branch_1_3x3
I0905 15:21:36.284200 32713 net.cpp:129] Top shape: 4 288 12 14 14 (2709504)
I0905 15:21:36.284204 32713 net.cpp:137] Memory required for data: 5962113184
I0905 15:21:36.284210 32713 layer_factory.hpp:77] Creating layer bn_Mixed_4e_branch_1_3x3
I0905 15:21:36.284219 32713 net.cpp:84] Creating Layer bn_Mixed_4e_branch_1_3x3
I0905 15:21:36.284224 32713 net.cpp:406] bn_Mixed_4e_branch_1_3x3 <- Mixed_4e_branch_1_3x3
I0905 15:21:36.284232 32713 net.cpp:367] bn_Mixed_4e_branch_1_3x3 -> Mixed_4e_branch_1_3x3 (in-place)
I0905 15:21:36.284571 32713 net.cpp:122] Setting up bn_Mixed_4e_branch_1_3x3
I0905 15:21:36.284579 32713 net.cpp:129] Top shape: 4 288 12 14 14 (2709504)
I0905 15:21:36.284584 32713 net.cpp:137] Memory required for data: 5972951200
I0905 15:21:36.284592 32713 layer_factory.hpp:77] Creating layer sacle_Mixed_4e_branch_1_3x3
I0905 15:21:36.284600 32713 net.cpp:84] Creating Layer sacle_Mixed_4e_branch_1_3x3
I0905 15:21:36.284605 32713 net.cpp:406] sacle_Mixed_4e_branch_1_3x3 <- Mixed_4e_branch_1_3x3
I0905 15:21:36.284613 32713 net.cpp:367] sacle_Mixed_4e_branch_1_3x3 -> Mixed_4e_branch_1_3x3 (in-place)
I0905 15:21:36.284669 32713 layer_factory.hpp:77] Creating layer sacle_Mixed_4e_branch_1_3x3
I0905 15:21:36.284852 32713 net.cpp:122] Setting up sacle_Mixed_4e_branch_1_3x3
I0905 15:21:36.284859 32713 net.cpp:129] Top shape: 4 288 12 14 14 (2709504)
I0905 15:21:36.284863 32713 net.cpp:137] Memory required for data: 5983789216
I0905 15:21:36.284869 32713 layer_factory.hpp:77] Creating layer relu4e_branch_1_3x3
I0905 15:21:36.284878 32713 net.cpp:84] Creating Layer relu4e_branch_1_3x3
I0905 15:21:36.284883 32713 net.cpp:406] relu4e_branch_1_3x3 <- Mixed_4e_branch_1_3x3
I0905 15:21:36.284888 32713 net.cpp:367] relu4e_branch_1_3x3 -> Mixed_4e_branch_1_3x3 (in-place)
I0905 15:21:36.285131 32713 net.cpp:122] Setting up relu4e_branch_1_3x3
I0905 15:21:36.285140 32713 net.cpp:129] Top shape: 4 288 12 14 14 (2709504)
I0905 15:21:36.285143 32713 net.cpp:137] Memory required for data: 5994627232
I0905 15:21:36.285148 32713 layer_factory.hpp:77] Creating layer Mixed_4e_branch_2_1x1
I0905 15:21:36.285161 32713 net.cpp:84] Creating Layer Mixed_4e_branch_2_1x1
I0905 15:21:36.285164 32713 net.cpp:406] Mixed_4e_branch_2_1x1 <- Mixed_4d_Mixed_4d_0_split_2
I0905 15:21:36.285173 32713 net.cpp:380] Mixed_4e_branch_2_1x1 -> Mixed_4e_branch_2_1x1
I0905 15:21:36.286345 32713 net.cpp:122] Setting up Mixed_4e_branch_2_1x1
I0905 15:21:36.286360 32713 net.cpp:129] Top shape: 4 32 12 14 14 (301056)
I0905 15:21:36.286362 32713 net.cpp:137] Memory required for data: 5995831456
I0905 15:21:36.286368 32713 layer_factory.hpp:77] Creating layer bn_Mixed_4e_branch_2_1x1
I0905 15:21:36.286381 32713 net.cpp:84] Creating Layer bn_Mixed_4e_branch_2_1x1
I0905 15:21:36.286384 32713 net.cpp:406] bn_Mixed_4e_branch_2_1x1 <- Mixed_4e_branch_2_1x1
I0905 15:21:36.286391 32713 net.cpp:367] bn_Mixed_4e_branch_2_1x1 -> Mixed_4e_branch_2_1x1 (in-place)
I0905 15:21:36.286705 32713 net.cpp:122] Setting up bn_Mixed_4e_branch_2_1x1
I0905 15:21:36.286715 32713 net.cpp:129] Top shape: 4 32 12 14 14 (301056)
I0905 15:21:36.286718 32713 net.cpp:137] Memory required for data: 5997035680
I0905 15:21:36.286726 32713 layer_factory.hpp:77] Creating layer sacle_Mixed_4e_branch_2_1x1
I0905 15:21:36.286736 32713 net.cpp:84] Creating Layer sacle_Mixed_4e_branch_2_1x1
I0905 15:21:36.286741 32713 net.cpp:406] sacle_Mixed_4e_branch_2_1x1 <- Mixed_4e_branch_2_1x1
I0905 15:21:36.286746 32713 net.cpp:367] sacle_Mixed_4e_branch_2_1x1 -> Mixed_4e_branch_2_1x1 (in-place)
I0905 15:21:36.286806 32713 layer_factory.hpp:77] Creating layer sacle_Mixed_4e_branch_2_1x1
I0905 15:21:36.286983 32713 net.cpp:122] Setting up sacle_Mixed_4e_branch_2_1x1
…
I0905 15:21:36.407615 32713 net.cpp:137] Memory required for data: 6443953312
I0905 15:21:36.407629 32713 layer_factory.hpp:77] Creating layer sacle_Mixed_5c_branch_2_1x1
I0905 15:21:36.407644 32713 net.cpp:84] Creating Layer sacle_Mixed_5c_branch_2_1x1
I0905 15:21:36.407650 32713 net.cpp:406] sacle_Mixed_5c_branch_2_1x1 <- Mixed_5c_branch_2_1x1
I0905 15:21:36.407660 32713 net.cpp:367] sacle_Mixed_5c_branch_2_1x1 -> Mixed_5c_branch_2_1x1 (in-place)
I0905 15:21:36.407761 32713 layer_factory.hpp:77] Creating layer sacle_Mixed_5c_branch_2_1x1
I0905 15:21:36.408052 32713 net.cpp:122] Setting up sacle_Mixed_5c_branch_2_1x1
I0905 15:21:36.408062 32713 net.cpp:129] Top shape: 4 48 6 7 7 (56448)
I0905 15:21:36.408069 32713 net.cpp:137] Memory required for data: 6444179104
I0905 15:21:36.408079 32713 layer_factory.hpp:77] Creating layer relu5c_branch_2_1x1
I0905 15:21:36.408092 32713 net.cpp:84] Creating Layer relu5c_branch_2_1x1
I0905 15:21:36.408097 32713 net.cpp:406] relu5c_branch_2_1x1 <- Mixed_5c_branch_2_1x1
I0905 15:21:36.408107 32713 net.cpp:367] relu5c_branch_2_1x1 -> Mixed_5c_branch_2_1x1 (in-place)
I0905 15:21:36.408504 32713 net.cpp:122] Setting up relu5c_branch_2_1x1
I0905 15:21:36.408516 32713 net.cpp:129] Top shape: 4 48 6 7 7 (56448)
I0905 15:21:36.408521 32713 net.cpp:137] Memory required for data: 6444404896
I0905 15:21:36.408527 32713 layer_factory.hpp:77] Creating layer Mixed_5c_branch_2_5x5_dw
I0905 15:21:36.408543 32713 net.cpp:84] Creating Layer Mixed_5c_branch_2_5x5_dw
I0905 15:21:36.408550 32713 net.cpp:406] Mixed_5c_branch_2_5x5_dw <- Mixed_5c_branch_2_1x1
I0905 15:21:36.408563 32713 net.cpp:380] Mixed_5c_branch_2_5x5_dw -> Mixed_5c_branch_2_5x5_dw
I0905 15:21:36.410284 32713 net.cpp:122] Setting up Mixed_5c_branch_2_5x5_dw
I0905 15:21:36.410305 32713 net.cpp:129] Top shape: 4 48 6 7 7 (56448)
I0905 15:21:36.410311 32713 net.cpp:137] Memory required for data: 6444630688
I0905 15:21:36.410321 32713 layer_factory.hpp:77] Creating layer relu5c_branch_2_5x5_dw
I0905 15:21:36.410337 32713 net.cpp:84] Creating Layer relu5c_branch_2_5x5_dw
I0905 15:21:36.410344 32713 net.cpp:406] relu5c_branch_2_5x5_dw <- Mixed_5c_branch_2_5x5_dw
I0905 15:21:36.410353 32713 net.cpp:367] relu5c_branch_2_5x5_dw -> Mixed_5c_branch_2_5x5_dw (in-place)
I0905 15:21:36.410753 32713 net.cpp:122] Setting up relu5c_branch_2_5x5_dw
I0905 15:21:36.410768 32713 net.cpp:129] Top shape: 4 48 6 7 7 (56448)
I0905 15:21:36.410771 32713 net.cpp:137] Memory required for data: 6444856480
I0905 15:21:36.410778 32713 layer_factory.hpp:77] Creating layer Mixed_5c_branch_2_5x5
I0905 15:21:36.410794 32713 net.cpp:84] Creating Layer Mixed_5c_branch_2_5x5
I0905 15:21:36.410801 32713 net.cpp:406] Mixed_5c_branch_2_5x5 <- Mixed_5c_branch_2_5x5_dw
I0905 15:21:36.410815 32713 net.cpp:380] Mixed_5c_branch_2_5x5 -> Mixed_5c_branch_2_5x5
I0905 15:21:36.412533 32713 net.cpp:122] Setting up Mixed_5c_branch_2_5x5
I0905 15:21:36.412554 32713 net.cpp:129] Top shape: 4 128 6 7 7 (150528)
I0905 15:21:36.412560 32713 net.cpp:137] Memory required for data: 6445458592
I0905 15:21:36.412570 32713 layer_factory.hpp:77] Creating layer bn_Mixed_5c_branch_2_5x5
I0905 15:21:36.412585 32713 net.cpp:84] Creating Layer bn_Mixed_5c_branch_2_5x5
I0905 15:21:36.412592 32713 net.cpp:406] bn_Mixed_5c_branch_2_5x5 <- Mixed_5c_branch_2_5x5
I0905 15:21:36.412606 32713 net.cpp:367] bn_Mixed_5c_branch_2_5x5 -> Mixed_5c_branch_2_5x5 (in-place)
I0905 15:21:36.413103 32713 net.cpp:122] Setting up bn_Mixed_5c_branch_2_5x5
I0905 15:21:36.413113 32713 net.cpp:129] Top shape: 4 128 6 7 7 (150528)
I0905 15:21:36.413118 32713 net.cpp:137] Memory required for data: 6446060704
I0905 15:21:36.413132 32713 layer_factory.hpp:77] Creating layer sacle_Mixed_5c_branch_2_5x5
I0905 15:21:36.413144 32713 net.cpp:84] Creating Layer sacle_Mixed_5c_branch_2_5x5
I0905 15:21:36.413151 32713 net.cpp:406] sacle_Mixed_5c_branch_2_5x5 <- Mixed_5c_branch_2_5x5
I0905 15:21:36.413158 32713 net.cpp:367] sacle_Mixed_5c_branch_2_5x5 -> Mixed_5c_branch_2_5x5 (in-place)
I0905 15:21:36.413250 32713 layer_factory.hpp:77] Creating layer sacle_Mixed_5c_branch_2_5x5
I0905 15:21:36.413555 32713 net.cpp:122] Setting up sacle_Mixed_5c_branch_2_5x5
I0905 15:21:36.413568 32713 net.cpp:129] Top shape: 4 128 6 7 7 (150528)
I0905 15:21:36.413571 32713 net.cpp:137] Memory required for data: 6446662816
I0905 15:21:36.413583 32713 layer_factory.hpp:77] Creating layer relu5c_branch_2_5x5
I0905 15:21:36.413596 32713 net.cpp:84] Creating Layer relu5c_branch_2_5x5
I0905 15:21:36.413602 32713 net.cpp:406] relu5c_branch_2_5x5 <- Mixed_5c_branch_2_5x5
I0905 15:21:36.413610 32713 net.cpp:367] relu5c_branch_2_5x5 -> Mixed_5c_branch_2_5x5 (in-place)
I0905 15:21:36.414005 32713 net.cpp:122] Setting up relu5c_branch_2_5x5
I0905 15:21:36.414016 32713 net.cpp:129] Top shape: 4 128 6 7 7 (150528)
I0905 15:21:36.414021 32713 net.cpp:137] Memory required for data: 6447264928
I0905 15:21:36.414026 32713 layer_factory.hpp:77] Creating layer Mixed_5c_branch_3_Maxpool
I0905 15:21:36.414043 32713 net.cpp:84] Creating Layer Mixed_5c_branch_3_Maxpool
I0905 15:21:36.414050 32713 net.cpp:406] Mixed_5c_branch_3_Maxpool <- Mixed_5b_Mixed_5b_0_split_3
I0905 15:21:36.414064 32713 net.cpp:380] Mixed_5c_branch_3_Maxpool -> Mixed_5c_branch_3_Maxpool
I0905 15:21:36.414860 32713 net.cpp:122] Setting up Mixed_5c_branch_3_Maxpool
I0905 15:21:36.414880 32713 net.cpp:129] Top shape: 4 832 6 7 7 (978432)
I0905 15:21:36.414885 32713 net.cpp:137] Memory required for data: 6451178656
I0905 15:21:36.414891 32713 layer_factory.hpp:77] Creating layer Mixed_5c_branch_3_1x1
I0905 15:21:36.414907 32713 net.cpp:84] Creating Layer Mixed_5c_branch_3_1x1
I0905 15:21:36.414916 32713 net.cpp:406] Mixed_5c_branch_3_1x1 <- Mixed_5c_branch_3_Maxpool
I0905 15:21:36.414929 32713 net.cpp:380] Mixed_5c_branch_3_1x1 -> Mixed_5c_branch_3_1x1
I0905 15:21:36.417582 32713 net.cpp:122] Setting up Mixed_5c_branch_3_1x1
I0905 15:21:36.417600 32713 net.cpp:129] Top shape: 4 128 6 7 7 (150528)
I0905 15:21:36.417608 32713 net.cpp:137] Memory required for data: 6451780768
I0905 15:21:36.417616 32713 layer_factory.hpp:77] Creating layer bn_Mixed_5c_branch_3_1x1
I0905 15:21:36.417631 32713 net.cpp:84] Creating Layer bn_Mixed_5c_branch_3_1x1
I0905 15:21:36.417639 32713 net.cpp:406] bn_Mixed_5c_branch_3_1x1 <- Mixed_5c_branch_3_1x1
I0905 15:21:36.417649 32713 net.cpp:367] bn_Mixed_5c_branch_3_1x1 -> Mixed_5c_branch_3_1x1 (in-place)
I0905 15:21:36.418112 32713 net.cpp:122] Setting up bn_Mixed_5c_branch_3_1x1
I0905 15:21:36.418121 32713 net.cpp:129] Top shape: 4 128 6 7 7 (150528)
I0905 15:21:36.418125 32713 net.cpp:137] Memory required for data: 6452382880
I0905 15:21:36.418138 32713 layer_factory.hpp:77] Creating layer sacle_Mixed_5c_branch_3_1x1
I0905 15:21:36.418148 32713 net.cpp:84] Creating Layer sacle_Mixed_5c_branch_3_1x1
I0905 15:21:36.418154 32713 net.cpp:406] sacle_Mixed_5c_branch_3_1x1 <- Mixed_5c_branch_3_1x1
I0905 15:21:36.418161 32713 net.cpp:367] sacle_Mixed_5c_branch_3_1x1 -> Mixed_5c_branch_3_1x1 (in-place)
I0905 15:21:36.418249 32713 layer_factory.hpp:77] Creating layer sacle_Mixed_5c_branch_3_1x1
I0905 15:21:36.418522 32713 net.cpp:122] Setting up sacle_Mixed_5c_branch_3_1x1
I0905 15:21:36.418534 32713 net.cpp:129] Top shape: 4 128 6 7 7 (150528)
I0905 15:21:36.418539 32713 net.cpp:137] Memory required for data: 6452984992
I0905 15:21:36.418550 32713 layer_factory.hpp:77] Creating layer relu5c_branch_3_1x1
I0905 15:21:36.418560 32713 net.cpp:84] Creating Layer relu5c_branch_3_1x1
I0905 15:21:36.418566 32713 net.cpp:406] relu5c_branch_3_1x1 <- Mixed_5c_branch_3_1x1
I0905 15:21:36.418576 32713 net.cpp:367] relu5c_branch_3_1x1 -> Mixed_5c_branch_3_1x1 (in-place)
I0905 15:21:36.418946 32713 net.cpp:122] Setting up relu5c_branch_3_1x1
I0905 15:21:36.418957 32713 net.cpp:129] Top shape: 4 128 6 7 7 (150528)
I0905 15:21:36.418962 32713 net.cpp:137] Memory required for data: 6453587104
I0905 15:21:36.418967 32713 layer_factory.hpp:77] Creating layer Mixed_5c
I0905 15:21:36.418979 32713 net.cpp:84] Creating Layer Mixed_5c
I0905 15:21:36.418985 32713 net.cpp:406] Mixed_5c <- Mixed_5c_branch_0_1x1
I0905 15:21:36.418992 32713 net.cpp:406] Mixed_5c <- Mixed_5c_branch_1_3x3
I0905 15:21:36.419023 32713 net.cpp:406] Mixed_5c <- Mixed_5c_branch_2_5x5
I0905 15:21:36.419030 32713 net.cpp:406] Mixed_5c <- Mixed_5c_branch_3_1x1
I0905 15:21:36.419041 32713 net.cpp:380] Mixed_5c -> Mixed_5c
I0905 15:21:36.419106 32713 net.cpp:122] Setting up Mixed_5c
I0905 15:21:36.419114 32713 net.cpp:129] Top shape: 4 1024 6 7 7 (1204224)
I0905 15:21:36.419121 32713 net.cpp:137] Memory required for data: 6458404000
I0905 15:21:36.419126 32713 layer_factory.hpp:77] Creating layer Avg-Pool
I0905 15:21:36.419137 32713 net.cpp:84] Creating Layer Avg-Pool
I0905 15:21:36.419142 32713 net.cpp:406] Avg-Pool <- Mixed_5c
I0905 15:21:36.419155 32713 net.cpp:380] Avg-Pool -> Avg-Pool
I0905 15:21:36.419550 32713 net.cpp:122] Setting up Avg-Pool
I0905 15:21:36.419566 32713 net.cpp:129] Top shape: 4 1024 6 1 1 (24576)
I0905 15:21:36.419571 32713 net.cpp:137] Memory required for data: 6458502304
I0905 15:21:36.419577 32713 layer_factory.hpp:77] Creating layer permuted_data
I0905 15:21:36.419587 32713 net.cpp:84] Creating Layer permuted_data
I0905 15:21:36.419593 32713 net.cpp:406] permuted_data <- Avg-Pool
I0905 15:21:36.419601 32713 net.cpp:380] permuted_data -> permuted_data
I0905 15:21:36.419848 32713 net.cpp:122] Setting up permuted_data
I0905 15:21:36.419857 32713 net.cpp:129] Top shape: 6 4 1024 1 1 (24576)
I0905 15:21:36.419862 32713 net.cpp:137] Memory required for data: 6458600608
I0905 15:21:36.419867 32713 layer_factory.hpp:77] Creating layer lstmx
I0905 15:21:36.419883 32713 net.cpp:84] Creating Layer lstmx
I0905 15:21:36.419888 32713 net.cpp:406] lstmx <- permuted_data
I0905 15:21:36.419894 32713 net.cpp:406] lstmx <- indicator
I0905 15:21:36.419903 32713 net.cpp:380] lstmx -> lstmx
I0905 15:21:36.419921 32713 recurrent_layer.cpp:20] Initializing recurrent layer: assuming input batch contains 6 timesteps of 4 independent streams.
I0905 15:21:36.420466 32713 net.cpp:51] Initializing net from parameters: 
layer {
  name: "lstmx_"
  type: "Input"
  top: "x"
  top: "cont"
  input_param {
    shape {
      dim: 6
      dim: 4
      dim: 1024
      dim: 1
      dim: 1
    }
    shape {
      dim: 6
      dim: 4
    }
  }
}
layer {
  name: "lstmx_"
  type: "Input"
  top: "c_0"
  top: "h_0"
  input_param {
    shape {
      dim: 1
      dim: 4
      dim: 256
    }
    shape {
      dim: 1
      dim: 4
      dim: 256
    }
  }
}
layer {
  name: "lstmx_cont_slice"
  type: "Slice"
  bottom: "cont"
  top: "cont_1"
  top: "cont_2"
  top: "cont_3"
  top: "cont_4"
  top: "cont_5"
  top: "cont_6"
  slice_param {
    axis: 0
  }
}
layer {
  name: "lstmx_x_transform"
  type: "InnerProduct"
  bottom: "x"
  top: "W_xc_x"
  param {
    name: "W_xc"
  }
  param {
    name: "b_c"
  }
  propagate_down: true
  inner_product_param {
    num_output: 1024
    bias_term: true
    weight_filler {
      type: "xavier"
    }
    bias_filler {
      type: "constant"
      value: 0
    }
    axis: 2
  }
}
layer {
  name: "lstmx_W_xc_x_slice"
  type: "Slice"
  bottom: "W_xc_x"
  top: "W_xc_x_1"
  top: "W_xc_x_2"
  top: "W_xc_x_3"
  top: "W_xc_x_4"
  top: "W_xc_x_5"
  top: "W_xc_x_6"
  slice_param {
    axis: 0
  }
}
layer {
  name: "lstmx_h_conted_0"
  type: "Scale"
  bottom: "h_0"
  bottom: "cont_1"
  top: "h_conted_0"
  scale_param {
    axis: 0
  }
}
layer {
  name: "lstmx_transform_1"
  type: "InnerProduct"
  bottom: "h_conted_0"
  top: "W_hc_h_0"
  param {
    name: "W_hc"
  }
  inner_product_param {
    num_output: 1024
    bias_term: false
    weight_filler {
      type: "xavier"
    }
    axis: 2
  }
}
layer {
  name: "lstmx_gate_input_1"
  type: "Eltwise"
  bottom: "W_hc_h_0"
  bottom: "W_xc_x_1"
  top: "gate_input_1"
  eltwise_param {
    operation: SUM
  }
}
layer {
  name: "lstmx_unit_1"
  type: "LSTMUnit"
  bottom: "c_0"
  bottom: "gate_input_1"
  bottom: "cont_1"
  top: "c_1"
  top: "h_1"
}
layer {
  name: "lstmx_h_conted_1"
  type: "Scale"
  bottom: "h_1"
  bottom: "cont_2"
  top: "h_conted_1"
  scale_param {
    axis: 0
  }
}
layer {
  name: "lstmx_transform_2"
  type: "InnerProduct"
  bottom: "h_conted_1"
  top: "W_hc_h_1"
  param {
    name: "W_hc"
  }
  inner_product_param {
    num_output: 1024
    bias_term: false
    weight_filler {
      type: "xavier"
    }
    axis: 2
  }
}
layer {
  name: "lstmx_gate_input_2"
  type: "Eltwise"
  bottom: "W_hc_h_1"
  bottom: "W_xc_x_2"
  top: "gate_input_2"
  eltwise_param {
    operation: SUM
  }
}
layer {
  name: "lstmx_unit_2"
  type: "LSTMUnit"
  bottom: "c_1"
  bottom: "gate_input_2"
  bottom: "cont_2"
  top: "c_2"
  top: "h_2"
}
layer {
  name: "lstmx_h_conted_2"
  type: "Scale"
  bottom: "h_2"
  bottom: "cont_3"
  top: "h_conted_2"
  scale_param {
    axis: 0
  }
}
layer {
  name: "lstmx_transform_3"
  type: "InnerProduct"
  bottom: "h_conted_2"
  top: "W_hc_h_2"
  param {
    name: "W_hc"
  }
  inner_product_param {
    num_output: 1024
    bias_term: false
    weight_filler {
      type: "xavier"
    }
    axis: 2
  }
}
layer {
  name: "lstmx_gate_input_3"
  type: "Eltwise"
  bottom: "W_hc_h_2"
  bottom: "W_xc_x_3"
  top: "gate_input_3"
  eltwise_param {
    operation: SUM
  }
}
layer {
  name: "lstmx_unit_3"
  type: "LSTMUnit"
  bottom: "c_2"
  bottom: "gate_input_3"
  bottom: "cont_3"
  top: "c_3"
  top: "h_3"
}
layer {
  name: "lstmx_h_conted_3"
  type: "Scale"
  bottom: "h_3"
  bottom: "cont_4"
  top: "h_conted_3"
  scale_param {
    axis: 0
  }
}
layer {
  name: "lstmx_transform_4"
  type: "InnerProduct"
  bottom: "h_conted_3"
  top: "W_hc_h_3"
  param {
    name: "W_hc"
  }
  inner_product_param {
    num_output: 1024
    bias_term: false
    weight_filler {
      type: "xavier"
    }
    axis: 2
  }
}
layer {
  name: "lstmx_gate_input_4"
  type: "Eltwise"
  bottom: "W_hc_h_3"
  bottom: "W_xc_x_4"
  top: "gate_input_4"
  eltwise_param {
    operation: SUM
  }
}
layer {
  name: "lstmx_unit_4"
  type: "LSTMUnit"
  bottom: "c_3"
  bottom: "gate_input_4"
  bottom: "cont_4"
  top: "c_4"
  top: "h_4"
}
layer {
  name: "lstmx_h_conted_4"
  type: "Scale"
  bottom: "h_4"
  bottom: "cont_5"
  top: "h_conted_4"
  scale_param {
    axis: 0
  }
}
layer {
  name: "lstmx_transform_5"
  type: "InnerProduct"
  bottom: "h_conted_4"
  top: "W_hc_h_4"
  param {
    name: "W_hc"
  }
  inner_product_param {
    num_output: 1024
    bias_term: false
    weight_filler {
      type: "xavier"
    }
    axis: 2
  }
}
layer {
  name: "lstmx_gate_input_5"
  type: "Eltwise"
  bottom: "W_hc_h_4"
  bottom: "W_xc_x_5"
  top: "gate_input_5"
  eltwise_param {
    operation: SUM
  }
}
layer {
  name: "lstmx_unit_5"
  type: "LSTMUnit"
  bottom: "c_4"
  bottom: "gate_input_5"
  bottom: "cont_5"
  top: "c_5"
  top: "h_5"
}
layer {
  name: "lstmx_h_conted_5"
  type: "Scale"
  bottom: "h_5"
  bottom: "cont_6"
  top: "h_conted_5"
  scale_param {
    axis: 0
  }
}
layer {
  name: "lstmx_transform_6"
  type: "InnerProduct"
  bottom: "h_conted_5"
  top: "W_hc_h_5"
  param {
    name: "W_hc"
  }
  inner_product_param {
    num_output: 1024
    bias_term: false
    weight_filler {
      type: "xavier"
    }
    axis: 2
  }
}
layer {
  name: "lstmx_gate_input_6"
  type: "Eltwise"
  bottom: "W_hc_h_5"
  bottom: "W_xc_x_6"
  top: "gate_input_6"
  eltwise_param {
    operation: SUM
  }
}
layer {
  name: "lstmx_unit_6"
  type: "LSTMUnit"
  bottom: "c_5"
  bottom: "gate_input_6"
  bottom: "cont_6"
  top: "c_6"
  top: "h_6"
}
layer {
  name: "lstmx_"
  type: "Split"
  bottom: "c_6"
  top: "c_T"
}
layer {
  name: "lstmx_h_concat"
  type: "Concat"
  bottom: "h_1"
  bottom: "h_2"
  bottom: "h_3"
  bottom: "h_4"
  bottom: "h_5"
  bottom: "h_6"
  top: "h"
  concat_param {
    axis: 0
  }
}
layer {
  name: "h_pseudoloss"
  type: "Reduction"
  bottom: "h"
  top: "h_pseudoloss"
  loss_weight: 1
}
I0905 15:21:36.437788 32713 layer_factory.hpp:77] Creating layer lstmx_
I0905 15:21:36.437809 32713 net.cpp:84] Creating Layer lstmx_
I0905 15:21:36.437819 32713 net.cpp:380] lstmx_ -> x
I0905 15:21:36.437837 32713 net.cpp:380] lstmx_ -> cont
I0905 15:21:36.437950 32713 net.cpp:122] Setting up lstmx_
I0905 15:21:36.437961 32713 net.cpp:129] Top shape: 6 4 1024 1 1 (24576)
I0905 15:21:36.437969 32713 net.cpp:129] Top shape: 6 4 (24)
I0905 15:21:36.437996 32713 net.cpp:137] Memory required for data: 98400
I0905 15:21:36.438002 32713 layer_factory.hpp:77] Creating layer lstmx_
I0905 15:21:36.438012 32713 net.cpp:84] Creating Layer lstmx_
I0905 15:21:36.438024 32713 net.cpp:380] lstmx_ -> c_0
I0905 15:21:36.438036 32713 net.cpp:380] lstmx_ -> h_0
I0905 15:21:36.438124 32713 net.cpp:122] Setting up lstmx_
I0905 15:21:36.438133 32713 net.cpp:129] Top shape: 1 4 256 (1024)
I0905 15:21:36.438140 32713 net.cpp:129] Top shape: 1 4 256 (1024)
I0905 15:21:36.438144 32713 net.cpp:137] Memory required for data: 106592
I0905 15:21:36.438149 32713 layer_factory.hpp:77] Creating layer lstmx_cont_slice
I0905 15:21:36.438163 32713 net.cpp:84] Creating Layer lstmx_cont_slice
I0905 15:21:36.438170 32713 net.cpp:406] lstmx_cont_slice <- cont
I0905 15:21:36.438180 32713 net.cpp:380] lstmx_cont_slice -> cont_1
I0905 15:21:36.438192 32713 net.cpp:380] lstmx_cont_slice -> cont_2
I0905 15:21:36.438205 32713 net.cpp:380] lstmx_cont_slice -> cont_3
I0905 15:21:36.438215 32713 net.cpp:380] lstmx_cont_slice -> cont_4
I0905 15:21:36.438225 32713 net.cpp:380] lstmx_cont_slice -> cont_5
I0905 15:21:36.438235 32713 net.cpp:380] lstmx_cont_slice -> cont_6
I0905 15:21:36.438428 32713 net.cpp:122] Setting up lstmx_cont_slice
I0905 15:21:36.438438 32713 net.cpp:129] Top shape: 1 4 (4)
I0905 15:21:36.438444 32713 net.cpp:129] Top shape: 1 4 (4)
I0905 15:21:36.438449 32713 net.cpp:129] Top shape: 1 4 (4)
I0905 15:21:36.438454 32713 net.cpp:129] Top shape: 1 4 (4)
I0905 15:21:36.438462 32713 net.cpp:129] Top shape: 1 4 (4)
I0905 15:21:36.438467 32713 net.cpp:129] Top shape: 1 4 (4)
I0905 15:21:36.438489 32713 net.cpp:137] Memory required for data: 106688
I0905 15:21:36.438494 32713 layer_factory.hpp:77] Creating layer cont_1_lstmx_cont_slice_0_split
I0905 15:21:36.438508 32713 net.cpp:84] Creating Layer cont_1_lstmx_cont_slice_0_split
I0905 15:21:36.458583 32713 net.cpp:406] cont_1_lstmx_cont_slice_0_split <- cont_1
I0905 15:21:36.458611 32713 net.cpp:380] cont_1_lstmx_cont_slice_0_split -> cont_1_lstmx_cont_slice_0_split_0
I0905 15:21:36.458626 32713 net.cpp:380] cont_1_lstmx_cont_slice_0_split -> cont_1_lstmx_cont_slice_0_split_1
I0905 15:21:36.458734 32713 net.cpp:122] Setting up cont_1_lstmx_cont_slice_0_split
I0905 15:21:36.458746 32713 net.cpp:129] Top shape: 1 4 (4)
I0905 15:21:36.458751 32713 net.cpp:129] Top shape: 1 4 (4)
I0905 15:21:36.458755 32713 net.cpp:137] Memory required for data: 106720
I0905 15:21:36.458761 32713 layer_factory.hpp:77] Creating layer cont_2_lstmx_cont_slice_1_split
I0905 15:21:36.458772 32713 net.cpp:84] Creating Layer cont_2_lstmx_cont_slice_1_split
I0905 15:21:36.458777 32713 net.cpp:406] cont_2_lstmx_cont_slice_1_split <- cont_2
I0905 15:21:36.458788 32713 net.cpp:380] cont_2_lstmx_cont_slice_1_split -> cont_2_lstmx_cont_slice_1_split_0
I0905 15:21:36.458799 32713 net.cpp:380] cont_2_lstmx_cont_slice_1_split -> cont_2_lstmx_cont_slice_1_split_1
I0905 15:21:36.458870 32713 net.cpp:122] Setting up cont_2_lstmx_cont_slice_1_split
I0905 15:21:36.458878 32713 net.cpp:129] Top shape: 1 4 (4)
I0905 15:21:36.458883 32713 net.cpp:129] Top shape: 1 4 (4)
I0905 15:21:36.458887 32713 net.cpp:137] Memory required for data: 106752
I0905 15:21:36.458892 32713 layer_factory.hpp:77] Creating layer cont_3_lstmx_cont_slice_2_split
I0905 15:21:36.458901 32713 net.cpp:84] Creating Layer cont_3_lstmx_cont_slice_2_split
I0905 15:21:36.458906 32713 net.cpp:406] cont_3_lstmx_cont_slice_2_split <- cont_3
I0905 15:21:36.458915 32713 net.cpp:380] cont_3_lstmx_cont_slice_2_split -> cont_3_lstmx_cont_slice_2_split_0
I0905 15:21:36.458925 32713 net.cpp:380] cont_3_lstmx_cont_slice_2_split -> cont_3_lstmx_cont_slice_2_split_1
I0905 15:21:36.458992 32713 net.cpp:122] Setting up cont_3_lstmx_cont_slice_2_split
I0905 15:21:36.458999 32713 net.cpp:129] Top shape: 1 4 (4)
I0905 15:21:36.459005 32713 net.cpp:129] Top shape: 1 4 (4)
I0905 15:21:36.459009 32713 net.cpp:137] Memory required for data: 106784
I0905 15:21:36.459013 32713 layer_factory.hpp:77] Creating layer cont_4_lstmx_cont_slice_3_split
I0905 15:21:36.459041 32713 net.cpp:84] Creating Layer cont_4_lstmx_cont_slice_3_split
I0905 15:21:36.459048 32713 net.cpp:406] cont_4_lstmx_cont_slice_3_split <- cont_4
I0905 15:21:36.459056 32713 net.cpp:380] cont_4_lstmx_cont_slice_3_split -> cont_4_lstmx_cont_slice_3_split_0
I0905 15:21:36.459072 32713 net.cpp:380] cont_4_lstmx_cont_slice_3_split -> cont_4_lstmx_cont_slice_3_split_1
I0905 15:21:36.459148 32713 net.cpp:122] Setting up cont_4_lstmx_cont_slice_3_split
I0905 15:21:36.459158 32713 net.cpp:129] Top shape: 1 4 (4)
I0905 15:21:36.459163 32713 net.cpp:129] Top shape: 1 4 (4)
I0905 15:21:36.459167 32713 net.cpp:137] Memory required for data: 106816
I0905 15:21:36.459172 32713 layer_factory.hpp:77] Creating layer cont_5_lstmx_cont_slice_4_split
I0905 15:21:36.459179 32713 net.cpp:84] Creating Layer cont_5_lstmx_cont_slice_4_split
I0905 15:21:36.459184 32713 net.cpp:406] cont_5_lstmx_cont_slice_4_split <- cont_5
I0905 15:21:36.459192 32713 net.cpp:380] cont_5_lstmx_cont_slice_4_split -> cont_5_lstmx_cont_slice_4_split_0
I0905 15:21:36.459200 32713 net.cpp:380] cont_5_lstmx_cont_slice_4_split -> cont_5_lstmx_cont_slice_4_split_1
I0905 15:21:36.459269 32713 net.cpp:122] Setting up cont_5_lstmx_cont_slice_4_split
I0905 15:21:36.459276 32713 net.cpp:129] Top shape: 1 4 (4)
I0905 15:21:36.459281 32713 net.cpp:129] Top shape: 1 4 (4)
I0905 15:21:36.459285 32713 net.cpp:137] Memory required for data: 106848
I0905 15:21:36.459290 32713 layer_factory.hpp:77] Creating layer cont_6_lstmx_cont_slice_5_split
I0905 15:21:36.459298 32713 net.cpp:84] Creating Layer cont_6_lstmx_cont_slice_5_split
I0905 15:21:36.459303 32713 net.cpp:406] cont_6_lstmx_cont_slice_5_split <- cont_6
I0905 15:21:36.459313 32713 net.cpp:380] cont_6_lstmx_cont_slice_5_split -> cont_6_lstmx_cont_slice_5_split_0
I0905 15:21:36.459324 32713 net.cpp:380] cont_6_lstmx_cont_slice_5_split -> cont_6_lstmx_cont_slice_5_split_1
I0905 15:21:36.459393 32713 net.cpp:122] Setting up cont_6_lstmx_cont_slice_5_split
I0905 15:21:36.459400 32713 net.cpp:129] Top shape: 1 4 (4)
I0905 15:21:36.459405 32713 net.cpp:129] Top shape: 1 4 (4)
I0905 15:21:36.459410 32713 net.cpp:137] Memory required for data: 106880
I0905 15:21:36.459415 32713 layer_factory.hpp:77] Creating layer lstmx_x_transform
I0905 15:21:36.459426 32713 net.cpp:84] Creating Layer lstmx_x_transform
I0905 15:21:36.459431 32713 net.cpp:406] lstmx_x_transform <- x
I0905 15:21:36.459440 32713 net.cpp:380] lstmx_x_transform -> W_xc_x
I0905 15:21:36.471873 32713 net.cpp:122] Setting up lstmx_x_transform
I0905 15:21:36.471891 32713 net.cpp:129] Top shape: 6 4 1024 (24576)
I0905 15:21:36.471896 32713 net.cpp:137] Memory required for data: 205184
I0905 15:21:36.471910 32713 layer_factory.hpp:77] Creating layer lstmx_W_xc_x_slice
I0905 15:21:36.471920 32713 net.cpp:84] Creating Layer lstmx_W_xc_x_slice
I0905 15:21:36.471925 32713 net.cpp:406] lstmx_W_xc_x_slice <- W_xc_x
I0905 15:21:36.471933 32713 net.cpp:380] lstmx_W_xc_x_slice -> W_xc_x_1
I0905 15:21:36.471946 32713 net.cpp:380] lstmx_W_xc_x_slice -> W_xc_x_2
I0905 15:21:36.471956 32713 net.cpp:380] lstmx_W_xc_x_slice -> W_xc_x_3
I0905 15:21:36.471966 32713 net.cpp:380] lstmx_W_xc_x_slice -> W_xc_x_4
I0905 15:21:36.471973 32713 net.cpp:380] lstmx_W_xc_x_slice -> W_xc_x_5
I0905 15:21:36.471982 32713 net.cpp:380] lstmx_W_xc_x_slice -> W_xc_x_6
I0905 15:21:36.472156 32713 net.cpp:122] Setting up lstmx_W_xc_x_slice
I0905 15:21:36.472162 32713 net.cpp:129] Top shape: 1 4 1024 (4096)
I0905 15:21:36.472167 32713 net.cpp:129] Top shape: 1 4 1024 (4096)
I0905 15:21:36.472173 32713 net.cpp:129] Top shape: 1 4 1024 (4096)
I0905 15:21:36.472178 32713 net.cpp:129] Top shape: 1 4 1024 (4096)
I0905 15:21:36.472183 32713 net.cpp:129] Top shape: 1 4 1024 (4096)
I0905 15:21:36.472187 32713 net.cpp:129] Top shape: 1 4 1024 (4096)
I0905 15:21:36.472193 32713 net.cpp:137] Memory required for data: 303488
I0905 15:21:36.472196 32713 layer_factory.hpp:77] Creating layer lstmx_h_conted_0
I0905 15:21:36.472206 32713 net.cpp:84] Creating Layer lstmx_h_conted_0
I0905 15:21:36.472230 32713 net.cpp:406] lstmx_h_conted_0 <- h_0
I0905 15:21:36.472239 32713 net.cpp:406] lstmx_h_conted_0 <- cont_1_lstmx_cont_slice_0_split_0
I0905 15:21:36.472246 32713 net.cpp:380] lstmx_h_conted_0 -> h_conted_0
I0905 15:21:36.472378 32713 net.cpp:122] Setting up lstmx_h_conted_0
I0905 15:21:36.472385 32713 net.cpp:129] Top shape: 1 4 256 (1024)
I0905 15:21:36.472390 32713 net.cpp:137] Memory required for data: 307584
I0905 15:21:36.472393 32713 layer_factory.hpp:77] Creating layer lstmx_transform_1
I0905 15:21:36.472405 32713 net.cpp:84] Creating Layer lstmx_transform_1
I0905 15:21:36.472409 32713 net.cpp:406] lstmx_transform_1 <- h_conted_0
I0905 15:21:36.472419 32713 net.cpp:380] lstmx_transform_1 -> W_hc_h_0
I0905 15:21:36.476231 32713 net.cpp:122] Setting up lstmx_transform_1
I0905 15:21:36.476246 32713 net.cpp:129] Top shape: 1 4 1024 (4096)
I0905 15:21:36.476250 32713 net.cpp:137] Memory required for data: 323968
I0905 15:21:36.476261 32713 layer_factory.hpp:77] Creating layer lstmx_gate_input_1
I0905 15:21:36.476270 32713 net.cpp:84] Creating Layer lstmx_gate_input_1
I0905 15:21:36.476275 32713 net.cpp:406] lstmx_gate_input_1 <- W_hc_h_0
I0905 15:21:36.476281 32713 net.cpp:406] lstmx_gate_input_1 <- W_xc_x_1
I0905 15:21:36.476289 32713 net.cpp:380] lstmx_gate_input_1 -> gate_input_1
I0905 15:21:36.476339 32713 net.cpp:122] Setting up lstmx_gate_input_1
I0905 15:21:36.476346 32713 net.cpp:129] Top shape: 1 4 1024 (4096)
I0905 15:21:36.476349 32713 net.cpp:137] Memory required for data: 340352
I0905 15:21:36.476354 32713 layer_factory.hpp:77] Creating layer lstmx_unit_1
I0905 15:21:36.476362 32713 net.cpp:84] Creating Layer lstmx_unit_1
I0905 15:21:36.476366 32713 net.cpp:406] lstmx_unit_1 <- c_0
I0905 15:21:36.476374 32713 net.cpp:406] lstmx_unit_1 <- gate_input_1
I0905 15:21:36.476380 32713 net.cpp:406] lstmx_unit_1 <- cont_1_lstmx_cont_slice_0_split_1
I0905 15:21:36.476387 32713 net.cpp:380] lstmx_unit_1 -> c_1
I0905 15:21:36.476399 32713 net.cpp:380] lstmx_unit_1 -> h_1
I0905 15:21:36.476487 32713 net.cpp:122] Setting up lstmx_unit_1
I0905 15:21:36.476495 32713 net.cpp:129] Top shape: 1 4 256 (1024)
I0905 15:21:36.476500 32713 net.cpp:129] Top shape: 1 4 256 (1024)
I0905 15:21:36.476503 32713 net.cpp:137] Memory required for data: 348544
I0905 15:21:36.476507 32713 layer_factory.hpp:77] Creating layer h_1_lstmx_unit_1_1_split
I0905 15:21:36.476516 32713 net.cpp:84] Creating Layer h_1_lstmx_unit_1_1_split
I0905 15:21:36.476519 32713 net.cpp:406] h_1_lstmx_unit_1_1_split <- h_1
I0905 15:21:36.476526 32713 net.cpp:380] h_1_lstmx_unit_1_1_split -> h_1_lstmx_unit_1_1_split_0
I0905 15:21:36.476536 32713 net.cpp:380] h_1_lstmx_unit_1_1_split -> h_1_lstmx_unit_1_1_split_1
I0905 15:21:36.476598 32713 net.cpp:122] Setting up h_1_lstmx_unit_1_1_split
I0905 15:21:36.476603 32713 net.cpp:129] Top shape: 1 4 256 (1024)
I0905 15:21:36.476608 32713 net.cpp:129] Top shape: 1 4 256 (1024)
I0905 15:21:36.476611 32713 net.cpp:137] Memory required for data: 356736
I0905 15:21:36.476615 32713 layer_factory.hpp:77] Creating layer lstmx_h_conted_1
I0905 15:21:36.476629 32713 net.cpp:84] Creating Layer lstmx_h_conted_1
I0905 15:21:36.476632 32713 net.cpp:406] lstmx_h_conted_1 <- h_1_lstmx_unit_1_1_split_0
I0905 15:21:36.476639 32713 net.cpp:406] lstmx_h_conted_1 <- cont_2_lstmx_cont_slice_1_split_0
I0905 15:21:36.476646 32713 net.cpp:380] lstmx_h_conted_1 -> h_conted_1
I0905 15:21:36.476763 32713 net.cpp:122] Setting up lstmx_h_conted_1
I0905 15:21:36.476769 32713 net.cpp:129] Top shape: 1 4 256 (1024)
I0905 15:21:36.476773 32713 net.cpp:137] Memory required for data: 360832
I0905 15:21:36.476778 32713 layer_factory.hpp:77] Creating layer lstmx_transform_2
I0905 15:21:36.476784 32713 net.cpp:84] Creating Layer lstmx_transform_2
I0905 15:21:36.476789 32713 net.cpp:406] lstmx_transform_2 <- h_conted_1
I0905 15:21:36.476795 32713 net.cpp:380] lstmx_transform_2 -> W_hc_h_1
I0905 15:21:36.479126 32713 net.cpp:122] Setting up lstmx_transform_2
I0905 15:21:36.479135 32713 net.cpp:129] Top shape: 1 4 1024 (4096)
I0905 15:21:36.479138 32713 net.cpp:137] Memory required for data: 377216
I0905 15:21:36.479161 32713 net.cpp:465] Sharing parameters 'W_hc' owned by layer 'lstmx_transform_1', param index 0
I0905 15:21:36.479168 32713 layer_factory.hpp:77] Creating layer lstmx_gate_input_2
I0905 15:21:36.479176 32713 net.cpp:84] Creating Layer lstmx_gate_input_2
I0905 15:21:36.479179 32713 net.cpp:406] lstmx_gate_input_2 <- W_hc_h_1
I0905 15:21:36.479185 32713 net.cpp:406] lstmx_gate_input_2 <- W_xc_x_2
I0905 15:21:36.479199 32713 net.cpp:380] lstmx_gate_input_2 -> gate_input_2
I0905 15:21:36.479243 32713 net.cpp:122] Setting up lstmx_gate_input_2
I0905 15:21:36.479249 32713 net.cpp:129] Top shape: 1 4 1024 (4096)
I0905 15:21:36.479252 32713 net.cpp:137] Memory required for data: 393600
I0905 15:21:36.479257 32713 layer_factory.hpp:77] Creating layer lstmx_unit_2
I0905 15:21:36.479264 32713 net.cpp:84] Creating Layer lstmx_unit_2
I0905 15:21:36.479269 32713 net.cpp:406] lstmx_unit_2 <- c_1
I0905 15:21:36.479274 32713 net.cpp:406] lstmx_unit_2 <- gate_input_2
I0905 15:21:36.479279 32713 net.cpp:406] lstmx_unit_2 <- cont_2_lstmx_cont_slice_1_split_1
I0905 15:21:36.479288 32713 net.cpp:380] lstmx_unit_2 -> c_2
I0905 15:21:36.479296 32713 net.cpp:380] lstmx_unit_2 -> h_2
I0905 15:21:36.479380 32713 net.cpp:122] Setting up lstmx_unit_2
I0905 15:21:36.479387 32713 net.cpp:129] Top shape: 1 4 256 (1024)
I0905 15:21:36.479393 32713 net.cpp:129] Top shape: 1 4 256 (1024)
I0905 15:21:36.479395 32713 net.cpp:137] Memory required for data: 401792
I0905 15:21:36.479399 32713 layer_factory.hpp:77] Creating layer h_2_lstmx_unit_2_1_split
I0905 15:21:36.479406 32713 net.cpp:84] Creating Layer h_2_lstmx_unit_2_1_split
I0905 15:21:36.479411 32713 net.cpp:406] h_2_lstmx_unit_2_1_split <- h_2
I0905 15:21:36.479418 32713 net.cpp:380] h_2_lstmx_unit_2_1_split -> h_2_lstmx_unit_2_1_split_0
I0905 15:21:36.479429 32713 net.cpp:380] h_2_lstmx_unit_2_1_split -> h_2_lstmx_unit_2_1_split_1
I0905 15:21:36.479488 32713 net.cpp:122] Setting up h_2_lstmx_unit_2_1_split
I0905 15:21:36.479494 32713 net.cpp:129] Top shape: 1 4 256 (1024)
I0905 15:21:36.479498 32713 net.cpp:129] Top shape: 1 4 256 (1024)
I0905 15:21:36.479502 32713 net.cpp:137] Memory required for data: 409984
I0905 15:21:36.479507 32713 layer_factory.hpp:77] Creating layer lstmx_h_conted_2
I0905 15:21:36.479519 32713 net.cpp:84] Creating Layer lstmx_h_conted_2
I0905 15:21:36.479524 32713 net.cpp:406] lstmx_h_conted_2 <- h_2_lstmx_unit_2_1_split_0
I0905 15:21:36.479530 32713 net.cpp:406] lstmx_h_conted_2 <- cont_3_lstmx_cont_slice_2_split_0
I0905 15:21:36.479540 32713 net.cpp:380] lstmx_h_conted_2 -> h_conted_2
I0905 15:21:36.479655 32713 net.cpp:122] Setting up lstmx_h_conted_2
I0905 15:21:36.479660 32713 net.cpp:129] Top shape: 1 4 256 (1024)
I0905 15:21:36.479665 32713 net.cpp:137] Memory required for data: 414080
I0905 15:21:36.479668 32713 layer_factory.hpp:77] Creating layer lstmx_transform_3
I0905 15:21:36.479676 32713 net.cpp:84] Creating Layer lstmx_transform_3
I0905 15:21:36.479681 32713 net.cpp:406] lstmx_transform_3 <- h_conted_2
I0905 15:21:36.479687 32713 net.cpp:380] lstmx_transform_3 -> W_hc_h_2
I0905 15:21:36.483361 32713 net.cpp:122] Setting up lstmx_transform_3
I0905 15:21:36.483376 32713 net.cpp:129] Top shape: 1 4 1024 (4096)
I0905 15:21:36.483381 32713 net.cpp:137] Memory required for data: 430464
I0905 15:21:36.483388 32713 net.cpp:465] Sharing parameters 'W_hc' owned by layer 'lstmx_transform_1', param index 0
I0905 15:21:36.483395 32713 layer_factory.hpp:77] Creating layer lstmx_gate_input_3
I0905 15:21:36.483404 32713 net.cpp:84] Creating Layer lstmx_gate_input_3
I0905 15:21:36.483408 32713 net.cpp:406] lstmx_gate_input_3 <- W_hc_h_2
I0905 15:21:36.483414 32713 net.cpp:406] lstmx_gate_input_3 <- W_xc_x_3
I0905 15:21:36.483422 32713 net.cpp:380] lstmx_gate_input_3 -> gate_input_3
I0905 15:21:36.483471 32713 net.cpp:122] Setting up lstmx_gate_input_3
I0905 15:21:36.483479 32713 net.cpp:129] Top shape: 1 4 1024 (4096)
I0905 15:21:36.483481 32713 net.cpp:137] Memory required for data: 446848
I0905 15:21:36.483505 32713 layer_factory.hpp:77] Creating layer lstmx_unit_3
I0905 15:21:36.483512 32713 net.cpp:84] Creating Layer lstmx_unit_3
I0905 15:21:36.483516 32713 net.cpp:406] lstmx_unit_3 <- c_2
I0905 15:21:36.483522 32713 net.cpp:406] lstmx_unit_3 <- gate_input_3
I0905 15:21:36.483528 32713 net.cpp:406] lstmx_unit_3 <- cont_3_lstmx_cont_slice_2_split_1
I0905 15:21:36.483536 32713 net.cpp:380] lstmx_unit_3 -> c_3
I0905 15:21:36.483543 32713 net.cpp:380] lstmx_unit_3 -> h_3
I0905 15:21:36.483633 32713 net.cpp:122] Setting up lstmx_unit_3
I0905 15:21:36.483641 32713 net.cpp:129] Top shape: 1 4 256 (1024)
I0905 15:21:36.483645 32713 net.cpp:129] Top shape: 1 4 256 (1024)
I0905 15:21:36.483649 32713 net.cpp:137] Memory required for data: 455040
I0905 15:21:36.483654 32713 layer_factory.hpp:77] Creating layer h_3_lstmx_unit_3_1_split
I0905 15:21:36.483664 32713 net.cpp:84] Creating Layer h_3_lstmx_unit_3_1_split
I0905 15:21:36.483667 32713 net.cpp:406] h_3_lstmx_unit_3_1_split <- h_3
I0905 15:21:36.483675 32713 net.cpp:380] h_3_lstmx_unit_3_1_split -> h_3_lstmx_unit_3_1_split_0
I0905 15:21:36.483682 32713 net.cpp:380] h_3_lstmx_unit_3_1_split -> h_3_lstmx_unit_3_1_split_1
I0905 15:21:36.483745 32713 net.cpp:122] Setting up h_3_lstmx_unit_3_1_split
I0905 15:21:36.483752 32713 net.cpp:129] Top shape: 1 4 256 (1024)
I0905 15:21:36.483757 32713 net.cpp:129] Top shape: 1 4 256 (1024)
I0905 15:21:36.483759 32713 net.cpp:137] Memory required for data: 463232
I0905 15:21:36.483764 32713 layer_factory.hpp:77] Creating layer lstmx_h_conted_3
I0905 15:21:36.483772 32713 net.cpp:84] Creating Layer lstmx_h_conted_3
I0905 15:21:36.499161 32713 net.cpp:406] lstmx_h_conted_3 <- h_3_lstmx_unit_3_1_split_0
I0905 15:21:36.499177 32713 net.cpp:406] lstmx_h_conted_3 <- cont_4_lstmx_cont_slice_3_split_0
I0905 15:21:36.499195 32713 net.cpp:380] lstmx_h_conted_3 -> h_conted_3
I0905 15:21:36.499343 32713 net.cpp:122] Setting up lstmx_h_conted_3
I0905 15:21:36.499352 32713 net.cpp:129] Top shape: 1 4 256 (1024)
I0905 15:21:36.499356 32713 net.cpp:137] Memory required for data: 467328
I0905 15:21:36.499361 32713 layer_factory.hpp:77] Creating layer lstmx_transform_4
I0905 15:21:36.499372 32713 net.cpp:84] Creating Layer lstmx_transform_4
I0905 15:21:36.499375 32713 net.cpp:406] lstmx_transform_4 <- h_conted_3
I0905 15:21:36.499382 32713 net.cpp:380] lstmx_transform_4 -> W_hc_h_3
I0905 15:21:36.501579 32713 net.cpp:122] Setting up lstmx_transform_4
I0905 15:21:36.501586 32713 net.cpp:129] Top shape: 1 4 1024 (4096)
I0905 15:21:36.501590 32713 net.cpp:137] Memory required for data: 483712
I0905 15:21:36.501595 32713 net.cpp:465] Sharing parameters 'W_hc' owned by layer 'lstmx_transform_1', param index 0
I0905 15:21:36.501600 32713 layer_factory.hpp:77] Creating layer lstmx_gate_input_4
I0905 15:21:36.501607 32713 net.cpp:84] Creating Layer lstmx_gate_input_4
I0905 15:21:36.501611 32713 net.cpp:406] lstmx_gate_input_4 <- W_hc_h_3
I0905 15:21:36.501616 32713 net.cpp:406] lstmx_gate_input_4 <- W_xc_x_4
I0905 15:21:36.501624 32713 net.cpp:380] lstmx_gate_input_4 -> gate_input_4
I0905 15:21:36.501662 32713 net.cpp:122] Setting up lstmx_gate_input_4
I0905 15:21:36.501669 32713 net.cpp:129] Top shape: 1 4 1024 (4096)
I0905 15:21:36.501672 32713 net.cpp:137] Memory required for data: 500096
I0905 15:21:36.501677 32713 layer_factory.hpp:77] Creating layer lstmx_unit_4
I0905 15:21:36.501685 32713 net.cpp:84] Creating Layer lstmx_unit_4
I0905 15:21:36.501689 32713 net.cpp:406] lstmx_unit_4 <- c_3
I0905 15:21:36.501694 32713 net.cpp:406] lstmx_unit_4 <- gate_input_4
I0905 15:21:36.501700 32713 net.cpp:406] lstmx_unit_4 <- cont_4_lstmx_cont_slice_3_split_1
I0905 15:21:36.501706 32713 net.cpp:380] lstmx_unit_4 -> c_4
I0905 15:21:36.501713 32713 net.cpp:380] lstmx_unit_4 -> h_4
I0905 15:21:36.501793 32713 net.cpp:122] Setting up lstmx_unit_4
I0905 15:21:36.501801 32713 net.cpp:129] Top shape: 1 4 256 (1024)
I0905 15:21:36.501806 32713 net.cpp:129] Top shape: 1 4 256 (1024)
I0905 15:21:36.501808 32713 net.cpp:137] Memory required for data: 508288
I0905 15:21:36.501811 32713 layer_factory.hpp:77] Creating layer h_4_lstmx_unit_4_1_split
I0905 15:21:36.501847 32713 net.cpp:84] Creating Layer h_4_lstmx_unit_4_1_split
I0905 15:21:36.501852 32713 net.cpp:406] h_4_lstmx_unit_4_1_split <- h_4
I0905 15:21:36.501857 32713 net.cpp:380] h_4_lstmx_unit_4_1_split -> h_4_lstmx_unit_4_1_split_0
I0905 15:21:36.501865 32713 net.cpp:380] h_4_lstmx_unit_4_1_split -> h_4_lstmx_unit_4_1_split_1
I0905 15:21:36.501931 32713 net.cpp:122] Setting up h_4_lstmx_unit_4_1_split
I0905 15:21:36.501937 32713 net.cpp:129] Top shape: 1 4 256 (1024)
I0905 15:21:36.501941 32713 net.cpp:129] Top shape: 1 4 256 (1024)
I0905 15:21:36.501945 32713 net.cpp:137] Memory required for data: 516480
I0905 15:21:36.501950 32713 layer_factory.hpp:77] Creating layer lstmx_h_conted_4
I0905 15:21:36.501955 32713 net.cpp:84] Creating Layer lstmx_h_conted_4
I0905 15:21:36.501960 32713 net.cpp:406] lstmx_h_conted_4 <- h_4_lstmx_unit_4_1_split_0
I0905 15:21:36.501965 32713 net.cpp:406] lstmx_h_conted_4 <- cont_5_lstmx_cont_slice_4_split_0
I0905 15:21:36.501972 32713 net.cpp:380] lstmx_h_conted_4 -> h_conted_4
I0905 15:21:36.502077 32713 net.cpp:122] Setting up lstmx_h_conted_4
I0905 15:21:36.502084 32713 net.cpp:129] Top shape: 1 4 256 (1024)
I0905 15:21:36.502087 32713 net.cpp:137] Memory required for data: 520576
I0905 15:21:36.502091 32713 layer_factory.hpp:77] Creating layer lstmx_transform_5
I0905 15:21:36.502104 32713 net.cpp:84] Creating Layer lstmx_transform_5
I0905 15:21:36.502107 32713 net.cpp:406] lstmx_transform_5 <- h_conted_4
I0905 15:21:36.502115 32713 net.cpp:380] lstmx_transform_5 -> W_hc_h_4
I0905 15:21:36.505650 32713 net.cpp:122] Setting up lstmx_transform_5
I0905 15:21:36.505666 32713 net.cpp:129] Top shape: 1 4 1024 (4096)
I0905 15:21:36.505668 32713 net.cpp:137] Memory required for data: 536960
I0905 15:21:36.505673 32713 net.cpp:465] Sharing parameters 'W_hc' owned by layer 'lstmx_transform_1', param index 0
I0905 15:21:36.505679 32713 layer_factory.hpp:77] Creating layer lstmx_gate_input_5
I0905 15:21:36.505687 32713 net.cpp:84] Creating Layer lstmx_gate_input_5
I0905 15:21:36.505692 32713 net.cpp:406] lstmx_gate_input_5 <- W_hc_h_4
I0905 15:21:36.505698 32713 net.cpp:406] lstmx_gate_input_5 <- W_xc_x_5
I0905 15:21:36.505707 32713 net.cpp:380] lstmx_gate_input_5 -> gate_input_5
I0905 15:21:36.505750 32713 net.cpp:122] Setting up lstmx_gate_input_5
I0905 15:21:36.505758 32713 net.cpp:129] Top shape: 1 4 1024 (4096)
I0905 15:21:36.505760 32713 net.cpp:137] Memory required for data: 553344
I0905 15:21:36.505765 32713 layer_factory.hpp:77] Creating layer lstmx_unit_5
I0905 15:21:36.505774 32713 net.cpp:84] Creating Layer lstmx_unit_5
I0905 15:21:36.505779 32713 net.cpp:406] lstmx_unit_5 <- c_4
I0905 15:21:36.505784 32713 net.cpp:406] lstmx_unit_5 <- gate_input_5
I0905 15:21:36.505790 32713 net.cpp:406] lstmx_unit_5 <- cont_5_lstmx_cont_slice_4_split_1
I0905 15:21:36.505796 32713 net.cpp:380] lstmx_unit_5 -> c_5
I0905 15:21:36.505805 32713 net.cpp:380] lstmx_unit_5 -> h_5
I0905 15:21:36.505885 32713 net.cpp:122] Setting up lstmx_unit_5
I0905 15:21:36.505892 32713 net.cpp:129] Top shape: 1 4 256 (1024)
I0905 15:21:36.505897 32713 net.cpp:129] Top shape: 1 4 256 (1024)
I0905 15:21:36.505899 32713 net.cpp:137] Memory required for data: 561536
I0905 15:21:36.505903 32713 layer_factory.hpp:77] Creating layer h_5_lstmx_unit_5_1_split
I0905 15:21:36.505918 32713 net.cpp:84] Creating Layer h_5_lstmx_unit_5_1_split
I0905 15:21:36.505921 32713 net.cpp:406] h_5_lstmx_unit_5_1_split <- h_5
I0905 15:21:36.505928 32713 net.cpp:380] h_5_lstmx_unit_5_1_split -> h_5_lstmx_unit_5_1_split_0
I0905 15:21:36.505935 32713 net.cpp:380] h_5_lstmx_unit_5_1_split -> h_5_lstmx_unit_5_1_split_1
I0905 15:21:36.506000 32713 net.cpp:122] Setting up h_5_lstmx_unit_5_1_split
I0905 15:21:36.506006 32713 net.cpp:129] Top shape: 1 4 256 (1024)
I0905 15:21:36.506011 32713 net.cpp:129] Top shape: 1 4 256 (1024)
I0905 15:21:36.506013 32713 net.cpp:137] Memory required for data: 569728
I0905 15:21:36.506017 32713 layer_factory.hpp:77] Creating layer lstmx_h_conted_5
I0905 15:21:36.506042 32713 net.cpp:84] Creating Layer lstmx_h_conted_5
I0905 15:21:36.506047 32713 net.cpp:406] lstmx_h_conted_5 <- h_5_lstmx_unit_5_1_split_0
I0905 15:21:36.506053 32713 net.cpp:406] lstmx_h_conted_5 <- cont_6_lstmx_cont_slice_5_split_0
I0905 15:21:36.506062 32713 net.cpp:380] lstmx_h_conted_5 -> h_conted_5
I0905 15:21:36.506177 32713 net.cpp:122] Setting up lstmx_h_conted_5
I0905 15:21:36.506184 32713 net.cpp:129] Top shape: 1 4 256 (1024)
I0905 15:21:36.506187 32713 net.cpp:137] Memory required for data: 573824
I0905 15:21:36.506192 32713 layer_factory.hpp:77] Creating layer lstmx_transform_6
I0905 15:21:36.506201 32713 net.cpp:84] Creating Layer lstmx_transform_6
I0905 15:21:36.506204 32713 net.cpp:406] lstmx_transform_6 <- h_conted_5
I0905 15:21:36.506211 32713 net.cpp:380] lstmx_transform_6 -> W_hc_h_5
I0905 15:21:36.508415 32713 net.cpp:122] Setting up lstmx_transform_6
I0905 15:21:36.508424 32713 net.cpp:129] Top shape: 1 4 1024 (4096)
I0905 15:21:36.508427 32713 net.cpp:137] Memory required for data: 590208
I0905 15:21:36.508432 32713 net.cpp:465] Sharing parameters 'W_hc' owned by layer 'lstmx_transform_1', param index 0
I0905 15:21:36.508437 32713 layer_factory.hpp:77] Creating layer lstmx_gate_input_6
I0905 15:21:36.508445 32713 net.cpp:84] Creating Layer lstmx_gate_input_6
I0905 15:21:36.508448 32713 net.cpp:406] lstmx_gate_input_6 <- W_hc_h_5
I0905 15:21:36.508455 32713 net.cpp:406] lstmx_gate_input_6 <- W_xc_x_6
I0905 15:21:36.508463 32713 net.cpp:380] lstmx_gate_input_6 -> gate_input_6
I0905 15:21:36.519793 32713 net.cpp:122] Setting up lstmx_gate_input_6
I0905 15:21:36.519816 32713 net.cpp:129] Top shape: 1 4 1024 (4096)
I0905 15:21:36.519821 32713 net.cpp:137] Memory required for data: 606592
I0905 15:21:36.519829 32713 layer_factory.hpp:77] Creating layer lstmx_unit_6
I0905 15:21:36.519841 32713 net.cpp:84] Creating Layer lstmx_unit_6
I0905 15:21:36.519848 32713 net.cpp:406] lstmx_unit_6 <- c_5
I0905 15:21:36.519857 32713 net.cpp:406] lstmx_unit_6 <- gate_input_6
I0905 15:21:36.519866 32713 net.cpp:406] lstmx_unit_6 <- cont_6_lstmx_cont_slice_5_split_1
I0905 15:21:36.519882 32713 net.cpp:380] lstmx_unit_6 -> c_6
I0905 15:21:36.519894 32713 net.cpp:380] lstmx_unit_6 -> h_6
I0905 15:21:36.520025 32713 net.cpp:122] Setting up lstmx_unit_6
I0905 15:21:36.520051 32713 net.cpp:129] Top shape: 1 4 256 (1024)
I0905 15:21:36.520054 32713 net.cpp:129] Top shape: 1 4 256 (1024)
I0905 15:21:36.520057 32713 net.cpp:137] Memory required for data: 614784
I0905 15:21:36.520061 32713 layer_factory.hpp:77] Creating layer lstmx_
I0905 15:21:36.520067 32713 net.cpp:84] Creating Layer lstmx_
I0905 15:21:36.520071 32713 net.cpp:406] lstmx_ <- c_6
I0905 15:21:36.520076 32713 net.cpp:380] lstmx_ -> c_T
I0905 15:21:36.520117 32713 net.cpp:122] Setting up lstmx_
I0905 15:21:36.520123 32713 net.cpp:129] Top shape: 1 4 256 (1024)
I0905 15:21:36.520126 32713 net.cpp:137] Memory required for data: 618880
I0905 15:21:36.520129 32713 layer_factory.hpp:77] Creating layer lstmx_h_concat
I0905 15:21:36.520139 32713 net.cpp:84] Creating Layer lstmx_h_concat
I0905 15:21:36.520144 32713 net.cpp:406] lstmx_h_concat <- h_1_lstmx_unit_1_1_split_1
I0905 15:21:36.520149 32713 net.cpp:406] lstmx_h_concat <- h_2_lstmx_unit_2_1_split_1
I0905 15:21:36.520154 32713 net.cpp:406] lstmx_h_concat <- h_3_lstmx_unit_3_1_split_1
I0905 15:21:36.520159 32713 net.cpp:406] lstmx_h_concat <- h_4_lstmx_unit_4_1_split_1
I0905 15:21:36.520164 32713 net.cpp:406] lstmx_h_concat <- h_5_lstmx_unit_5_1_split_1
I0905 15:21:36.520167 32713 net.cpp:406] lstmx_h_concat <- h_6
I0905 15:21:36.520174 32713 net.cpp:380] lstmx_h_concat -> h
I0905 15:21:36.520213 32713 net.cpp:122] Setting up lstmx_h_concat
I0905 15:21:36.520220 32713 net.cpp:129] Top shape: 6 4 256 (6144)
I0905 15:21:36.520223 32713 net.cpp:137] Memory required for data: 643456
I0905 15:21:36.520226 32713 layer_factory.hpp:77] Creating layer h_pseudoloss
I0905 15:21:36.520233 32713 net.cpp:84] Creating Layer h_pseudoloss
I0905 15:21:36.520237 32713 net.cpp:406] h_pseudoloss <- h
I0905 15:21:36.520264 32713 net.cpp:380] h_pseudoloss -> h_pseudoloss
I0905 15:21:36.520364 32713 net.cpp:122] Setting up h_pseudoloss
…
I0905 15:21:36.520633 32713 net.cpp:200] lstmx_ does not need backward computation.
I0905 15:21:36.520637 32713 net.cpp:242] This network produces output c_T
I0905 15:21:36.520642 32713 net.cpp:242] This network produces output h_pseudoloss
I0905 15:21:36.521797 32713 net.cpp:255] Network initialization done.
I0905 15:21:36.521917 32713 recurrent_layer.cpp:150] Adding parameter 0: W_xc
I0905 15:21:36.521924 32713 recurrent_layer.cpp:150] Adding parameter 1: b_c
I0905 15:21:36.521927 32713 recurrent_layer.cpp:150] Adding parameter 2: W_hc
I0905 15:21:36.522085 32713 net.cpp:122] Setting up lstmx
I0905 15:21:36.522096 32713 net.cpp:129] Top shape: 6 4 256 (6144)
I0905 15:21:36.522100 32713 net.cpp:137] Memory required for data: 6458625184
I0905 15:21:36.522110 32713 layer_factory.hpp:77] Creating layer slice_lstmx
I0905 15:21:36.522119 32713 net.cpp:84] Creating Layer slice_lstmx
I0905 15:21:36.522126 32713 net.cpp:406] slice_lstmx <- lstmx
I0905 15:21:36.522135 32713 net.cpp:380] slice_lstmx -> listmx_out1
I0905 15:21:36.522143 32713 net.cpp:380] slice_lstmx -> listmx_out
I0905 15:21:36.522208 32713 net.cpp:122] Setting up slice_lstmx
I0905 15:21:36.522215 32713 net.cpp:129] Top shape: 5 4 256 (5120)
I0905 15:21:36.522220 32713 net.cpp:129] Top shape: 1 4 256 (1024)
I0905 15:21:36.522223 32713 net.cpp:137] Memory required for data: 6458649760
I0905 15:21:36.522228 32713 layer_factory.hpp:77] Creating layer silence
I0905 15:21:36.530062 32713 net.cpp:84] Creating Layer silence
I0905 15:21:36.530076 32713 net.cpp:406] silence <- listmx_out1
I0905 15:21:36.530084 32713 net.cpp:122] Setting up silence
I0905 15:21:36.530087 32713 net.cpp:137] Memory required for data: 6458649760
I0905 15:21:36.530093 32713 layer_factory.hpp:77] Creating layer reshape
I0905 15:21:36.530102 32713 net.cpp:84] Creating Layer reshape
I0905 15:21:36.530107 32713 net.cpp:406] reshape <- listmx_out
I0905 15:21:36.530113 32713 net.cpp:380] reshape -> reshape
I0905 15:21:36.530181 32713 net.cpp:122] Setting up reshape
I0905 15:21:36.530189 32713 net.cpp:129] Top shape: 4 256 (1024)
I0905 15:21:36.530192 32713 net.cpp:137] Memory required for data: 6458653856
I0905 15:21:36.530197 32713 layer_factory.hpp:77] Creating layer fc6_no_action
I0905 15:21:36.530207 32713 net.cpp:84] Creating Layer fc6_no_action
I0905 15:21:36.530211 32713 net.cpp:406] fc6_no_action <- reshape
I0905 15:21:36.530218 32713 net.cpp:380] fc6_no_action -> fc6
I0905 15:21:36.530536 32713 net.cpp:122] Setting up fc6_no_action
I0905 15:21:36.530546 32713 net.cpp:129] Top shape: 4 21 (84)
I0905 15:21:36.530550 32713 net.cpp:137] Memory required for data: 6458654192
I0905 15:21:36.530558 32713 layer_factory.hpp:77] Creating layer fc6_fc6_no_action_0_split
I0905 15:21:36.530566 32713 net.cpp:84] Creating Layer fc6_fc6_no_action_0_split
I0905 15:21:36.530572 32713 net.cpp:406] fc6_fc6_no_action_0_split <- fc6
I0905 15:21:36.530580 32713 net.cpp:380] fc6_fc6_no_action_0_split -> fc6_fc6_no_action_0_split_0
I0905 15:21:36.530589 32713 net.cpp:380] fc6_fc6_no_action_0_split -> fc6_fc6_no_action_0_split_1
I0905 15:21:36.530653 32713 net.cpp:122] Setting up fc6_fc6_no_action_0_split
I0905 15:21:36.530661 32713 net.cpp:129] Top shape: 4 21 (84)
I0905 15:21:36.530665 32713 net.cpp:129] Top shape: 4 21 (84)
I0905 15:21:36.530669 32713 net.cpp:137] Memory required for data: 6458654864
I0905 15:21:36.530673 32713 layer_factory.hpp:77] Creating layer loss
I0905 15:21:36.530681 32713 net.cpp:84] Creating Layer loss
I0905 15:21:36.530685 32713 net.cpp:406] loss <- fc6_fc6_no_action_0_split_0
I0905 15:21:36.530691 32713 net.cpp:406] loss <- label_data_1_split_0
I0905 15:21:36.530699 32713 net.cpp:380] loss -> loss
I0905 15:21:36.530710 32713 layer_factory.hpp:77] Creating layer loss
I0905 15:21:36.531460 32713 net.cpp:122] Setting up loss
I0905 15:21:36.531474 32713 net.cpp:129] Top shape: (1)
I0905 15:21:36.531477 32713 net.cpp:132]     with loss weight 1
I0905 15:21:36.531487 32713 net.cpp:137] Memory required for data: 6458654868
I0905 15:21:36.531491 32713 layer_factory.hpp:77] Creating layer prob
I0905 15:21:36.531519 32713 net.cpp:84] Creating Layer prob
I0905 15:21:36.531525 32713 net.cpp:406] prob <- fc6_fc6_no_action_0_split_1
I0905 15:21:36.531534 32713 net.cpp:380] prob -> prob
I0905 15:21:36.532167 32713 net.cpp:122] Setting up prob
I0905 15:21:36.532182 32713 net.cpp:129] Top shape: 4 21 (84)
I0905 15:21:36.532186 32713 net.cpp:137] Memory required for data: 6458655204
I0905 15:21:36.532191 32713 layer_factory.hpp:77] Creating layer accuracy
I0905 15:21:36.532199 32713 net.cpp:84] Creating Layer accuracy
I0905 15:21:36.532203 32713 net.cpp:406] accuracy <- prob
I0905 15:21:36.532210 32713 net.cpp:406] accuracy <- label_data_1_split_1
I0905 15:21:36.532217 32713 net.cpp:380] accuracy -> accuracy/top-1
…
